,model,lookback,n1,epsilon,epsilon_decay,learning_rate,discount_rate,tr_cooperation_percentage,tr_defection_percentage,tr_final_loss,tr_mean_reward,tr_cumul_reward,tr_cumul_regret,tn_rank,tn_mean_score,tn_mean_time,agents
0,"QNetwork(
  (flatten): Flatten(start_dim=1, end_dim=-1)
  (layer1): Linear(in_features=4, out_features=4, bias=True)
  (layer2): Linear(in_features=4, out_features=4, bias=True)
  (layer3): Linear(in_features=4, out_features=2, bias=True)
)",2,4,0.05,0.0,0.01,0.95,0.66241,0.33759,0.3980146286688889,2.712505,542501,57499,25,501.2209677419355,17.226446999999993,"TitForTat,TidemanAndChieruzzi,Nydegger,Grofman,Shubik"
1,"QNetwork(
  (flatten): Flatten(start_dim=1, end_dim=-1)
  (layer1): Linear(in_features=4, out_features=4, bias=True)
  (layer2): Linear(in_features=4, out_features=4, bias=True)
  (layer3): Linear(in_features=4, out_features=2, bias=True)
)",2,4,0.05,0.0,0.01,0.99,0.975565,0.024435,2.435150783968959,2.933575,586715,13285,25,699.7483870967742,11.874515,"TitForTat,TidemanAndChieruzzi,Nydegger,Grofman,Shubik"
2,"QNetwork(
  (flatten): Flatten(start_dim=1, end_dim=-1)
  (layer1): Linear(in_features=4, out_features=4, bias=True)
  (layer2): Linear(in_features=4, out_features=4, bias=True)
  (layer3): Linear(in_features=4, out_features=2, bias=True)
)",2,4,0.05,0.0,0.001,0.95,0.97476,0.02524,2.067951329619524,2.93111,586222,13778,17,737.0887096774194,11.687657000000002,"TitForTat,TidemanAndChieruzzi,Nydegger,Grofman,Shubik"
3,"QNetwork(
  (flatten): Flatten(start_dim=1, end_dim=-1)
  (layer1): Linear(in_features=4, out_features=4, bias=True)
  (layer2): Linear(in_features=4, out_features=4, bias=True)
  (layer3): Linear(in_features=4, out_features=2, bias=True)
)",2,4,0.05,0.0,0.001,0.99,0.28552,0.71448,0.9877831643987783,2.25206,450412,149588,28,446.9258064516129,13.639834,"TitForTat,TidemanAndChieruzzi,Nydegger,Grofman,Shubik"
4,"QNetwork(
  (flatten): Flatten(start_dim=1, end_dim=-1)
  (layer1): Linear(in_features=4, out_features=4, bias=True)
  (layer2): Linear(in_features=4, out_features=4, bias=True)
  (layer3): Linear(in_features=4, out_features=2, bias=True)
)",2,4,0.05,0.002,0.01,0.95,0.36665,0.63335,0.48705366763807906,2.472085,494417,105583,31,421.10967741935485,14.793627000000003,"TitForTat,TidemanAndChieruzzi,Nydegger,Grofman,Shubik"
5,"QNetwork(
  (flatten): Flatten(start_dim=1, end_dim=-1)
  (layer1): Linear(in_features=4, out_features=4, bias=True)
  (layer2): Linear(in_features=4, out_features=4, bias=True)
  (layer3): Linear(in_features=4, out_features=2, bias=True)
)",2,4,0.05,0.002,0.01,0.99,0.975045,0.024955,2.45368,2.93511,587022,12978,24,731.2774193548387,12.570027,"TitForTat,TidemanAndChieruzzi,Nydegger,Grofman,Shubik"
6,"QNetwork(
  (flatten): Flatten(start_dim=1, end_dim=-1)
  (layer1): Linear(in_features=4, out_features=4, bias=True)
  (layer2): Linear(in_features=4, out_features=4, bias=True)
  (layer3): Linear(in_features=4, out_features=2, bias=True)
)",2,4,0.05,0.002,0.001,0.95,0.766745,0.233255,0.41605837203752816,2.740945,548189,51811,25,701.6612903225806,11.902277000000003,"TitForTat,TidemanAndChieruzzi,Nydegger,Grofman,Shubik"
7,"QNetwork(
  (flatten): Flatten(start_dim=1, end_dim=-1)
  (layer1): Linear(in_features=4, out_features=4, bias=True)
  (layer2): Linear(in_features=4, out_features=4, bias=True)
  (layer3): Linear(in_features=4, out_features=2, bias=True)
)",2,4,0.05,0.002,0.001,0.99,0.97552,0.02448,2.4544425,2.936295,587259,12741,13,738.5725806451613,11.953507000000002,"TitForTat,TidemanAndChieruzzi,Nydegger,Grofman,Shubik"
8,"QNetwork(
  (flatten): Flatten(start_dim=1, end_dim=-1)
  (layer1): Linear(in_features=4, out_features=4, bias=True)
  (layer2): Linear(in_features=4, out_features=4, bias=True)
  (layer3): Linear(in_features=4, out_features=2, bias=True)
)",2,4,0.1,0.0,0.01,0.95,0.949455,0.050545,2.389035,2.84976,569952,30048,19,747.4725806451613,12.496437,"TitForTat,TidemanAndChieruzzi,Nydegger,Grofman,Shubik"
9,"QNetwork(
  (flatten): Flatten(start_dim=1, end_dim=-1)
  (layer1): Linear(in_features=4, out_features=4, bias=True)
  (layer2): Linear(in_features=4, out_features=4, bias=True)
  (layer3): Linear(in_features=4, out_features=2, bias=True)
)",2,4,0.1,0.0,0.01,0.99,0.94994,0.05006,2.3862534753036497,2.846955,569391,30609,24,679.0096774193548,11.631396999999998,"TitForTat,TidemanAndChieruzzi,Nydegger,Grofman,Shubik"
10,"QNetwork(
  (flatten): Flatten(start_dim=1, end_dim=-1)
  (layer1): Linear(in_features=4, out_features=4, bias=True)
  (layer2): Linear(in_features=4, out_features=4, bias=True)
  (layer3): Linear(in_features=4, out_features=2, bias=True)
)",2,4,0.1,0.0,0.001,0.95,0.16472,0.83528,0.8115267517335509,2.16903,433806,166194,26,503.56935483870967,12.898931000000001,"TitForTat,TidemanAndChieruzzi,Nydegger,Grofman,Shubik"
11,"QNetwork(
  (flatten): Flatten(start_dim=1, end_dim=-1)
  (layer1): Linear(in_features=4, out_features=4, bias=True)
  (layer2): Linear(in_features=4, out_features=4, bias=True)
  (layer3): Linear(in_features=4, out_features=2, bias=True)
)",2,4,0.1,0.0,0.001,0.99,0.29388,0.70612,1.4741549727804708,2.16286,432572,167428,27,464.491935483871,15.296287,"TitForTat,TidemanAndChieruzzi,Nydegger,Grofman,Shubik"
12,"QNetwork(
  (flatten): Flatten(start_dim=1, end_dim=-1)
  (layer1): Linear(in_features=4, out_features=4, bias=True)
  (layer2): Linear(in_features=4, out_features=4, bias=True)
  (layer3): Linear(in_features=4, out_features=2, bias=True)
)",2,4,0.1,0.002,0.01,0.95,0.972975,0.027025,2.4478277306814493,2.9275,585500,14500,16,730.6677419354838,12.104774000000003,"TitForTat,TidemanAndChieruzzi,Nydegger,Grofman,Shubik"
13,"QNetwork(
  (flatten): Flatten(start_dim=1, end_dim=-1)
  (layer1): Linear(in_features=4, out_features=4, bias=True)
  (layer2): Linear(in_features=4, out_features=4, bias=True)
  (layer3): Linear(in_features=4, out_features=2, bias=True)
)",2,4,0.1,0.002,0.01,0.99,0.35699,0.64301,1.6035721627865613,2.08567,417134,182866,26,528.7870967741935,14.002467999999995,"TitForTat,TidemanAndChieruzzi,Nydegger,Grofman,Shubik"
14,"QNetwork(
  (flatten): Flatten(start_dim=1, end_dim=-1)
  (layer1): Linear(in_features=4, out_features=4, bias=True)
  (layer2): Linear(in_features=4, out_features=4, bias=True)
  (layer3): Linear(in_features=4, out_features=2, bias=True)
)",2,4,0.1,0.002,0.001,0.95,0.027185,0.972815,1.595680145041987,2.273735,454747,145253,28,482.1967741935484,16.69638,"TitForTat,TidemanAndChieruzzi,Nydegger,Grofman,Shubik"
15,"QNetwork(
  (flatten): Flatten(start_dim=1, end_dim=-1)
  (layer1): Linear(in_features=4, out_features=4, bias=True)
  (layer2): Linear(in_features=4, out_features=4, bias=True)
  (layer3): Linear(in_features=4, out_features=2, bias=True)
)",2,4,0.1,0.002,0.001,0.99,0.791505,0.208495,1.9800920826710993,2.40134,480268,119732,25,616.6854838709677,13.743368,"TitForTat,TidemanAndChieruzzi,Nydegger,Grofman,Shubik"
16,"QNetwork(
  (flatten): Flatten(start_dim=1, end_dim=-1)
  (layer1): Linear(in_features=4, out_features=4, bias=True)
  (layer2): Linear(in_features=4, out_features=4, bias=True)
  (layer3): Linear(in_features=4, out_features=2, bias=True)
)",2,4,0.2,0.0,0.01,0.95,0.35307,0.64693,0.6217602101702872,2.36756,473512,126488,31,432.9612903225806,14.641852000000002,"TitForTat,TidemanAndChieruzzi,Nydegger,Grofman,Shubik"
17,"QNetwork(
  (flatten): Flatten(start_dim=1, end_dim=-1)
  (layer1): Linear(in_features=4, out_features=4, bias=True)
  (layer2): Linear(in_features=4, out_features=4, bias=True)
  (layer3): Linear(in_features=4, out_features=2, bias=True)
)",2,4,0.2,0.0,0.01,0.99,0.900185,0.099815,2.2609539939699372,2.686595,537319,62681,12,776.0064516129032,12.879030000000002,"TitForTat,TidemanAndChieruzzi,Nydegger,Grofman,Shubik"
18,"QNetwork(
  (flatten): Flatten(start_dim=1, end_dim=-1)
  (layer1): Linear(in_features=4, out_features=4, bias=True)
  (layer2): Linear(in_features=4, out_features=4, bias=True)
  (layer3): Linear(in_features=4, out_features=2, bias=True)
)",2,4,0.2,0.0,0.001,0.95,0.40412,0.59588,1.5127112350424787,2.227925,445585,154415,25,640.5290322580645,13.656405999999999,"TitForTat,TidemanAndChieruzzi,Nydegger,Grofman,Shubik"
19,"QNetwork(
  (flatten): Flatten(start_dim=1, end_dim=-1)
  (layer1): Linear(in_features=4, out_features=4, bias=True)
  (layer2): Linear(in_features=4, out_features=4, bias=True)
  (layer3): Linear(in_features=4, out_features=2, bias=True)
)",2,4,0.2,0.0,0.001,0.99,0.806285,0.193715,2.070377060666823,2.506155,501231,98769,25,650.591935483871,12.387369,"TitForTat,TidemanAndChieruzzi,Nydegger,Grofman,Shubik"
20,"QNetwork(
  (flatten): Flatten(start_dim=1, end_dim=-1)
  (layer1): Linear(in_features=4, out_features=4, bias=True)
  (layer2): Linear(in_features=4, out_features=4, bias=True)
  (layer3): Linear(in_features=4, out_features=2, bias=True)
)",2,4,0.2,0.002,0.01,0.95,0.314775,0.685225,0.4867965671656284,2.42047,484094,115906,30,430.7241935483871,13.778706,"TitForTat,TidemanAndChieruzzi,Nydegger,Grofman,Shubik"
21,"QNetwork(
  (flatten): Flatten(start_dim=1, end_dim=-1)
  (layer1): Linear(in_features=4, out_features=4, bias=True)
  (layer2): Linear(in_features=4, out_features=4, bias=True)
  (layer3): Linear(in_features=4, out_features=2, bias=True)
)",2,4,0.2,0.002,0.01,0.99,0.513515,0.486485,0.7220403884210368,2.559625,511925,88075,20,753.5790322580646,12.564754000000002,"TitForTat,TidemanAndChieruzzi,Nydegger,Grofman,Shubik"
22,"QNetwork(
  (flatten): Flatten(start_dim=1, end_dim=-1)
  (layer1): Linear(in_features=4, out_features=4, bias=True)
  (layer2): Linear(in_features=4, out_features=4, bias=True)
  (layer3): Linear(in_features=4, out_features=2, bias=True)
)",2,4,0.2,0.002,0.001,0.95,0.653035,0.346965,0.47910736045785246,2.59928,519856,80144,22,731.2516129032258,12.441158999999995,"TitForTat,TidemanAndChieruzzi,Nydegger,Grofman,Shubik"
23,"QNetwork(
  (flatten): Flatten(start_dim=1, end_dim=-1)
  (layer1): Linear(in_features=4, out_features=4, bias=True)
  (layer2): Linear(in_features=4, out_features=4, bias=True)
  (layer3): Linear(in_features=4, out_features=2, bias=True)
)",2,4,0.2,0.002,0.001,0.99,0.34051,0.65949,1.0270496561101583,2.289775,457955,142045,12,775.1951612903226,12.815532000000001,"TitForTat,TidemanAndChieruzzi,Nydegger,Grofman,Shubik"
24,"QNetwork(
  (flatten): Flatten(start_dim=1, end_dim=-1)
  (layer1): Linear(in_features=4, out_features=8, bias=True)
  (layer2): Linear(in_features=8, out_features=8, bias=True)
  (layer3): Linear(in_features=8, out_features=2, bias=True)
)",2,8,0.05,0.0,0.01,0.95,0.974595,0.025405,1.4308896429841502,2.93156,586312,13688,25,701.9532258064517,12.195989,"TitForTat,TidemanAndChieruzzi,Nydegger,Grofman,Shubik"
25,"QNetwork(
  (flatten): Flatten(start_dim=1, end_dim=-1)
  (layer1): Linear(in_features=4, out_features=8, bias=True)
  (layer2): Linear(in_features=8, out_features=8, bias=True)
  (layer3): Linear(in_features=8, out_features=2, bias=True)
)",2,8,0.05,0.0,0.01,0.99,0.972465,0.027535,2.4351375197570095,2.93356,586712,13288,25,695.1854838709677,11.959570999999995,"TitForTat,TidemanAndChieruzzi,Nydegger,Grofman,Shubik"
26,"QNetwork(
  (flatten): Flatten(start_dim=1, end_dim=-1)
  (layer1): Linear(in_features=4, out_features=8, bias=True)
  (layer2): Linear(in_features=8, out_features=8, bias=True)
  (layer3): Linear(in_features=8, out_features=2, bias=True)
)",2,8,0.05,0.0,0.001,0.95,0.975475,0.024525,1.4215781908308853,2.937445,587489,12511,25,647.1822580645161,11.266605000000004,"TitForTat,TidemanAndChieruzzi,Nydegger,Grofman,Shubik"
27,"QNetwork(
  (flatten): Flatten(start_dim=1, end_dim=-1)
  (layer1): Linear(in_features=4, out_features=8, bias=True)
  (layer2): Linear(in_features=8, out_features=8, bias=True)
  (layer3): Linear(in_features=8, out_features=2, bias=True)
)",2,8,0.05,0.0,0.001,0.99,0.43602,0.56398,1.6494749536742124,2.13397,426794,173206,25,529.6725806451612,14.997668000000003,"TitForTat,TidemanAndChieruzzi,Nydegger,Grofman,Shubik"
28,"QNetwork(
  (flatten): Flatten(start_dim=1, end_dim=-1)
  (layer1): Linear(in_features=4, out_features=8, bias=True)
  (layer2): Linear(in_features=8, out_features=8, bias=True)
  (layer3): Linear(in_features=8, out_features=2, bias=True)
)",2,8,0.05,0.002,0.01,0.95,0.60276,0.39724,0.4012313015152728,2.70416,540832,59168,30,439.25967741935483,14.867505000000003,"TitForTat,TidemanAndChieruzzi,Nydegger,Grofman,Shubik"
29,"QNetwork(
  (flatten): Flatten(start_dim=1, end_dim=-1)
  (layer1): Linear(in_features=4, out_features=8, bias=True)
  (layer2): Linear(in_features=8, out_features=8, bias=True)
  (layer3): Linear(in_features=8, out_features=2, bias=True)
)",2,8,0.05,0.002,0.01,0.99,0.97459,0.02541,2.451234196811331,2.932115,586423,13577,25,695.3822580645161,11.995185999999997,"TitForTat,TidemanAndChieruzzi,Nydegger,Grofman,Shubik"
30,"QNetwork(
  (flatten): Flatten(start_dim=1, end_dim=-1)
  (layer1): Linear(in_features=4, out_features=8, bias=True)
  (layer2): Linear(in_features=8, out_features=8, bias=True)
  (layer3): Linear(in_features=8, out_features=2, bias=True)
)",2,8,0.05,0.002,0.001,0.95,0.532965,0.467035,0.5651775782694609,2.582285,516457,83543,22,728.8612903225807,12.906262,"TitForTat,TidemanAndChieruzzi,Nydegger,Grofman,Shubik"
31,"QNetwork(
  (flatten): Flatten(start_dim=1, end_dim=-1)
  (layer1): Linear(in_features=4, out_features=8, bias=True)
  (layer2): Linear(in_features=8, out_features=8, bias=True)
  (layer3): Linear(in_features=8, out_features=2, bias=True)
)",2,8,0.05,0.002,0.001,0.99,0.89751,0.10249,2.336773478487505,2.83509,567018,32982,25,565.1903225806452,13.58887,"TitForTat,TidemanAndChieruzzi,Nydegger,Grofman,Shubik"
32,"QNetwork(
  (flatten): Flatten(start_dim=1, end_dim=-1)
  (layer1): Linear(in_features=4, out_features=8, bias=True)
  (layer2): Linear(in_features=8, out_features=8, bias=True)
  (layer3): Linear(in_features=8, out_features=2, bias=True)
)",2,8,0.1,0.0,0.01,0.95,0.578775,0.421225,0.5234397207304022,2.626265,525253,74747,19,743.4016129032258,12.481884999999998,"TitForTat,TidemanAndChieruzzi,Nydegger,Grofman,Shubik"
33,"QNetwork(
  (flatten): Flatten(start_dim=1, end_dim=-1)
  (layer1): Linear(in_features=4, out_features=8, bias=True)
  (layer2): Linear(in_features=8, out_features=8, bias=True)
  (layer3): Linear(in_features=8, out_features=2, bias=True)
)",2,8,0.1,0.0,0.01,0.99,0.430085,0.569915,0.8098231483629685,2.40318,480636,119364,27,475.85645161290324,15.432505999999998,"TitForTat,TidemanAndChieruzzi,Nydegger,Grofman,Shubik"
34,"QNetwork(
  (flatten): Flatten(start_dim=1, end_dim=-1)
  (layer1): Linear(in_features=4, out_features=8, bias=True)
  (layer2): Linear(in_features=8, out_features=8, bias=True)
  (layer3): Linear(in_features=8, out_features=2, bias=True)
)",2,8,0.1,0.0,0.001,0.95,0.950085,0.049915,2.3592072218641227,2.842935,568587,31413,23,720.0290322580645,11.844326999999998,"TitForTat,TidemanAndChieruzzi,Nydegger,Grofman,Shubik"
35,"QNetwork(
  (flatten): Flatten(start_dim=1, end_dim=-1)
  (layer1): Linear(in_features=4, out_features=8, bias=True)
  (layer2): Linear(in_features=8, out_features=8, bias=True)
  (layer3): Linear(in_features=8, out_features=2, bias=True)
)",2,8,0.1,0.0,0.001,0.99,0.775185,0.224815,2.074741587676973,2.55442,510884,89116,28,471.8516129032258,17.948796,"TitForTat,TidemanAndChieruzzi,Nydegger,Grofman,Shubik"
36,"QNetwork(
  (flatten): Flatten(start_dim=1, end_dim=-1)
  (layer1): Linear(in_features=4, out_features=8, bias=True)
  (layer2): Linear(in_features=8, out_features=8, bias=True)
  (layer3): Linear(in_features=8, out_features=2, bias=True)
)",2,8,0.1,0.002,0.01,0.95,0.03783,0.96217,1.5735111508102937,2.270325,454065,145935,28,458.0806451612903,14.364988,"TitForTat,TidemanAndChieruzzi,Nydegger,Grofman,Shubik"
37,"QNetwork(
  (flatten): Flatten(start_dim=1, end_dim=-1)
  (layer1): Linear(in_features=4, out_features=8, bias=True)
  (layer2): Linear(in_features=8, out_features=8, bias=True)
  (layer3): Linear(in_features=8, out_features=2, bias=True)
)",2,8,0.1,0.002,0.01,0.99,0.56047,0.43953,0.629428114740976,2.607505,521501,78499,23,720.1645161290322,12.156416000000002,"TitForTat,TidemanAndChieruzzi,Nydegger,Grofman,Shubik"
38,"QNetwork(
  (flatten): Flatten(start_dim=1, end_dim=-1)
  (layer1): Linear(in_features=4, out_features=8, bias=True)
  (layer2): Linear(in_features=8, out_features=8, bias=True)
  (layer3): Linear(in_features=8, out_features=2, bias=True)
)",2,8,0.1,0.002,0.001,0.95,0.852965,0.147035,0.2813316704615049,2.83994,567988,32012,27,480.0435483870968,15.249621,"TitForTat,TidemanAndChieruzzi,Nydegger,Grofman,Shubik"
39,"QNetwork(
  (flatten): Flatten(start_dim=1, end_dim=-1)
  (layer1): Linear(in_features=4, out_features=8, bias=True)
  (layer2): Linear(in_features=8, out_features=8, bias=True)
  (layer3): Linear(in_features=8, out_features=2, bias=True)
)",2,8,0.1,0.002,0.001,0.99,0.492665,0.507335,1.6877343721744051,2.177035,435407,164593,30,468.40806451612906,12.529182999999998,"TitForTat,TidemanAndChieruzzi,Nydegger,Grofman,Shubik"
40,"QNetwork(
  (flatten): Flatten(start_dim=1, end_dim=-1)
  (layer1): Linear(in_features=4, out_features=8, bias=True)
  (layer2): Linear(in_features=8, out_features=8, bias=True)
  (layer3): Linear(in_features=8, out_features=2, bias=True)
)",2,8,0.2,0.0,0.01,0.95,0.526315,0.473685,0.6282048107764062,2.53231,506462,93538,25,568.2048387096775,14.080312000000003,"TitForTat,TidemanAndChieruzzi,Nydegger,Grofman,Shubik"
41,"QNetwork(
  (flatten): Flatten(start_dim=1, end_dim=-1)
  (layer1): Linear(in_features=4, out_features=8, bias=True)
  (layer2): Linear(in_features=8, out_features=8, bias=True)
  (layer3): Linear(in_features=8, out_features=2, bias=True)
)",2,8,0.2,0.0,0.01,0.99,0.41616,0.58384,0.8729111363944232,2.313225,462645,137355,30,439.14032258064515,14.568399000000007,"TitForTat,TidemanAndChieruzzi,Nydegger,Grofman,Shubik"
42,"QNetwork(
  (flatten): Flatten(start_dim=1, end_dim=-1)
  (layer1): Linear(in_features=4, out_features=8, bias=True)
  (layer2): Linear(in_features=8, out_features=8, bias=True)
  (layer3): Linear(in_features=8, out_features=2, bias=True)
)",2,8,0.2,0.0,0.001,0.95,0.234335,0.765665,0.786834885172795,2.14665,429330,170670,25,550.5016129032258,12.821458,"TitForTat,TidemanAndChieruzzi,Nydegger,Grofman,Shubik"
43,"QNetwork(
  (flatten): Flatten(start_dim=1, end_dim=-1)
  (layer1): Linear(in_features=4, out_features=8, bias=True)
  (layer2): Linear(in_features=8, out_features=8, bias=True)
  (layer3): Linear(in_features=8, out_features=2, bias=True)
)",2,8,0.2,0.0,0.001,0.99,0.58509,0.41491,1.186279083765324,2.36544,473088,126912,25,643.9806451612903,12.629543999999997,"TitForTat,TidemanAndChieruzzi,Nydegger,Grofman,Shubik"
44,"QNetwork(
  (flatten): Flatten(start_dim=1, end_dim=-1)
  (layer1): Linear(in_features=4, out_features=8, bias=True)
  (layer2): Linear(in_features=8, out_features=8, bias=True)
  (layer3): Linear(in_features=8, out_features=2, bias=True)
)",2,8,0.2,0.002,0.01,0.95,0.96062,0.03938,2.411990136310817,2.881065,576213,23787,22,716.941935483871,11.909646,"TitForTat,TidemanAndChieruzzi,Nydegger,Grofman,Shubik"
45,"QNetwork(
  (flatten): Flatten(start_dim=1, end_dim=-1)
  (layer1): Linear(in_features=4, out_features=8, bias=True)
  (layer2): Linear(in_features=8, out_features=8, bias=True)
  (layer3): Linear(in_features=8, out_features=2, bias=True)
)",2,8,0.2,0.002,0.01,0.99,0.960865,0.039135,2.4169342925992607,2.887085,577417,22583,22,734.008064516129,12.735294999999999,"TitForTat,TidemanAndChieruzzi,Nydegger,Grofman,Shubik"
46,"QNetwork(
  (flatten): Flatten(start_dim=1, end_dim=-1)
  (layer1): Linear(in_features=4, out_features=8, bias=True)
  (layer2): Linear(in_features=8, out_features=8, bias=True)
  (layer3): Linear(in_features=8, out_features=2, bias=True)
)",2,8,0.2,0.002,0.001,0.95,0.75471,0.24529,0.5178319704999707,2.673455,534691,65309,25,647.1532258064516,12.244293999999998,"TitForTat,TidemanAndChieruzzi,Nydegger,Grofman,Shubik"
47,"QNetwork(
  (flatten): Flatten(start_dim=1, end_dim=-1)
  (layer1): Linear(in_features=4, out_features=8, bias=True)
  (layer2): Linear(in_features=8, out_features=8, bias=True)
  (layer3): Linear(in_features=8, out_features=2, bias=True)
)",2,8,0.2,0.002,0.001,0.99,0.282195,0.717805,1.0383923918465063,2.18818,437636,162364,29,439.9693548387097,14.753588,"TitForTat,TidemanAndChieruzzi,Nydegger,Grofman,Shubik"
48,"QNetwork(
  (flatten): Flatten(start_dim=1, end_dim=-1)
  (layer1): Linear(in_features=4, out_features=16, bias=True)
  (layer2): Linear(in_features=16, out_features=16, bias=True)
  (layer3): Linear(in_features=16, out_features=2, bias=True)
)",2,16,0.05,0.0,0.01,0.95,0.975125,0.024875,1.4194029177330738,2.935285,587057,12943,25,651.0564516129032,11.683891000000003,"TitForTat,TidemanAndChieruzzi,Nydegger,Grofman,Shubik"
49,"QNetwork(
  (flatten): Flatten(start_dim=1, end_dim=-1)
  (layer1): Linear(in_features=4, out_features=16, bias=True)
  (layer2): Linear(in_features=16, out_features=16, bias=True)
  (layer3): Linear(in_features=16, out_features=2, bias=True)
)",2,16,0.05,0.0,0.01,0.99,0.458085,0.541915,0.7042636045270257,2.49301,498602,101398,30,422.3241935483871,13.941339999999999,"TitForTat,TidemanAndChieruzzi,Nydegger,Grofman,Shubik"
50,"QNetwork(
  (flatten): Flatten(start_dim=1, end_dim=-1)
  (layer1): Linear(in_features=4, out_features=16, bias=True)
  (layer2): Linear(in_features=16, out_features=16, bias=True)
  (layer3): Linear(in_features=16, out_features=2, bias=True)
)",2,16,0.05,0.0,0.001,0.95,0.55546,0.44454,0.5382389649535941,2.491895,498379,101621,22,729.2145161290323,12.152022000000006,"TitForTat,TidemanAndChieruzzi,Nydegger,Grofman,Shubik"
51,"QNetwork(
  (flatten): Flatten(start_dim=1, end_dim=-1)
  (layer1): Linear(in_features=4, out_features=16, bias=True)
  (layer2): Linear(in_features=16, out_features=16, bias=True)
  (layer3): Linear(in_features=16, out_features=2, bias=True)
)",2,16,0.05,0.0,0.001,0.99,0.33985,0.66015,1.1401702469407429,2.257875,451575,148425,17,768.5806451612904,12.849002000000002,"TitForTat,TidemanAndChieruzzi,Nydegger,Grofman,Shubik"
52,"QNetwork(
  (flatten): Flatten(start_dim=1, end_dim=-1)
  (layer1): Linear(in_features=4, out_features=16, bias=True)
  (layer2): Linear(in_features=16, out_features=16, bias=True)
  (layer3): Linear(in_features=16, out_features=2, bias=True)
)",2,16,0.05,0.002,0.01,0.95,0.48198,0.51802,0.45647646685082305,2.611885,522377,77623,23,696.1241935483871,11.802030999999998,"TitForTat,TidemanAndChieruzzi,Nydegger,Grofman,Shubik"
53,"QNetwork(
  (flatten): Flatten(start_dim=1, end_dim=-1)
  (layer1): Linear(in_features=4, out_features=16, bias=True)
  (layer2): Linear(in_features=16, out_features=16, bias=True)
  (layer3): Linear(in_features=16, out_features=2, bias=True)
)",2,16,0.05,0.002,0.01,0.99,0.975225,0.024775,2.4530531079838442,2.934505,586901,13099,25,677.2612903225806,11.613008999999996,"TitForTat,TidemanAndChieruzzi,Nydegger,Grofman,Shubik"
54,"QNetwork(
  (flatten): Flatten(start_dim=1, end_dim=-1)
  (layer1): Linear(in_features=4, out_features=16, bias=True)
  (layer2): Linear(in_features=16, out_features=16, bias=True)
  (layer3): Linear(in_features=16, out_features=2, bias=True)
)",2,16,0.05,0.002,0.001,0.95,0.975375,0.024625,2.4532675,2.934855,586971,13029,10,772.7048387096775,13.258341999999999,"TitForTat,TidemanAndChieruzzi,Nydegger,Grofman,Shubik"
55,"QNetwork(
  (flatten): Flatten(start_dim=1, end_dim=-1)
  (layer1): Linear(in_features=4, out_features=16, bias=True)
  (layer2): Linear(in_features=16, out_features=16, bias=True)
  (layer3): Linear(in_features=16, out_features=2, bias=True)
)",2,16,0.05,0.002,0.001,0.99,0.9707,0.0293,2.4415469114555157,2.91979,583958,16042,22,721.0241935483871,12.447162,"TitForTat,TidemanAndChieruzzi,Nydegger,Grofman,Shubik"
56,"QNetwork(
  (flatten): Flatten(start_dim=1, end_dim=-1)
  (layer1): Linear(in_features=4, out_features=16, bias=True)
  (layer2): Linear(in_features=16, out_features=16, bias=True)
  (layer3): Linear(in_features=16, out_features=2, bias=True)
)",2,16,0.1,0.0,0.01,0.95,0.532475,0.467525,0.521046182020072,2.640845,528169,71831,23,700.4758064516129,11.635777000000001,"TitForTat,TidemanAndChieruzzi,Nydegger,Grofman,Shubik"
57,"QNetwork(
  (flatten): Flatten(start_dim=1, end_dim=-1)
  (layer1): Linear(in_features=4, out_features=16, bias=True)
  (layer2): Linear(in_features=16, out_features=16, bias=True)
  (layer3): Linear(in_features=16, out_features=2, bias=True)
)",2,16,0.1,0.0,0.01,0.99,0.57618,0.42382,1.7396481375876434,2.208995,441799,158201,25,558.5870967741936,15.079249000000003,"TitForTat,TidemanAndChieruzzi,Nydegger,Grofman,Shubik"
58,"QNetwork(
  (flatten): Flatten(start_dim=1, end_dim=-1)
  (layer1): Linear(in_features=4, out_features=16, bias=True)
  (layer2): Linear(in_features=16, out_features=16, bias=True)
  (layer3): Linear(in_features=16, out_features=2, bias=True)
)",2,16,0.1,0.0,0.001,0.95,0.949925,0.050075,2.383990202101469,2.84403,568806,31194,18,723.9435483870968,11.759077000000001,"TitForTat,TidemanAndChieruzzi,Nydegger,Grofman,Shubik"
59,"QNetwork(
  (flatten): Flatten(start_dim=1, end_dim=-1)
  (layer1): Linear(in_features=4, out_features=16, bias=True)
  (layer2): Linear(in_features=16, out_features=16, bias=True)
  (layer3): Linear(in_features=16, out_features=2, bias=True)
)",2,16,0.1,0.0,0.001,0.99,0.334025,0.665975,1.0839179742272302,2.241685,448337,151663,9,771.4903225806452,13.092479,"TitForTat,TidemanAndChieruzzi,Nydegger,Grofman,Shubik"
60,"QNetwork(
  (flatten): Flatten(start_dim=1, end_dim=-1)
  (layer1): Linear(in_features=4, out_features=16, bias=True)
  (layer2): Linear(in_features=16, out_features=16, bias=True)
  (layer3): Linear(in_features=16, out_features=2, bias=True)
)",2,16,0.1,0.002,0.01,0.95,0.426835,0.573165,0.426272137815769,2.55126,510252,89748,31,431.9596774193548,14.128312000000003,"TitForTat,TidemanAndChieruzzi,Nydegger,Grofman,Shubik"
61,"QNetwork(
  (flatten): Flatten(start_dim=1, end_dim=-1)
  (layer1): Linear(in_features=4, out_features=16, bias=True)
  (layer2): Linear(in_features=16, out_features=16, bias=True)
  (layer3): Linear(in_features=16, out_features=2, bias=True)
)",2,16,0.1,0.002,0.01,0.99,0.52157,0.47843,0.6611549033671686,2.59073,518146,81854,30,460.4516129032258,13.419632,"TitForTat,TidemanAndChieruzzi,Nydegger,Grofman,Shubik"
62,"QNetwork(
  (flatten): Flatten(start_dim=1, end_dim=-1)
  (layer1): Linear(in_features=4, out_features=16, bias=True)
  (layer2): Linear(in_features=16, out_features=16, bias=True)
  (layer3): Linear(in_features=16, out_features=2, bias=True)
)",2,16,0.1,0.002,0.001,0.95,0.973625,0.026375,1.4879910457240126,2.929195,585839,14161,24,711.1822580645161,12.023171000000005,"TitForTat,TidemanAndChieruzzi,Nydegger,Grofman,Shubik"
63,"QNetwork(
  (flatten): Flatten(start_dim=1, end_dim=-1)
  (layer1): Linear(in_features=4, out_features=16, bias=True)
  (layer2): Linear(in_features=16, out_features=16, bias=True)
  (layer3): Linear(in_features=16, out_features=2, bias=True)
)",2,16,0.1,0.002,0.001,0.99,0.314225,0.685775,0.9504076426488153,2.30312,460624,139376,25,710.1338709677419,12.439041999999997,"TitForTat,TidemanAndChieruzzi,Nydegger,Grofman,Shubik"
64,"QNetwork(
  (flatten): Flatten(start_dim=1, end_dim=-1)
  (layer1): Linear(in_features=4, out_features=16, bias=True)
  (layer2): Linear(in_features=16, out_features=16, bias=True)
  (layer3): Linear(in_features=16, out_features=2, bias=True)
)",2,16,0.2,0.0,0.01,0.95,0.90052,0.09948,2.259320737055987,2.684685,536937,63063,15,769.6983870967742,12.912975,"TitForTat,TidemanAndChieruzzi,Nydegger,Grofman,Shubik"
65,"QNetwork(
  (flatten): Flatten(start_dim=1, end_dim=-1)
  (layer1): Linear(in_features=4, out_features=16, bias=True)
  (layer2): Linear(in_features=16, out_features=16, bias=True)
  (layer3): Linear(in_features=16, out_features=2, bias=True)
)",2,16,0.2,0.0,0.01,0.99,0.899425,0.100575,2.262445,2.68796,537592,62408,25,686.8016129032258,11.357749,"TitForTat,TidemanAndChieruzzi,Nydegger,Grofman,Shubik"
66,"QNetwork(
  (flatten): Flatten(start_dim=1, end_dim=-1)
  (layer1): Linear(in_features=4, out_features=16, bias=True)
  (layer2): Linear(in_features=16, out_features=16, bias=True)
  (layer3): Linear(in_features=16, out_features=2, bias=True)
)",2,16,0.2,0.0,0.001,0.95,0.63372,0.36628,1.7816853424216446,2.250935,450187,149813,25,652.0435483870967,14.623319999999996,"TitForTat,TidemanAndChieruzzi,Nydegger,Grofman,Shubik"
67,"QNetwork(
  (flatten): Flatten(start_dim=1, end_dim=-1)
  (layer1): Linear(in_features=4, out_features=16, bias=True)
  (layer2): Linear(in_features=16, out_features=16, bias=True)
  (layer3): Linear(in_features=16, out_features=2, bias=True)
)",2,16,0.2,0.0,0.001,0.99,0.89992,0.10008,2.2605918989792464,2.686065,537213,62787,22,725.9693548387097,12.073242000000004,"TitForTat,TidemanAndChieruzzi,Nydegger,Grofman,Shubik"
68,"QNetwork(
  (flatten): Flatten(start_dim=1, end_dim=-1)
  (layer1): Linear(in_features=4, out_features=16, bias=True)
  (layer2): Linear(in_features=16, out_features=16, bias=True)
  (layer3): Linear(in_features=16, out_features=2, bias=True)
)",2,16,0.2,0.002,0.01,0.95,0.63683,0.36317,0.5135648923838089,2.739475,547895,52105,25,673.6,11.386764000000001,"TitForTat,TidemanAndChieruzzi,Nydegger,Grofman,Shubik"
69,"QNetwork(
  (flatten): Flatten(start_dim=1, end_dim=-1)
  (layer1): Linear(in_features=4, out_features=16, bias=True)
  (layer2): Linear(in_features=16, out_features=16, bias=True)
  (layer3): Linear(in_features=16, out_features=2, bias=True)
)",2,16,0.2,0.002,0.01,0.99,0.960345,0.039655,2.415628814935796,2.885225,577045,22955,25,656.0145161290322,11.223545999999997,"TitForTat,TidemanAndChieruzzi,Nydegger,Grofman,Shubik"
70,"QNetwork(
  (flatten): Flatten(start_dim=1, end_dim=-1)
  (layer1): Linear(in_features=4, out_features=16, bias=True)
  (layer2): Linear(in_features=16, out_features=16, bias=True)
  (layer3): Linear(in_features=16, out_features=2, bias=True)
)",2,16,0.2,0.002,0.001,0.95,0.672355,0.327645,0.47892039111133433,2.667595,533519,66481,25,661.1967741935484,12.612939,"TitForTat,TidemanAndChieruzzi,Nydegger,Grofman,Shubik"
71,"QNetwork(
  (flatten): Flatten(start_dim=1, end_dim=-1)
  (layer1): Linear(in_features=4, out_features=16, bias=True)
  (layer2): Linear(in_features=16, out_features=16, bias=True)
  (layer3): Linear(in_features=16, out_features=2, bias=True)
)",2,16,0.2,0.002,0.001,0.99,0.60549,0.39451,1.7347544610675238,2.214195,442839,157161,25,626.8774193548387,14.835729,"TitForTat,TidemanAndChieruzzi,Nydegger,Grofman,Shubik"
72,"QNetwork(
  (flatten): Flatten(start_dim=1, end_dim=-1)
  (layer1): Linear(in_features=4, out_features=32, bias=True)
  (layer2): Linear(in_features=32, out_features=32, bias=True)
  (layer3): Linear(in_features=32, out_features=2, bias=True)
)",2,32,0.05,0.0,0.01,0.95,0.676965,0.323035,0.3949199150979123,2.752025,550405,49595,27,468.60967741935485,13.540423999999996,"TitForTat,TidemanAndChieruzzi,Nydegger,Grofman,Shubik"
73,"QNetwork(
  (flatten): Flatten(start_dim=1, end_dim=-1)
  (layer1): Linear(in_features=4, out_features=32, bias=True)
  (layer2): Linear(in_features=32, out_features=32, bias=True)
  (layer3): Linear(in_features=32, out_features=2, bias=True)
)",2,32,0.05,0.0,0.01,0.99,0.97487,0.02513,2.453170899858475,2.93454,586908,13092,23,706.7129032258065,11.566737999999999,"TitForTat,TidemanAndChieruzzi,Nydegger,Grofman,Shubik"
74,"QNetwork(
  (flatten): Flatten(start_dim=1, end_dim=-1)
  (layer1): Linear(in_features=4, out_features=32, bias=True)
  (layer2): Linear(in_features=32, out_features=32, bias=True)
  (layer3): Linear(in_features=32, out_features=2, bias=True)
)",2,32,0.05,0.0,0.001,0.95,0.7435,0.2565,0.3478413727973452,2.710725,542145,57855,15,745.8741935483871,12.822265999999997,"TitForTat,TidemanAndChieruzzi,Nydegger,Grofman,Shubik"
75,"QNetwork(
  (flatten): Flatten(start_dim=1, end_dim=-1)
  (layer1): Linear(in_features=4, out_features=32, bias=True)
  (layer2): Linear(in_features=32, out_features=32, bias=True)
  (layer3): Linear(in_features=32, out_features=2, bias=True)
)",2,32,0.05,0.0,0.001,0.99,0.502675,0.497325,0.7432732991719612,2.56928,513856,86144,25,671.3822580645161,11.697688999999999,"TitForTat,TidemanAndChieruzzi,Nydegger,Grofman,Shubik"
76,"QNetwork(
  (flatten): Flatten(start_dim=1, end_dim=-1)
  (layer1): Linear(in_features=4, out_features=32, bias=True)
  (layer2): Linear(in_features=32, out_features=32, bias=True)
  (layer3): Linear(in_features=32, out_features=2, bias=True)
)",2,32,0.05,0.002,0.01,0.95,0.65826,0.34174,0.4316573807881189,2.779375,555875,44125,15,754.7177419354839,12.335935000000001,"TitForTat,TidemanAndChieruzzi,Nydegger,Grofman,Shubik"
77,"QNetwork(
  (flatten): Flatten(start_dim=1, end_dim=-1)
  (layer1): Linear(in_features=4, out_features=32, bias=True)
  (layer2): Linear(in_features=32, out_features=32, bias=True)
  (layer3): Linear(in_features=32, out_features=2, bias=True)
)",2,32,0.05,0.002,0.01,0.99,0.973745,0.026255,2.4543049262989296,2.934415,586883,13117,16,758.85,12.821913,"TitForTat,TidemanAndChieruzzi,Nydegger,Grofman,Shubik"
78,"QNetwork(
  (flatten): Flatten(start_dim=1, end_dim=-1)
  (layer1): Linear(in_features=4, out_features=32, bias=True)
  (layer2): Linear(in_features=32, out_features=32, bias=True)
  (layer3): Linear(in_features=32, out_features=2, bias=True)
)",2,32,0.05,0.002,0.001,0.95,0.975235,0.024765,1.3857217497222774,2.93785,587570,12430,25,702.4129032258064,12.111059000000001,"TitForTat,TidemanAndChieruzzi,Nydegger,Grofman,Shubik"
79,"QNetwork(
  (flatten): Flatten(start_dim=1, end_dim=-1)
  (layer1): Linear(in_features=4, out_features=32, bias=True)
  (layer2): Linear(in_features=32, out_features=32, bias=True)
  (layer3): Linear(in_features=32, out_features=2, bias=True)
)",2,32,0.05,0.002,0.001,0.99,0.30313,0.69687,0.9148972263296214,2.33387,466774,133226,21,721.1870967741935,12.463248000000004,"TitForTat,TidemanAndChieruzzi,Nydegger,Grofman,Shubik"
80,"QNetwork(
  (flatten): Flatten(start_dim=1, end_dim=-1)
  (layer1): Linear(in_features=4, out_features=32, bias=True)
  (layer2): Linear(in_features=32, out_features=32, bias=True)
  (layer3): Linear(in_features=32, out_features=2, bias=True)
)",2,32,0.1,0.0,0.01,0.95,0.950385,0.049615,2.387021845458403,2.846955,569391,30609,25,712.2016129032259,12.503496000000002,"TitForTat,TidemanAndChieruzzi,Nydegger,Grofman,Shubik"
81,"QNetwork(
  (flatten): Flatten(start_dim=1, end_dim=-1)
  (layer1): Linear(in_features=4, out_features=32, bias=True)
  (layer2): Linear(in_features=32, out_features=32, bias=True)
  (layer3): Linear(in_features=32, out_features=2, bias=True)
)",2,32,0.1,0.0,0.01,0.99,0.94327,0.05673,2.382908959529444,2.844235,568847,31153,25,699.1725806451612,12.369952,"TitForTat,TidemanAndChieruzzi,Nydegger,Grofman,Shubik"
82,"QNetwork(
  (flatten): Flatten(start_dim=1, end_dim=-1)
  (layer1): Linear(in_features=4, out_features=32, bias=True)
  (layer2): Linear(in_features=32, out_features=32, bias=True)
  (layer3): Linear(in_features=32, out_features=2, bias=True)
)",2,32,0.1,0.0,0.001,0.95,0.59901,0.40099,0.525635155823934,2.607465,521493,78507,23,723.4290322580645,13.232428000000004,"TitForTat,TidemanAndChieruzzi,Nydegger,Grofman,Shubik"
83,"QNetwork(
  (flatten): Flatten(start_dim=1, end_dim=-1)
  (layer1): Linear(in_features=4, out_features=32, bias=True)
  (layer2): Linear(in_features=32, out_features=32, bias=True)
  (layer3): Linear(in_features=32, out_features=2, bias=True)
)",2,32,0.1,0.0,0.001,0.99,0.495665,0.504335,0.9634741399179426,2.411415,482283,117717,19,746.6709677419354,12.515666000000001,"TitForTat,TidemanAndChieruzzi,Nydegger,Grofman,Shubik"
84,"QNetwork(
  (flatten): Flatten(start_dim=1, end_dim=-1)
  (layer1): Linear(in_features=4, out_features=32, bias=True)
  (layer2): Linear(in_features=32, out_features=32, bias=True)
  (layer3): Linear(in_features=32, out_features=2, bias=True)
)",2,32,0.1,0.002,0.01,0.95,0.97355,0.02645,2.4459454925358295,2.92543,585086,14914,25,676.6967741935484,11.688601,"TitForTat,TidemanAndChieruzzi,Nydegger,Grofman,Shubik"
85,"QNetwork(
  (flatten): Flatten(start_dim=1, end_dim=-1)
  (layer1): Linear(in_features=4, out_features=32, bias=True)
  (layer2): Linear(in_features=32, out_features=32, bias=True)
  (layer3): Linear(in_features=32, out_features=2, bias=True)
)",2,32,0.1,0.002,0.01,0.99,0.972855,0.027145,2.448617218158152,2.928335,585667,14333,22,705.8048387096774,12.206017000000005,"TitForTat,TidemanAndChieruzzi,Nydegger,Grofman,Shubik"
86,"QNetwork(
  (flatten): Flatten(start_dim=1, end_dim=-1)
  (layer1): Linear(in_features=4, out_features=32, bias=True)
  (layer2): Linear(in_features=32, out_features=32, bias=True)
  (layer3): Linear(in_features=32, out_features=2, bias=True)
)",2,32,0.1,0.002,0.001,0.95,0.97367,0.02633,1.4723093703512504,2.92887,585774,14226,25,669.0870967741936,11.980395999999999,"TitForTat,TidemanAndChieruzzi,Nydegger,Grofman,Shubik"
87,"QNetwork(
  (flatten): Flatten(start_dim=1, end_dim=-1)
  (layer1): Linear(in_features=4, out_features=32, bias=True)
  (layer2): Linear(in_features=32, out_features=32, bias=True)
  (layer3): Linear(in_features=32, out_features=2, bias=True)
)",2,32,0.1,0.002,0.001,0.99,0.97296,0.02704,2.4502083397395724,2.93042,586084,13916,19,751.2838709677419,12.660277000000006,"TitForTat,TidemanAndChieruzzi,Nydegger,Grofman,Shubik"
88,"QNetwork(
  (flatten): Flatten(start_dim=1, end_dim=-1)
  (layer1): Linear(in_features=4, out_features=32, bias=True)
  (layer2): Linear(in_features=32, out_features=32, bias=True)
  (layer3): Linear(in_features=32, out_features=2, bias=True)
)",2,32,0.2,0.0,0.01,0.95,0.89962,0.10038,2.2550819629168513,2.67979,535958,64042,24,698.9870967741936,12.039496999999999,"TitForTat,TidemanAndChieruzzi,Nydegger,Grofman,Shubik"
89,"QNetwork(
  (flatten): Flatten(start_dim=1, end_dim=-1)
  (layer1): Linear(in_features=4, out_features=32, bias=True)
  (layer2): Linear(in_features=32, out_features=32, bias=True)
  (layer3): Linear(in_features=32, out_features=2, bias=True)
)",2,32,0.2,0.0,0.01,0.99,0.90038,0.09962,2.2610645169812824,2.686675,537335,62665,10,761.5129032258064,13.274327000000001,"TitForTat,TidemanAndChieruzzi,Nydegger,Grofman,Shubik"
90,"QNetwork(
  (flatten): Flatten(start_dim=1, end_dim=-1)
  (layer1): Linear(in_features=4, out_features=32, bias=True)
  (layer2): Linear(in_features=32, out_features=32, bias=True)
  (layer3): Linear(in_features=32, out_features=2, bias=True)
)",2,32,0.2,0.0,0.001,0.95,0.52652,0.47348,0.712173306508428,2.44674,489348,110652,26,540.2806451612903,14.104454000000002,"TitForTat,TidemanAndChieruzzi,Nydegger,Grofman,Shubik"
91,"QNetwork(
  (flatten): Flatten(start_dim=1, end_dim=-1)
  (layer1): Linear(in_features=4, out_features=32, bias=True)
  (layer2): Linear(in_features=32, out_features=32, bias=True)
  (layer3): Linear(in_features=32, out_features=2, bias=True)
)",2,32,0.2,0.0,0.001,0.99,0.443995,0.556005,0.9283734391823892,2.326665,465333,134667,25,625.1,13.230003000000004,"TitForTat,TidemanAndChieruzzi,Nydegger,Grofman,Shubik"
92,"QNetwork(
  (flatten): Flatten(start_dim=1, end_dim=-1)
  (layer1): Linear(in_features=4, out_features=32, bias=True)
  (layer2): Linear(in_features=32, out_features=32, bias=True)
  (layer3): Linear(in_features=32, out_features=2, bias=True)
)",2,32,0.2,0.002,0.01,0.95,0.37295,0.62705,0.4863015084327948,2.47919,495838,104162,25,717.4951612903226,12.343474,"TitForTat,TidemanAndChieruzzi,Nydegger,Grofman,Shubik"
93,"QNetwork(
  (flatten): Flatten(start_dim=1, end_dim=-1)
  (layer1): Linear(in_features=4, out_features=32, bias=True)
  (layer2): Linear(in_features=32, out_features=32, bias=True)
  (layer3): Linear(in_features=32, out_features=2, bias=True)
)",2,32,0.2,0.002,0.01,0.99,0.960155,0.039845,2.4017546523159328,2.88057,576114,23886,25,696.2129032258065,11.612796,"TitForTat,TidemanAndChieruzzi,Nydegger,Grofman,Shubik"
94,"QNetwork(
  (flatten): Flatten(start_dim=1, end_dim=-1)
  (layer1): Linear(in_features=4, out_features=32, bias=True)
  (layer2): Linear(in_features=32, out_features=32, bias=True)
  (layer3): Linear(in_features=32, out_features=2, bias=True)
)",2,32,0.2,0.002,0.001,0.95,0.96071,0.03929,2.07242800795509,2.88326,576652,23348,24,699.6290322580645,11.699183999999995,"TitForTat,TidemanAndChieruzzi,Nydegger,Grofman,Shubik"
95,"QNetwork(
  (flatten): Flatten(start_dim=1, end_dim=-1)
  (layer1): Linear(in_features=4, out_features=32, bias=True)
  (layer2): Linear(in_features=32, out_features=32, bias=True)
  (layer3): Linear(in_features=32, out_features=2, bias=True)
)",2,32,0.2,0.002,0.001,0.99,0.464305,0.535695,0.8802791874994353,2.45262,490524,109476,25,578.091935483871,13.882641999999999,"TitForTat,TidemanAndChieruzzi,Nydegger,Grofman,Shubik"
96,"QNetwork(
  (flatten): Flatten(start_dim=1, end_dim=-1)
  (layer1): Linear(in_features=4, out_features=64, bias=True)
  (layer2): Linear(in_features=64, out_features=64, bias=True)
  (layer3): Linear(in_features=64, out_features=2, bias=True)
)",2,64,0.05,0.0,0.01,0.95,0.59317,0.40683,0.3880344017527589,2.72672,545344,54656,25,688.5435483870967,11.758053999999998,"TitForTat,TidemanAndChieruzzi,Nydegger,Grofman,Shubik"
97,"QNetwork(
  (flatten): Flatten(start_dim=1, end_dim=-1)
  (layer1): Linear(in_features=4, out_features=64, bias=True)
  (layer2): Linear(in_features=64, out_features=64, bias=True)
  (layer3): Linear(in_features=64, out_features=2, bias=True)
)",2,64,0.05,0.0,0.01,0.99,0.975185,0.024815,2.453766511923075,2.935365,587073,12927,25,690.6048387096774,12.330843999999997,"TitForTat,TidemanAndChieruzzi,Nydegger,Grofman,Shubik"
98,"QNetwork(
  (flatten): Flatten(start_dim=1, end_dim=-1)
  (layer1): Linear(in_features=4, out_features=64, bias=True)
  (layer2): Linear(in_features=64, out_features=64, bias=True)
  (layer3): Linear(in_features=64, out_features=2, bias=True)
)",2,64,0.05,0.0,0.001,0.95,0.766145,0.233855,0.32595002101561726,2.765705,553141,46859,25,677.941935483871,11.504299,"TitForTat,TidemanAndChieruzzi,Nydegger,Grofman,Shubik"
99,"QNetwork(
  (flatten): Flatten(start_dim=1, end_dim=-1)
  (layer1): Linear(in_features=4, out_features=64, bias=True)
  (layer2): Linear(in_features=64, out_features=64, bias=True)
  (layer3): Linear(in_features=64, out_features=2, bias=True)
)",2,64,0.05,0.0,0.001,0.99,0.61006,0.38994,1.2983609288887463,2.60276,520552,79448,30,464.03709677419357,14.620722000000002,"TitForTat,TidemanAndChieruzzi,Nydegger,Grofman,Shubik"
100,"QNetwork(
  (flatten): Flatten(start_dim=1, end_dim=-1)
  (layer1): Linear(in_features=4, out_features=64, bias=True)
  (layer2): Linear(in_features=64, out_features=64, bias=True)
  (layer3): Linear(in_features=64, out_features=2, bias=True)
)",2,64,0.05,0.002,0.01,0.95,0.975195,0.024805,2.4533224233432116,2.93481,586962,13038,25,721.6564516129032,12.324045999999997,"TitForTat,TidemanAndChieruzzi,Nydegger,Grofman,Shubik"
101,"QNetwork(
  (flatten): Flatten(start_dim=1, end_dim=-1)
  (layer1): Linear(in_features=4, out_features=64, bias=True)
  (layer2): Linear(in_features=64, out_features=64, bias=True)
  (layer3): Linear(in_features=64, out_features=2, bias=True)
)",2,64,0.05,0.002,0.01,0.99,0.975235,0.024765,2.4523053547481326,2.93364,586728,13272,25,685.7516129032258,11.617197,"TitForTat,TidemanAndChieruzzi,Nydegger,Grofman,Shubik"
102,"QNetwork(
  (flatten): Flatten(start_dim=1, end_dim=-1)
  (layer1): Linear(in_features=4, out_features=64, bias=True)
  (layer2): Linear(in_features=64, out_features=64, bias=True)
  (layer3): Linear(in_features=64, out_features=2, bias=True)
)",2,64,0.05,0.002,0.001,0.95,0.764815,0.235185,0.3495637339338656,2.78367,556734,43266,21,727.1387096774193,12.225835999999994,"TitForTat,TidemanAndChieruzzi,Nydegger,Grofman,Shubik"
103,"QNetwork(
  (flatten): Flatten(start_dim=1, end_dim=-1)
  (layer1): Linear(in_features=4, out_features=64, bias=True)
  (layer2): Linear(in_features=64, out_features=64, bias=True)
  (layer3): Linear(in_features=64, out_features=2, bias=True)
)",2,64,0.05,0.002,0.001,0.99,0.426375,0.573625,1.0088348678494545,2.37642,475284,124716,27,451.14032258064515,16.410448999999996,"TitForTat,TidemanAndChieruzzi,Nydegger,Grofman,Shubik"
104,"QNetwork(
  (flatten): Flatten(start_dim=1, end_dim=-1)
  (layer1): Linear(in_features=4, out_features=64, bias=True)
  (layer2): Linear(in_features=64, out_features=64, bias=True)
  (layer3): Linear(in_features=64, out_features=2, bias=True)
)",2,64,0.1,0.0,0.01,0.95,0.420155,0.579845,0.4774561213079345,2.49176,498352,101648,15,763.2564516129032,12.888879,"TitForTat,TidemanAndChieruzzi,Nydegger,Grofman,Shubik"
105,"QNetwork(
  (flatten): Flatten(start_dim=1, end_dim=-1)
  (layer1): Linear(in_features=4, out_features=64, bias=True)
  (layer2): Linear(in_features=64, out_features=64, bias=True)
  (layer3): Linear(in_features=64, out_features=2, bias=True)
)",2,64,0.1,0.0,0.01,0.99,0.95019,0.04981,2.3892070058887453,2.85029,570058,29942,25,717.8435483870968,11.709738999999997,"TitForTat,TidemanAndChieruzzi,Nydegger,Grofman,Shubik"
106,"QNetwork(
  (flatten): Flatten(start_dim=1, end_dim=-1)
  (layer1): Linear(in_features=4, out_features=64, bias=True)
  (layer2): Linear(in_features=64, out_features=64, bias=True)
  (layer3): Linear(in_features=64, out_features=2, bias=True)
)",2,64,0.1,0.0,0.001,0.95,0.668225,0.331775,0.501127326157007,2.706585,541317,58683,25,634.9016129032258,12.848206000000001,"TitForTat,TidemanAndChieruzzi,Nydegger,Grofman,Shubik"
107,"QNetwork(
  (flatten): Flatten(start_dim=1, end_dim=-1)
  (layer1): Linear(in_features=4, out_features=64, bias=True)
  (layer2): Linear(in_features=64, out_features=64, bias=True)
  (layer3): Linear(in_features=64, out_features=2, bias=True)
)",2,64,0.1,0.0,0.001,0.99,0.48897,0.51103,0.8683117219951915,2.483435,496687,103313,25,528.7564516129032,12.715721999999998,"TitForTat,TidemanAndChieruzzi,Nydegger,Grofman,Shubik"
108,"QNetwork(
  (flatten): Flatten(start_dim=1, end_dim=-1)
  (layer1): Linear(in_features=4, out_features=64, bias=True)
  (layer2): Linear(in_features=64, out_features=64, bias=True)
  (layer3): Linear(in_features=64, out_features=2, bias=True)
)",2,64,0.1,0.002,0.01,0.95,0.53034,0.46966,0.4636562098048821,2.658795,531759,68241,22,728.9129032258064,12.286057999999995,"TitForTat,TidemanAndChieruzzi,Nydegger,Grofman,Shubik"
109,"QNetwork(
  (flatten): Flatten(start_dim=1, end_dim=-1)
  (layer1): Linear(in_features=4, out_features=64, bias=True)
  (layer2): Linear(in_features=64, out_features=64, bias=True)
  (layer3): Linear(in_features=64, out_features=2, bias=True)
)",2,64,0.1,0.002,0.01,0.99,0.97313,0.02687,2.4497080829805506,2.929925,585985,14015,23,721.833870967742,12.546389999999997,"TitForTat,TidemanAndChieruzzi,Nydegger,Grofman,Shubik"
110,"QNetwork(
  (flatten): Flatten(start_dim=1, end_dim=-1)
  (layer1): Linear(in_features=4, out_features=64, bias=True)
  (layer2): Linear(in_features=64, out_features=64, bias=True)
  (layer3): Linear(in_features=64, out_features=2, bias=True)
)",2,64,0.1,0.002,0.001,0.95,0.76563,0.23437,0.3613028584937166,2.72046,544092,55908,24,707.8516129032258,12.611229999999999,"TitForTat,TidemanAndChieruzzi,Nydegger,Grofman,Shubik"
111,"QNetwork(
  (flatten): Flatten(start_dim=1, end_dim=-1)
  (layer1): Linear(in_features=4, out_features=64, bias=True)
  (layer2): Linear(in_features=64, out_features=64, bias=True)
  (layer3): Linear(in_features=64, out_features=2, bias=True)
)",2,64,0.1,0.002,0.001,0.99,0.973115,0.026885,2.4482676234085856,2.92801,585602,14398,24,709.3451612903226,12.084838000000003,"TitForTat,TidemanAndChieruzzi,Nydegger,Grofman,Shubik"
112,"QNetwork(
  (flatten): Flatten(start_dim=1, end_dim=-1)
  (layer1): Linear(in_features=4, out_features=64, bias=True)
  (layer2): Linear(in_features=64, out_features=64, bias=True)
  (layer3): Linear(in_features=64, out_features=2, bias=True)
)",2,64,0.2,0.0,0.01,0.95,0.899545,0.100455,2.254547616888336,2.678615,535723,64277,24,706.8129032258065,14.741538000000002,"TitForTat,TidemanAndChieruzzi,Nydegger,Grofman,Shubik"
113,"QNetwork(
  (flatten): Flatten(start_dim=1, end_dim=-1)
  (layer1): Linear(in_features=4, out_features=64, bias=True)
  (layer2): Linear(in_features=64, out_features=64, bias=True)
  (layer3): Linear(in_features=64, out_features=2, bias=True)
)",2,64,0.2,0.0,0.01,0.99,0.900215,0.099785,2.2624047337578044,2.688405,537681,62319,25,680.8016129032258,13.270665,"TitForTat,TidemanAndChieruzzi,Nydegger,Grofman,Shubik"
114,"QNetwork(
  (flatten): Flatten(start_dim=1, end_dim=-1)
  (layer1): Linear(in_features=4, out_features=64, bias=True)
  (layer2): Linear(in_features=64, out_features=64, bias=True)
  (layer3): Linear(in_features=64, out_features=2, bias=True)
)",2,64,0.2,0.0,0.001,0.95,0.900075,0.099925,2.2369132943371284,2.69179,538358,61642,15,748.8629032258065,15.445293000000003,"TitForTat,TidemanAndChieruzzi,Nydegger,Grofman,Shubik"
115,"QNetwork(
  (flatten): Flatten(start_dim=1, end_dim=-1)
  (layer1): Linear(in_features=4, out_features=64, bias=True)
  (layer2): Linear(in_features=64, out_features=64, bias=True)
  (layer3): Linear(in_features=64, out_features=2, bias=True)
)",2,64,0.2,0.0,0.001,0.99,0.90121,0.09879,2.269762976934379,2.69708,539416,60584,23,726.924193548387,15.698215000000005,"TitForTat,TidemanAndChieruzzi,Nydegger,Grofman,Shubik"
116,"QNetwork(
  (flatten): Flatten(start_dim=1, end_dim=-1)
  (layer1): Linear(in_features=4, out_features=64, bias=True)
  (layer2): Linear(in_features=64, out_features=64, bias=True)
  (layer3): Linear(in_features=64, out_features=2, bias=True)
)",2,64,0.2,0.002,0.01,0.95,0.96127,0.03873,2.413931008369923,2.8837,576740,23260,25,697.4048387096774,12.203230999999997,"TitForTat,TidemanAndChieruzzi,Nydegger,Grofman,Shubik"
117,"QNetwork(
  (flatten): Flatten(start_dim=1, end_dim=-1)
  (layer1): Linear(in_features=4, out_features=64, bias=True)
  (layer2): Linear(in_features=64, out_features=64, bias=True)
  (layer3): Linear(in_features=64, out_features=2, bias=True)
)",2,64,0.2,0.002,0.01,0.99,0.96124,0.03876,2.4158399479894106,2.885685,577137,22863,25,703.8645161290323,18.15344,"TitForTat,TidemanAndChieruzzi,Nydegger,Grofman,Shubik"
118,"QNetwork(
  (flatten): Flatten(start_dim=1, end_dim=-1)
  (layer1): Linear(in_features=4, out_features=64, bias=True)
  (layer2): Linear(in_features=64, out_features=64, bias=True)
  (layer3): Linear(in_features=64, out_features=2, bias=True)
)",2,64,0.2,0.002,0.001,0.95,0.659385,0.340615,0.5322217170151403,2.72767,545534,54466,21,731.2403225806452,14.489545,"TitForTat,TidemanAndChieruzzi,Nydegger,Grofman,Shubik"
119,"QNetwork(
  (flatten): Flatten(start_dim=1, end_dim=-1)
  (layer1): Linear(in_features=4, out_features=64, bias=True)
  (layer2): Linear(in_features=64, out_features=64, bias=True)
  (layer3): Linear(in_features=64, out_features=2, bias=True)
)",2,64,0.2,0.002,0.001,0.99,0.962265,0.037735,2.4188641018880155,2.889665,577933,22067,25,659.9322580645161,14.834790000000002,"TitForTat,TidemanAndChieruzzi,Nydegger,Grofman,Shubik"
120,"QNetwork(
  (flatten): Flatten(start_dim=1, end_dim=-1)
  (layer1): Linear(in_features=4, out_features=128, bias=True)
  (layer2): Linear(in_features=128, out_features=128, bias=True)
  (layer3): Linear(in_features=128, out_features=2, bias=True)
)",2,128,0.05,0.0,0.01,0.95,0.668475,0.331525,0.3703345472701588,2.77734,555468,44532,30,429.90645161290325,18.528741,"TitForTat,TidemanAndChieruzzi,Nydegger,Grofman,Shubik"
121,"QNetwork(
  (flatten): Flatten(start_dim=1, end_dim=-1)
  (layer1): Linear(in_features=4, out_features=128, bias=True)
  (layer2): Linear(in_features=128, out_features=128, bias=True)
  (layer3): Linear(in_features=128, out_features=2, bias=True)
)",2,128,0.05,0.0,0.01,0.99,0.97287,0.02713,2.4558862001148287,2.93659,587318,12682,23,737.8241935483871,14.915338999999996,"TitForTat,TidemanAndChieruzzi,Nydegger,Grofman,Shubik"
122,"QNetwork(
  (flatten): Flatten(start_dim=1, end_dim=-1)
  (layer1): Linear(in_features=4, out_features=128, bias=True)
  (layer2): Linear(in_features=128, out_features=128, bias=True)
  (layer3): Linear(in_features=128, out_features=2, bias=True)
)",2,128,0.05,0.0,0.001,0.95,0.02463,0.97537,1.519307797087088,2.25494,450988,149012,30,441.8806451612903,20.131759999999996,"TitForTat,TidemanAndChieruzzi,Nydegger,Grofman,Shubik"
123,"QNetwork(
  (flatten): Flatten(start_dim=1, end_dim=-1)
  (layer1): Linear(in_features=4, out_features=128, bias=True)
  (layer2): Linear(in_features=128, out_features=128, bias=True)
  (layer3): Linear(in_features=128, out_features=2, bias=True)
)",2,128,0.05,0.0,0.001,0.99,0.97255,0.02745,2.4438889793857124,2.923805,584761,15239,23,714.5096774193548,15.581312999999998,"TitForTat,TidemanAndChieruzzi,Nydegger,Grofman,Shubik"
124,"QNetwork(
  (flatten): Flatten(start_dim=1, end_dim=-1)
  (layer1): Linear(in_features=4, out_features=128, bias=True)
  (layer2): Linear(in_features=128, out_features=128, bias=True)
  (layer3): Linear(in_features=128, out_features=2, bias=True)
)",2,128,0.05,0.002,0.01,0.95,0.97352,0.02648,2.446919567105272,2.92785,585570,14430,25,692.8435483870968,12.666733,"TitForTat,TidemanAndChieruzzi,Nydegger,Grofman,Shubik"
125,"QNetwork(
  (flatten): Flatten(start_dim=1, end_dim=-1)
  (layer1): Linear(in_features=4, out_features=128, bias=True)
  (layer2): Linear(in_features=128, out_features=128, bias=True)
  (layer3): Linear(in_features=128, out_features=2, bias=True)
)",2,128,0.05,0.002,0.01,0.99,0.975185,0.024815,2.4511586353957253,2.932045,586409,13591,24,693.6548387096774,15.461512000000004,"TitForTat,TidemanAndChieruzzi,Nydegger,Grofman,Shubik"
126,"QNetwork(
  (flatten): Flatten(start_dim=1, end_dim=-1)
  (layer1): Linear(in_features=4, out_features=128, bias=True)
  (layer2): Linear(in_features=128, out_features=128, bias=True)
  (layer3): Linear(in_features=128, out_features=2, bias=True)
)",2,128,0.05,0.002,0.001,0.95,0.81549,0.18451,0.2985891686353562,2.843375,568675,31325,25,686.0403225806451,12.766808999999997,"TitForTat,TidemanAndChieruzzi,Nydegger,Grofman,Shubik"
127,"QNetwork(
  (flatten): Flatten(start_dim=1, end_dim=-1)
  (layer1): Linear(in_features=4, out_features=128, bias=True)
  (layer2): Linear(in_features=128, out_features=128, bias=True)
  (layer3): Linear(in_features=128, out_features=2, bias=True)
)",2,128,0.05,0.002,0.001,0.99,0.974855,0.025145,2.450788800884485,2.931595,586319,13681,25,659.7548387096774,12.057417999999998,"TitForTat,TidemanAndChieruzzi,Nydegger,Grofman,Shubik"
128,"QNetwork(
  (flatten): Flatten(start_dim=1, end_dim=-1)
  (layer1): Linear(in_features=4, out_features=128, bias=True)
  (layer2): Linear(in_features=128, out_features=128, bias=True)
  (layer3): Linear(in_features=128, out_features=2, bias=True)
)",2,128,0.1,0.0,0.01,0.95,0.680175,0.319825,0.486798089434064,2.713395,542679,57321,23,725.5967741935484,12.758313999999999,"TitForTat,TidemanAndChieruzzi,Nydegger,Grofman,Shubik"
129,"QNetwork(
  (flatten): Flatten(start_dim=1, end_dim=-1)
  (layer1): Linear(in_features=4, out_features=128, bias=True)
  (layer2): Linear(in_features=128, out_features=128, bias=True)
  (layer3): Linear(in_features=128, out_features=2, bias=True)
)",2,128,0.1,0.0,0.01,0.99,0.94994,0.05006,2.3866647359257938,2.847335,569467,30533,20,726.4854838709678,12.752213000000003,"TitForTat,TidemanAndChieruzzi,Nydegger,Grofman,Shubik"
130,"QNetwork(
  (flatten): Flatten(start_dim=1, end_dim=-1)
  (layer1): Linear(in_features=4, out_features=128, bias=True)
  (layer2): Linear(in_features=128, out_features=128, bias=True)
  (layer3): Linear(in_features=128, out_features=2, bias=True)
)",2,128,0.1,0.0,0.001,0.95,0.64099,0.35901,0.531339400461532,2.71016,542032,57968,31,435.39354838709676,14.156097999999997,"TitForTat,TidemanAndChieruzzi,Nydegger,Grofman,Shubik"
131,"QNetwork(
  (flatten): Flatten(start_dim=1, end_dim=-1)
  (layer1): Linear(in_features=4, out_features=128, bias=True)
  (layer2): Linear(in_features=128, out_features=128, bias=True)
  (layer3): Linear(in_features=128, out_features=2, bias=True)
)",2,128,0.1,0.0,0.001,0.99,0.95027,0.04973,2.3807303632473946,2.8403,568060,31940,17,753.091935483871,13.746952000000002,"TitForTat,TidemanAndChieruzzi,Nydegger,Grofman,Shubik"
132,"QNetwork(
  (flatten): Flatten(start_dim=1, end_dim=-1)
  (layer1): Linear(in_features=4, out_features=128, bias=True)
  (layer2): Linear(in_features=128, out_features=128, bias=True)
  (layer3): Linear(in_features=128, out_features=2, bias=True)
)",2,128,0.1,0.002,0.01,0.95,0.973915,0.026085,2.4484313487747307,2.92841,585682,14318,24,729.0338709677419,12.691304,"TitForTat,TidemanAndChieruzzi,Nydegger,Grofman,Shubik"
133,"QNetwork(
  (flatten): Flatten(start_dim=1, end_dim=-1)
  (layer1): Linear(in_features=4, out_features=128, bias=True)
  (layer2): Linear(in_features=128, out_features=128, bias=True)
  (layer3): Linear(in_features=128, out_features=2, bias=True)
)",2,128,0.1,0.002,0.01,0.99,0.973105,0.026895,2.4504030371048486,2.92897,585794,14206,18,728.7274193548387,12.937683999999999,"TitForTat,TidemanAndChieruzzi,Nydegger,Grofman,Shubik"
134,"QNetwork(
  (flatten): Flatten(start_dim=1, end_dim=-1)
  (layer1): Linear(in_features=4, out_features=128, bias=True)
  (layer2): Linear(in_features=128, out_features=128, bias=True)
  (layer3): Linear(in_features=128, out_features=2, bias=True)
)",2,128,0.1,0.002,0.001,0.95,0.973405,0.026595,1.4840176555930367,2.93083,586166,13834,19,719.1838709677419,12.570902,"TitForTat,TidemanAndChieruzzi,Nydegger,Grofman,Shubik"
135,"QNetwork(
  (flatten): Flatten(start_dim=1, end_dim=-1)
  (layer1): Linear(in_features=4, out_features=128, bias=True)
  (layer2): Linear(in_features=128, out_features=128, bias=True)
  (layer3): Linear(in_features=128, out_features=2, bias=True)
)",2,128,0.1,0.002,0.001,0.99,0.59953,0.40047,1.7703849453568796,2.35212,470424,129576,27,449.39193548387095,16.543846000000006,"TitForTat,TidemanAndChieruzzi,Nydegger,Grofman,Shubik"
136,"QNetwork(
  (flatten): Flatten(start_dim=1, end_dim=-1)
  (layer1): Linear(in_features=4, out_features=128, bias=True)
  (layer2): Linear(in_features=128, out_features=128, bias=True)
  (layer3): Linear(in_features=128, out_features=2, bias=True)
)",2,128,0.2,0.0,0.01,0.95,0.89936,0.10064,2.2605314991548333,2.684765,536953,63047,25,706.666129032258,12.560401000000004,"TitForTat,TidemanAndChieruzzi,Nydegger,Grofman,Shubik"
137,"QNetwork(
  (flatten): Flatten(start_dim=1, end_dim=-1)
  (layer1): Linear(in_features=4, out_features=128, bias=True)
  (layer2): Linear(in_features=128, out_features=128, bias=True)
  (layer3): Linear(in_features=128, out_features=2, bias=True)
)",2,128,0.2,0.0,0.01,0.99,0.899675,0.100325,2.260965776796341,2.68624,537248,62752,11,765.3774193548387,13.544211000000002,"TitForTat,TidemanAndChieruzzi,Nydegger,Grofman,Shubik"
138,"QNetwork(
  (flatten): Flatten(start_dim=1, end_dim=-1)
  (layer1): Linear(in_features=4, out_features=128, bias=True)
  (layer2): Linear(in_features=128, out_features=128, bias=True)
  (layer3): Linear(in_features=128, out_features=2, bias=True)
)",2,128,0.2,0.0,0.001,0.95,0.89988,0.10012,2.2594028342709747,2.684745,536949,63051,23,706.1612903225806,12.748633,"TitForTat,TidemanAndChieruzzi,Nydegger,Grofman,Shubik"
139,"QNetwork(
  (flatten): Flatten(start_dim=1, end_dim=-1)
  (layer1): Linear(in_features=4, out_features=128, bias=True)
  (layer2): Linear(in_features=128, out_features=128, bias=True)
  (layer3): Linear(in_features=128, out_features=2, bias=True)
)",2,128,0.2,0.0,0.001,0.99,0.89938,0.10062,2.2619986570100252,2.68762,537524,62476,24,691.5451612903225,12.182110999999999,"TitForTat,TidemanAndChieruzzi,Nydegger,Grofman,Shubik"
140,"QNetwork(
  (flatten): Flatten(start_dim=1, end_dim=-1)
  (layer1): Linear(in_features=4, out_features=128, bias=True)
  (layer2): Linear(in_features=128, out_features=128, bias=True)
  (layer3): Linear(in_features=128, out_features=2, bias=True)
)",2,128,0.2,0.002,0.01,0.95,0.96108,0.03892,2.412686014639139,2.88195,576390,23610,25,704.4645161290323,12.751835999999997,"TitForTat,TidemanAndChieruzzi,Nydegger,Grofman,Shubik"
141,"QNetwork(
  (flatten): Flatten(start_dim=1, end_dim=-1)
  (layer1): Linear(in_features=4, out_features=128, bias=True)
  (layer2): Linear(in_features=128, out_features=128, bias=True)
  (layer3): Linear(in_features=128, out_features=2, bias=True)
)",2,128,0.2,0.002,0.01,0.99,0.96134,0.03866,2.4160074976432324,2.886035,577207,22793,15,766.441935483871,14.052186999999998,"TitForTat,TidemanAndChieruzzi,Nydegger,Grofman,Shubik"
142,"QNetwork(
  (flatten): Flatten(start_dim=1, end_dim=-1)
  (layer1): Linear(in_features=4, out_features=128, bias=True)
  (layer2): Linear(in_features=128, out_features=128, bias=True)
  (layer3): Linear(in_features=128, out_features=2, bias=True)
)",2,128,0.2,0.002,0.001,0.95,0.96089,0.03911,2.4166807650125026,2.8868,577360,22640,25,662.2080645161291,12.301410999999996,"TitForTat,TidemanAndChieruzzi,Nydegger,Grofman,Shubik"
143,"QNetwork(
  (flatten): Flatten(start_dim=1, end_dim=-1)
  (layer1): Linear(in_features=4, out_features=128, bias=True)
  (layer2): Linear(in_features=128, out_features=128, bias=True)
  (layer3): Linear(in_features=128, out_features=2, bias=True)
)",2,128,0.2,0.002,0.001,0.99,0.959755,0.040245,2.413401507466761,2.88285,576570,23430,22,708.9354838709677,12.360002999999997,"TitForTat,TidemanAndChieruzzi,Nydegger,Grofman,Shubik"
144,"QNetwork(
  (flatten): Flatten(start_dim=1, end_dim=-1)
  (layer1): Linear(in_features=8, out_features=4, bias=True)
  (layer2): Linear(in_features=4, out_features=4, bias=True)
  (layer3): Linear(in_features=4, out_features=2, bias=True)
)",4,4,0.05,0.0,0.01,0.95,0.36247,0.63753,0.4726208566858899,2.435735,487147,112853,8,786.4806451612903,12.695248,"TitForTat,TidemanAndChieruzzi,Nydegger,Grofman,Shubik"
145,"QNetwork(
  (flatten): Flatten(start_dim=1, end_dim=-1)
  (layer1): Linear(in_features=8, out_features=4, bias=True)
  (layer2): Linear(in_features=4, out_features=4, bias=True)
  (layer3): Linear(in_features=4, out_features=2, bias=True)
)",4,4,0.05,0.0,0.01,0.99,0.47191,0.52809,0.6698025515717468,2.52481,504962,95038,19,747.3774193548387,12.461763,"TitForTat,TidemanAndChieruzzi,Nydegger,Grofman,Shubik"
146,"QNetwork(
  (flatten): Flatten(start_dim=1, end_dim=-1)
  (layer1): Linear(in_features=8, out_features=4, bias=True)
  (layer2): Linear(in_features=4, out_features=4, bias=True)
  (layer3): Linear(in_features=4, out_features=2, bias=True)
)",4,4,0.05,0.0,0.001,0.95,0.548195,0.451805,0.529369904655967,2.63468,526936,73064,22,729.5903225806452,12.471324999999997,"TitForTat,TidemanAndChieruzzi,Nydegger,Grofman,Shubik"
147,"QNetwork(
  (flatten): Flatten(start_dim=1, end_dim=-1)
  (layer1): Linear(in_features=8, out_features=4, bias=True)
  (layer2): Linear(in_features=4, out_features=4, bias=True)
  (layer3): Linear(in_features=4, out_features=2, bias=True)
)",4,4,0.05,0.0,0.001,0.99,0.18991,0.81009,1.6524930081669718,2.162495,432499,167501,14,753.8096774193548,12.721925000000006,"TitForTat,TidemanAndChieruzzi,Nydegger,Grofman,Shubik"
148,"QNetwork(
  (flatten): Flatten(start_dim=1, end_dim=-1)
  (layer1): Linear(in_features=8, out_features=4, bias=True)
  (layer2): Linear(in_features=4, out_features=4, bias=True)
  (layer3): Linear(in_features=4, out_features=2, bias=True)
)",4,4,0.05,0.002,0.01,0.95,0.975015,0.024985,2.4530827726650237,2.934425,586885,13115,23,718.1935483870968,12.120515000000001,"TitForTat,TidemanAndChieruzzi,Nydegger,Grofman,Shubik"
149,"QNetwork(
  (flatten): Flatten(start_dim=1, end_dim=-1)
  (layer1): Linear(in_features=8, out_features=4, bias=True)
  (layer2): Linear(in_features=4, out_features=4, bias=True)
  (layer3): Linear(in_features=4, out_features=2, bias=True)
)",4,4,0.05,0.002,0.01,0.99,0.966225,0.033775,2.445815345417101,2.9266,585320,14680,25,685.9258064516129,11.601685999999999,"TitForTat,TidemanAndChieruzzi,Nydegger,Grofman,Shubik"
150,"QNetwork(
  (flatten): Flatten(start_dim=1, end_dim=-1)
  (layer1): Linear(in_features=8, out_features=4, bias=True)
  (layer2): Linear(in_features=4, out_features=4, bias=True)
  (layer3): Linear(in_features=4, out_features=2, bias=True)
)",4,4,0.05,0.002,0.001,0.95,0.97518,0.02482,1.772785376786147,2.93461,586922,13078,22,724.7903225806451,12.360223000000003,"TitForTat,TidemanAndChieruzzi,Nydegger,Grofman,Shubik"
151,"QNetwork(
  (flatten): Flatten(start_dim=1, end_dim=-1)
  (layer1): Linear(in_features=8, out_features=4, bias=True)
  (layer2): Linear(in_features=4, out_features=4, bias=True)
  (layer3): Linear(in_features=4, out_features=2, bias=True)
)",4,4,0.05,0.002,0.001,0.99,0.97455,0.02545,2.4549475,2.936545,587309,12691,19,772.3032258064516,13.094852,"TitForTat,TidemanAndChieruzzi,Nydegger,Grofman,Shubik"
152,"QNetwork(
  (flatten): Flatten(start_dim=1, end_dim=-1)
  (layer1): Linear(in_features=8, out_features=4, bias=True)
  (layer2): Linear(in_features=4, out_features=4, bias=True)
  (layer3): Linear(in_features=4, out_features=2, bias=True)
)",4,4,0.1,0.0,0.01,0.95,0.479455,0.520545,0.5815210473996779,2.55676,511352,88648,23,742.3129032258065,12.618561000000001,"TitForTat,TidemanAndChieruzzi,Nydegger,Grofman,Shubik"
153,"QNetwork(
  (flatten): Flatten(start_dim=1, end_dim=-1)
  (layer1): Linear(in_features=8, out_features=4, bias=True)
  (layer2): Linear(in_features=4, out_features=4, bias=True)
  (layer3): Linear(in_features=4, out_features=2, bias=True)
)",4,4,0.1,0.0,0.01,0.99,0.532045,0.467955,1.7529758732150729,2.233685,446737,153263,25,539.2129032258065,13.489063999999999,"TitForTat,TidemanAndChieruzzi,Nydegger,Grofman,Shubik"
154,"QNetwork(
  (flatten): Flatten(start_dim=1, end_dim=-1)
  (layer1): Linear(in_features=8, out_features=4, bias=True)
  (layer2): Linear(in_features=4, out_features=4, bias=True)
  (layer3): Linear(in_features=4, out_features=2, bias=True)
)",4,4,0.1,0.0,0.001,0.95,0.154185,0.845815,0.926278365118659,2.205595,441119,158881,25,558.6758064516129,11.338109999999997,"TitForTat,TidemanAndChieruzzi,Nydegger,Grofman,Shubik"
155,"QNetwork(
  (flatten): Flatten(start_dim=1, end_dim=-1)
  (layer1): Linear(in_features=8, out_features=4, bias=True)
  (layer2): Linear(in_features=4, out_features=4, bias=True)
  (layer3): Linear(in_features=4, out_features=2, bias=True)
)",4,4,0.1,0.0,0.001,0.99,0.293285,0.706715,1.260969749238354,2.183695,436739,163261,31,444.5725806451613,14.512197999999996,"TitForTat,TidemanAndChieruzzi,Nydegger,Grofman,Shubik"
156,"QNetwork(
  (flatten): Flatten(start_dim=1, end_dim=-1)
  (layer1): Linear(in_features=8, out_features=4, bias=True)
  (layer2): Linear(in_features=4, out_features=4, bias=True)
  (layer3): Linear(in_features=4, out_features=2, bias=True)
)",4,4,0.1,0.002,0.01,0.95,0.471895,0.528105,0.636876879254911,2.56787,513574,86426,27,468.6225806451613,14.842072999999996,"TitForTat,TidemanAndChieruzzi,Nydegger,Grofman,Shubik"
157,"QNetwork(
  (flatten): Flatten(start_dim=1, end_dim=-1)
  (layer1): Linear(in_features=8, out_features=4, bias=True)
  (layer2): Linear(in_features=4, out_features=4, bias=True)
  (layer3): Linear(in_features=4, out_features=2, bias=True)
)",4,4,0.1,0.002,0.01,0.99,0.48382,0.51618,0.6941940789963649,2.559395,511879,88121,20,733.666129032258,12.383902,"TitForTat,TidemanAndChieruzzi,Nydegger,Grofman,Shubik"
158,"QNetwork(
  (flatten): Flatten(start_dim=1, end_dim=-1)
  (layer1): Linear(in_features=8, out_features=4, bias=True)
  (layer2): Linear(in_features=4, out_features=4, bias=True)
  (layer3): Linear(in_features=4, out_features=2, bias=True)
)",4,4,0.1,0.002,0.001,0.95,0.74173,0.25827,0.3201781296599203,2.735185,547037,52963,21,738.7983870967741,12.167524,"TitForTat,TidemanAndChieruzzi,Nydegger,Grofman,Shubik"
159,"QNetwork(
  (flatten): Flatten(start_dim=1, end_dim=-1)
  (layer1): Linear(in_features=8, out_features=4, bias=True)
  (layer2): Linear(in_features=4, out_features=4, bias=True)
  (layer3): Linear(in_features=4, out_features=2, bias=True)
)",4,4,0.1,0.002,0.001,0.99,0.482125,0.517875,1.0932271524698338,2.426425,485285,114715,13,770.7322580645161,12.467182000000005,"TitForTat,TidemanAndChieruzzi,Nydegger,Grofman,Shubik"
160,"QNetwork(
  (flatten): Flatten(start_dim=1, end_dim=-1)
  (layer1): Linear(in_features=8, out_features=4, bias=True)
  (layer2): Linear(in_features=4, out_features=4, bias=True)
  (layer3): Linear(in_features=4, out_features=2, bias=True)
)",4,4,0.2,0.0,0.01,0.95,0.560955,0.439045,1.739993891913109,2.21532,443064,156936,25,523.4,12.840321,"TitForTat,TidemanAndChieruzzi,Nydegger,Grofman,Shubik"
161,"QNetwork(
  (flatten): Flatten(start_dim=1, end_dim=-1)
  (layer1): Linear(in_features=8, out_features=4, bias=True)
  (layer2): Linear(in_features=4, out_features=4, bias=True)
  (layer3): Linear(in_features=4, out_features=2, bias=True)
)",4,4,0.2,0.0,0.01,0.99,0.8989,0.1011,2.2288600934142595,2.683475,536695,63305,23,718.6951612903226,11.625117999999999,"TitForTat,TidemanAndChieruzzi,Nydegger,Grofman,Shubik"
162,"QNetwork(
  (flatten): Flatten(start_dim=1, end_dim=-1)
  (layer1): Linear(in_features=8, out_features=4, bias=True)
  (layer2): Linear(in_features=4, out_features=4, bias=True)
  (layer3): Linear(in_features=4, out_features=2, bias=True)
)",4,4,0.2,0.0,0.001,0.95,0.90025,0.09975,2.2668714807710537,2.693125,538625,61375,16,747.5790322580646,12.819888999999998,"TitForTat,TidemanAndChieruzzi,Nydegger,Grofman,Shubik"
163,"QNetwork(
  (flatten): Flatten(start_dim=1, end_dim=-1)
  (layer1): Linear(in_features=8, out_features=4, bias=True)
  (layer2): Linear(in_features=4, out_features=4, bias=True)
  (layer3): Linear(in_features=4, out_features=2, bias=True)
)",4,4,0.2,0.0,0.001,0.99,0.524195,0.475805,1.6962291760135617,2.16358,432716,167284,26,520.3725806451613,12.838631000000001,"TitForTat,TidemanAndChieruzzi,Nydegger,Grofman,Shubik"
164,"QNetwork(
  (flatten): Flatten(start_dim=1, end_dim=-1)
  (layer1): Linear(in_features=8, out_features=4, bias=True)
  (layer2): Linear(in_features=4, out_features=4, bias=True)
  (layer3): Linear(in_features=4, out_features=2, bias=True)
)",4,4,0.2,0.002,0.01,0.95,0.03889,0.96111,1.7705929402847298,2.30769,461538,138462,27,475.7516129032258,16.845643,"TitForTat,TidemanAndChieruzzi,Nydegger,Grofman,Shubik"
165,"QNetwork(
  (flatten): Flatten(start_dim=1, end_dim=-1)
  (layer1): Linear(in_features=8, out_features=4, bias=True)
  (layer2): Linear(in_features=4, out_features=4, bias=True)
  (layer3): Linear(in_features=4, out_features=2, bias=True)
)",4,4,0.2,0.002,0.01,0.99,0.423175,0.576825,0.7865855230837633,2.428925,485785,114215,29,451.05,14.595109000000003,"TitForTat,TidemanAndChieruzzi,Nydegger,Grofman,Shubik"
166,"QNetwork(
  (flatten): Flatten(start_dim=1, end_dim=-1)
  (layer1): Linear(in_features=8, out_features=4, bias=True)
  (layer2): Linear(in_features=4, out_features=4, bias=True)
  (layer3): Linear(in_features=4, out_features=2, bias=True)
)",4,4,0.2,0.002,0.001,0.95,0.96086,0.03914,2.4109325,2.879815,575963,24037,18,745.9774193548387,12.636835999999994,"TitForTat,TidemanAndChieruzzi,Nydegger,Grofman,Shubik"
167,"QNetwork(
  (flatten): Flatten(start_dim=1, end_dim=-1)
  (layer1): Linear(in_features=8, out_features=4, bias=True)
  (layer2): Linear(in_features=4, out_features=4, bias=True)
  (layer3): Linear(in_features=4, out_features=2, bias=True)
)",4,4,0.2,0.002,0.001,0.99,0.96142,0.03858,2.3932536943893443,2.88755,577510,22490,24,689.4709677419355,11.760565000000003,"TitForTat,TidemanAndChieruzzi,Nydegger,Grofman,Shubik"
168,"QNetwork(
  (flatten): Flatten(start_dim=1, end_dim=-1)
  (layer1): Linear(in_features=8, out_features=8, bias=True)
  (layer2): Linear(in_features=8, out_features=8, bias=True)
  (layer3): Linear(in_features=8, out_features=2, bias=True)
)",4,8,0.05,0.0,0.01,0.95,0.974905,0.025095,2.450830194149017,2.93161,586322,13678,24,687.4016129032258,11.486526,"TitForTat,TidemanAndChieruzzi,Nydegger,Grofman,Shubik"
169,"QNetwork(
  (flatten): Flatten(start_dim=1, end_dim=-1)
  (layer1): Linear(in_features=8, out_features=8, bias=True)
  (layer2): Linear(in_features=8, out_features=8, bias=True)
  (layer3): Linear(in_features=8, out_features=2, bias=True)
)",4,8,0.05,0.0,0.01,0.99,0.974815,0.025185,2.452029389484694,2.93318,586636,13364,25,643.8967741935484,11.058067000000003,"TitForTat,TidemanAndChieruzzi,Nydegger,Grofman,Shubik"
170,"QNetwork(
  (flatten): Flatten(start_dim=1, end_dim=-1)
  (layer1): Linear(in_features=8, out_features=8, bias=True)
  (layer2): Linear(in_features=8, out_features=8, bias=True)
  (layer3): Linear(in_features=8, out_features=2, bias=True)
)",4,8,0.05,0.0,0.001,0.95,0.032545,0.967455,1.546837042204107,2.26044,452088,147912,31,446.14354838709676,14.239141,"TitForTat,TidemanAndChieruzzi,Nydegger,Grofman,Shubik"
171,"QNetwork(
  (flatten): Flatten(start_dim=1, end_dim=-1)
  (layer1): Linear(in_features=8, out_features=8, bias=True)
  (layer2): Linear(in_features=8, out_features=8, bias=True)
  (layer3): Linear(in_features=8, out_features=2, bias=True)
)",4,8,0.05,0.0,0.001,0.99,0.54043,0.45957,0.6621424277731638,2.519055,503811,96189,31,421.43709677419355,13.708831999999997,"TitForTat,TidemanAndChieruzzi,Nydegger,Grofman,Shubik"
172,"QNetwork(
  (flatten): Flatten(start_dim=1, end_dim=-1)
  (layer1): Linear(in_features=8, out_features=8, bias=True)
  (layer2): Linear(in_features=8, out_features=8, bias=True)
  (layer3): Linear(in_features=8, out_features=2, bias=True)
)",4,8,0.05,0.002,0.01,0.95,0.024255,0.975745,1.4894381950447022,2.258575,451715,148285,26,469.26129032258063,16.08087,"TitForTat,TidemanAndChieruzzi,Nydegger,Grofman,Shubik"
173,"QNetwork(
  (flatten): Flatten(start_dim=1, end_dim=-1)
  (layer1): Linear(in_features=8, out_features=8, bias=True)
  (layer2): Linear(in_features=8, out_features=8, bias=True)
  (layer3): Linear(in_features=8, out_features=2, bias=True)
)",4,8,0.05,0.002,0.01,0.99,0.37039,0.62961,1.7169391327423065,2.20584,441168,158832,25,597.3725806451613,13.539118999999998,"TitForTat,TidemanAndChieruzzi,Nydegger,Grofman,Shubik"
174,"QNetwork(
  (flatten): Flatten(start_dim=1, end_dim=-1)
  (layer1): Linear(in_features=8, out_features=8, bias=True)
  (layer2): Linear(in_features=8, out_features=8, bias=True)
  (layer3): Linear(in_features=8, out_features=2, bias=True)
)",4,8,0.05,0.002,0.001,0.95,0.033275,0.966725,1.5350925604574344,2.260755,452151,147849,26,466.23870967741937,15.162132999999997,"TitForTat,TidemanAndChieruzzi,Nydegger,Grofman,Shubik"
175,"QNetwork(
  (flatten): Flatten(start_dim=1, end_dim=-1)
  (layer1): Linear(in_features=8, out_features=8, bias=True)
  (layer2): Linear(in_features=8, out_features=8, bias=True)
  (layer3): Linear(in_features=8, out_features=2, bias=True)
)",4,8,0.05,0.002,0.001,0.99,0.30261,0.69739,0.8720259067311289,2.26679,453358,146642,29,447.93548387096774,16.571391000000002,"TitForTat,TidemanAndChieruzzi,Nydegger,Grofman,Shubik"
176,"QNetwork(
  (flatten): Flatten(start_dim=1, end_dim=-1)
  (layer1): Linear(in_features=8, out_features=8, bias=True)
  (layer2): Linear(in_features=8, out_features=8, bias=True)
  (layer3): Linear(in_features=8, out_features=2, bias=True)
)",4,8,0.1,0.0,0.01,0.95,0.53848,0.46152,0.5069973826950368,2.616595,523319,76681,25,697.3161290322581,12.05829,"TitForTat,TidemanAndChieruzzi,Nydegger,Grofman,Shubik"
177,"QNetwork(
  (flatten): Flatten(start_dim=1, end_dim=-1)
  (layer1): Linear(in_features=8, out_features=8, bias=True)
  (layer2): Linear(in_features=8, out_features=8, bias=True)
  (layer3): Linear(in_features=8, out_features=2, bias=True)
)",4,8,0.1,0.0,0.01,0.99,0.949325,0.050675,2.3817644739472494,2.84128,568256,31744,25,688.108064516129,11.525135999999998,"TitForTat,TidemanAndChieruzzi,Nydegger,Grofman,Shubik"
178,"QNetwork(
  (flatten): Flatten(start_dim=1, end_dim=-1)
  (layer1): Linear(in_features=8, out_features=8, bias=True)
  (layer2): Linear(in_features=8, out_features=8, bias=True)
  (layer3): Linear(in_features=8, out_features=2, bias=True)
)",4,8,0.1,0.0,0.001,0.95,0.58384,0.41616,0.4879076757041788,2.55095,510190,89810,24,706.483870967742,12.071973,"TitForTat,TidemanAndChieruzzi,Nydegger,Grofman,Shubik"
179,"QNetwork(
  (flatten): Flatten(start_dim=1, end_dim=-1)
  (layer1): Linear(in_features=8, out_features=8, bias=True)
  (layer2): Linear(in_features=8, out_features=8, bias=True)
  (layer3): Linear(in_features=8, out_features=2, bias=True)
)",4,8,0.1,0.0,0.001,0.99,0.216315,0.783685,1.0463213416766248,2.19528,439056,160944,30,440.13870967741934,13.680663000000001,"TitForTat,TidemanAndChieruzzi,Nydegger,Grofman,Shubik"
180,"QNetwork(
  (flatten): Flatten(start_dim=1, end_dim=-1)
  (layer1): Linear(in_features=8, out_features=8, bias=True)
  (layer2): Linear(in_features=8, out_features=8, bias=True)
  (layer3): Linear(in_features=8, out_features=2, bias=True)
)",4,8,0.1,0.002,0.01,0.95,0.71414,0.28586,0.3499904903579997,2.805115,561023,38977,24,715.5467741935483,11.714373000000005,"TitForTat,TidemanAndChieruzzi,Nydegger,Grofman,Shubik"
181,"QNetwork(
  (flatten): Flatten(start_dim=1, end_dim=-1)
  (layer1): Linear(in_features=8, out_features=8, bias=True)
  (layer2): Linear(in_features=8, out_features=8, bias=True)
  (layer3): Linear(in_features=8, out_features=2, bias=True)
)",4,8,0.1,0.002,0.01,0.99,0.40379,0.59621,1.6533622917593052,2.14244,428488,171512,25,555.4290322580645,14.103755000000003,"TitForTat,TidemanAndChieruzzi,Nydegger,Grofman,Shubik"
182,"QNetwork(
  (flatten): Flatten(start_dim=1, end_dim=-1)
  (layer1): Linear(in_features=8, out_features=8, bias=True)
  (layer2): Linear(in_features=8, out_features=8, bias=True)
  (layer3): Linear(in_features=8, out_features=2, bias=True)
)",4,8,0.1,0.002,0.001,0.95,0.973405,0.026595,1.5233664788129984,2.925685,585137,14863,25,682.4645161290323,11.452216999999997,"TitForTat,TidemanAndChieruzzi,Nydegger,Grofman,Shubik"
183,"QNetwork(
  (flatten): Flatten(start_dim=1, end_dim=-1)
  (layer1): Linear(in_features=8, out_features=8, bias=True)
  (layer2): Linear(in_features=8, out_features=8, bias=True)
  (layer3): Linear(in_features=8, out_features=2, bias=True)
)",4,8,0.1,0.002,0.001,0.99,0.948165,0.051835,2.3984862774766564,2.907545,581509,18491,28,478.2741935483871,14.276803999999995,"TitForTat,TidemanAndChieruzzi,Nydegger,Grofman,Shubik"
184,"QNetwork(
  (flatten): Flatten(start_dim=1, end_dim=-1)
  (layer1): Linear(in_features=8, out_features=8, bias=True)
  (layer2): Linear(in_features=8, out_features=8, bias=True)
  (layer3): Linear(in_features=8, out_features=2, bias=True)
)",4,8,0.2,0.0,0.01,0.95,0.40235,0.59765,0.6716265772291823,2.42648,485296,114704,23,720.2,12.624690000000001,"TitForTat,TidemanAndChieruzzi,Nydegger,Grofman,Shubik"
185,"QNetwork(
  (flatten): Flatten(start_dim=1, end_dim=-1)
  (layer1): Linear(in_features=8, out_features=8, bias=True)
  (layer2): Linear(in_features=8, out_features=8, bias=True)
  (layer3): Linear(in_features=8, out_features=2, bias=True)
)",4,8,0.2,0.0,0.01,0.99,0.70081,0.29919,1.877392524443771,2.32745,465490,134510,25,576.8225806451613,14.968977,"TitForTat,TidemanAndChieruzzi,Nydegger,Grofman,Shubik"
186,"QNetwork(
  (flatten): Flatten(start_dim=1, end_dim=-1)
  (layer1): Linear(in_features=8, out_features=8, bias=True)
  (layer2): Linear(in_features=8, out_features=8, bias=True)
  (layer3): Linear(in_features=8, out_features=2, bias=True)
)",4,8,0.2,0.0,0.001,0.95,0.265695,0.734305,0.8560991530965129,2.18956,437912,162088,25,566.15,13.873694000000002,"TitForTat,TidemanAndChieruzzi,Nydegger,Grofman,Shubik"
187,"QNetwork(
  (flatten): Flatten(start_dim=1, end_dim=-1)
  (layer1): Linear(in_features=8, out_features=8, bias=True)
  (layer2): Linear(in_features=8, out_features=8, bias=True)
  (layer3): Linear(in_features=8, out_features=2, bias=True)
)",4,8,0.2,0.0,0.001,0.99,0.323815,0.676185,0.9131981903208582,2.16437,432874,167126,25,520.3112903225806,13.238421999999993,"TitForTat,TidemanAndChieruzzi,Nydegger,Grofman,Shubik"
188,"QNetwork(
  (flatten): Flatten(start_dim=1, end_dim=-1)
  (layer1): Linear(in_features=8, out_features=8, bias=True)
  (layer2): Linear(in_features=8, out_features=8, bias=True)
  (layer3): Linear(in_features=8, out_features=2, bias=True)
)",4,8,0.2,0.002,0.01,0.95,0.633715,0.366285,0.45754174940964004,2.781635,556327,43673,30,442.2451612903226,15.228088999999995,"TitForTat,TidemanAndChieruzzi,Nydegger,Grofman,Shubik"
189,"QNetwork(
  (flatten): Flatten(start_dim=1, end_dim=-1)
  (layer1): Linear(in_features=8, out_features=8, bias=True)
  (layer2): Linear(in_features=8, out_features=8, bias=True)
  (layer3): Linear(in_features=8, out_features=2, bias=True)
)",4,8,0.2,0.002,0.01,0.99,0.8779,0.1221,2.3030026676415503,2.7734,554680,45320,23,715.6790322580645,12.087360999999998,"TitForTat,TidemanAndChieruzzi,Nydegger,Grofman,Shubik"
190,"QNetwork(
  (flatten): Flatten(start_dim=1, end_dim=-1)
  (layer1): Linear(in_features=8, out_features=8, bias=True)
  (layer2): Linear(in_features=8, out_features=8, bias=True)
  (layer3): Linear(in_features=8, out_features=2, bias=True)
)",4,8,0.2,0.002,0.001,0.95,0.953585,0.046415,1.9375162730328797,2.878015,575603,24397,25,683.0790322580646,13.569279000000002,"TitForTat,TidemanAndChieruzzi,Nydegger,Grofman,Shubik"
191,"QNetwork(
  (flatten): Flatten(start_dim=1, end_dim=-1)
  (layer1): Linear(in_features=8, out_features=8, bias=True)
  (layer2): Linear(in_features=8, out_features=8, bias=True)
  (layer3): Linear(in_features=8, out_features=2, bias=True)
)",4,8,0.2,0.002,0.001,0.99,0.28004,0.71996,1.1149036158353582,2.211135,442227,157773,29,451.458064516129,15.542676000000002,"TitForTat,TidemanAndChieruzzi,Nydegger,Grofman,Shubik"
192,"QNetwork(
  (flatten): Flatten(start_dim=1, end_dim=-1)
  (layer1): Linear(in_features=8, out_features=16, bias=True)
  (layer2): Linear(in_features=16, out_features=16, bias=True)
  (layer3): Linear(in_features=16, out_features=2, bias=True)
)",4,16,0.05,0.0,0.01,0.95,0.73741,0.26259,0.4753654955268226,2.82983,565966,34034,24,676.0822580645162,11.358877000000001,"TitForTat,TidemanAndChieruzzi,Nydegger,Grofman,Shubik"
193,"QNetwork(
  (flatten): Flatten(start_dim=1, end_dim=-1)
  (layer1): Linear(in_features=8, out_features=16, bias=True)
  (layer2): Linear(in_features=16, out_features=16, bias=True)
  (layer3): Linear(in_features=16, out_features=2, bias=True)
)",4,16,0.05,0.0,0.01,0.99,0.974965,0.025035,2.452392933761887,2.933625,586725,13275,23,718.7629032258064,12.246903,"TitForTat,TidemanAndChieruzzi,Nydegger,Grofman,Shubik"
194,"QNetwork(
  (flatten): Flatten(start_dim=1, end_dim=-1)
  (layer1): Linear(in_features=8, out_features=16, bias=True)
  (layer2): Linear(in_features=16, out_features=16, bias=True)
  (layer3): Linear(in_features=16, out_features=2, bias=True)
)",4,16,0.05,0.0,0.001,0.95,0.97424,0.02576,1.4221326446424116,2.931115,586223,13777,24,719.0532258064516,13.849698000000002,"TitForTat,TidemanAndChieruzzi,Nydegger,Grofman,Shubik"
195,"QNetwork(
  (flatten): Flatten(start_dim=1, end_dim=-1)
  (layer1): Linear(in_features=8, out_features=16, bias=True)
  (layer2): Linear(in_features=16, out_features=16, bias=True)
  (layer3): Linear(in_features=16, out_features=2, bias=True)
)",4,16,0.05,0.0,0.001,0.99,0.384755,0.615245,0.8411661677712357,2.40028,480056,119944,24,710.9725806451613,12.218764,"TitForTat,TidemanAndChieruzzi,Nydegger,Grofman,Shubik"
196,"QNetwork(
  (flatten): Flatten(start_dim=1, end_dim=-1)
  (layer1): Linear(in_features=8, out_features=16, bias=True)
  (layer2): Linear(in_features=16, out_features=16, bias=True)
  (layer3): Linear(in_features=16, out_features=2, bias=True)
)",4,16,0.05,0.002,0.01,0.95,0.70797,0.29203,2.1787317401162505,2.74293,548586,51414,23,706.3064516129032,12.09076,"TitForTat,TidemanAndChieruzzi,Nydegger,Grofman,Shubik"
197,"QNetwork(
  (flatten): Flatten(start_dim=1, end_dim=-1)
  (layer1): Linear(in_features=8, out_features=16, bias=True)
  (layer2): Linear(in_features=16, out_features=16, bias=True)
  (layer3): Linear(in_features=16, out_features=2, bias=True)
)",4,16,0.05,0.002,0.01,0.99,0.60936,0.39064,0.663094966589002,2.605925,521185,78815,29,426.1290322580645,13.51846,"TitForTat,TidemanAndChieruzzi,Nydegger,Grofman,Shubik"
198,"QNetwork(
  (flatten): Flatten(start_dim=1, end_dim=-1)
  (layer1): Linear(in_features=8, out_features=16, bias=True)
  (layer2): Linear(in_features=16, out_features=16, bias=True)
  (layer3): Linear(in_features=16, out_features=2, bias=True)
)",4,16,0.05,0.002,0.001,0.95,0.02515,0.97485,1.5248238872031024,2.26519,453038,146962,26,473.4548387096774,15.559059000000001,"TitForTat,TidemanAndChieruzzi,Nydegger,Grofman,Shubik"
199,"QNetwork(
  (flatten): Flatten(start_dim=1, end_dim=-1)
  (layer1): Linear(in_features=8, out_features=16, bias=True)
  (layer2): Linear(in_features=16, out_features=16, bias=True)
  (layer3): Linear(in_features=16, out_features=2, bias=True)
)",4,16,0.05,0.002,0.001,0.99,0.37465,0.62535,1.608650368241265,2.09597,419194,180806,26,497.69354838709677,13.416032000000003,"TitForTat,TidemanAndChieruzzi,Nydegger,Grofman,Shubik"
200,"QNetwork(
  (flatten): Flatten(start_dim=1, end_dim=-1)
  (layer1): Linear(in_features=8, out_features=16, bias=True)
  (layer2): Linear(in_features=16, out_features=16, bias=True)
  (layer3): Linear(in_features=16, out_features=2, bias=True)
)",4,16,0.1,0.0,0.01,0.95,0.50657,0.49343,0.45219548186653585,2.59529,519058,80942,24,678.8177419354839,11.139855999999998,"TitForTat,TidemanAndChieruzzi,Nydegger,Grofman,Shubik"
201,"QNetwork(
  (flatten): Flatten(start_dim=1, end_dim=-1)
  (layer1): Linear(in_features=8, out_features=16, bias=True)
  (layer2): Linear(in_features=16, out_features=16, bias=True)
  (layer3): Linear(in_features=16, out_features=2, bias=True)
)",4,16,0.1,0.0,0.01,0.99,0.95027,0.04973,2.3866348620176314,2.84723,569446,30554,24,739.2129032258065,12.638478,"TitForTat,TidemanAndChieruzzi,Nydegger,Grofman,Shubik"
202,"QNetwork(
  (flatten): Flatten(start_dim=1, end_dim=-1)
  (layer1): Linear(in_features=8, out_features=16, bias=True)
  (layer2): Linear(in_features=16, out_features=16, bias=True)
  (layer3): Linear(in_features=16, out_features=2, bias=True)
)",4,16,0.1,0.0,0.001,0.95,0.57694,0.42306,0.6329182304829992,2.683515,536703,63297,25,545.5612903225806,14.262790999999998,"TitForTat,TidemanAndChieruzzi,Nydegger,Grofman,Shubik"
203,"QNetwork(
  (flatten): Flatten(start_dim=1, end_dim=-1)
  (layer1): Linear(in_features=8, out_features=16, bias=True)
  (layer2): Linear(in_features=16, out_features=16, bias=True)
  (layer3): Linear(in_features=16, out_features=2, bias=True)
)",4,16,0.1,0.0,0.001,0.99,0.42047,0.57953,1.4611943285242026,2.28554,457108,142892,31,416.43225806451613,13.728494999999995,"TitForTat,TidemanAndChieruzzi,Nydegger,Grofman,Shubik"
204,"QNetwork(
  (flatten): Flatten(start_dim=1, end_dim=-1)
  (layer1): Linear(in_features=8, out_features=16, bias=True)
  (layer2): Linear(in_features=16, out_features=16, bias=True)
  (layer3): Linear(in_features=16, out_features=2, bias=True)
)",4,16,0.1,0.002,0.01,0.95,0.704185,0.295815,0.4282476972316612,2.785055,557011,42989,24,714.583870967742,12.474468999999997,"TitForTat,TidemanAndChieruzzi,Nydegger,Grofman,Shubik"
205,"QNetwork(
  (flatten): Flatten(start_dim=1, end_dim=-1)
  (layer1): Linear(in_features=8, out_features=16, bias=True)
  (layer2): Linear(in_features=16, out_features=16, bias=True)
  (layer3): Linear(in_features=16, out_features=2, bias=True)
)",4,16,0.1,0.002,0.01,0.99,0.382,0.618,1.7042060864141877,2.191605,438321,161679,25,501.8467741935484,13.282245999999999,"TitForTat,TidemanAndChieruzzi,Nydegger,Grofman,Shubik"
206,"QNetwork(
  (flatten): Flatten(start_dim=1, end_dim=-1)
  (layer1): Linear(in_features=8, out_features=16, bias=True)
  (layer2): Linear(in_features=16, out_features=16, bias=True)
  (layer3): Linear(in_features=16, out_features=2, bias=True)
)",4,16,0.1,0.002,0.001,0.95,0.655825,0.344175,0.41163454814069367,2.75757,551514,48486,30,438.6516129032258,15.146049,"TitForTat,TidemanAndChieruzzi,Nydegger,Grofman,Shubik"
207,"QNetwork(
  (flatten): Flatten(start_dim=1, end_dim=-1)
  (layer1): Linear(in_features=8, out_features=16, bias=True)
  (layer2): Linear(in_features=16, out_features=16, bias=True)
  (layer3): Linear(in_features=16, out_features=2, bias=True)
)",4,16,0.1,0.002,0.001,0.99,0.97196,0.02804,2.4212514870910353,2.93216,586432,13568,25,705.1241935483871,11.724018000000004,"TitForTat,TidemanAndChieruzzi,Nydegger,Grofman,Shubik"
208,"QNetwork(
  (flatten): Flatten(start_dim=1, end_dim=-1)
  (layer1): Linear(in_features=8, out_features=16, bias=True)
  (layer2): Linear(in_features=16, out_features=16, bias=True)
  (layer3): Linear(in_features=16, out_features=2, bias=True)
)",4,16,0.2,0.0,0.01,0.95,0.89881,0.10119,2.257867991783416,2.6832,536640,63360,24,700.8887096774193,11.933485000000001,"TitForTat,TidemanAndChieruzzi,Nydegger,Grofman,Shubik"
209,"QNetwork(
  (flatten): Flatten(start_dim=1, end_dim=-1)
  (layer1): Linear(in_features=8, out_features=16, bias=True)
  (layer2): Linear(in_features=16, out_features=16, bias=True)
  (layer3): Linear(in_features=16, out_features=2, bias=True)
)",4,16,0.2,0.0,0.01,0.99,0.45362,0.54638,0.8675297643635689,2.36873,473746,126254,25,514.3774193548387,15.477349999999992,"TitForTat,TidemanAndChieruzzi,Nydegger,Grofman,Shubik"
210,"QNetwork(
  (flatten): Flatten(start_dim=1, end_dim=-1)
  (layer1): Linear(in_features=8, out_features=16, bias=True)
  (layer2): Linear(in_features=16, out_features=16, bias=True)
  (layer3): Linear(in_features=16, out_features=2, bias=True)
)",4,16,0.2,0.0,0.001,0.95,0.239655,0.760345,0.7373691725920034,2.14773,429546,170454,25,500.51290322580644,13.963754999999997,"TitForTat,TidemanAndChieruzzi,Nydegger,Grofman,Shubik"
211,"QNetwork(
  (flatten): Flatten(start_dim=1, end_dim=-1)
  (layer1): Linear(in_features=8, out_features=16, bias=True)
  (layer2): Linear(in_features=16, out_features=16, bias=True)
  (layer3): Linear(in_features=16, out_features=2, bias=True)
)",4,16,0.2,0.0,0.001,0.99,0.45482,0.54518,1.1965722214554626,2.24512,449024,150976,25,698.8854838709677,12.044193000000003,"TitForTat,TidemanAndChieruzzi,Nydegger,Grofman,Shubik"
212,"QNetwork(
  (flatten): Flatten(start_dim=1, end_dim=-1)
  (layer1): Linear(in_features=8, out_features=16, bias=True)
  (layer2): Linear(in_features=16, out_features=16, bias=True)
  (layer3): Linear(in_features=16, out_features=2, bias=True)
)",4,16,0.2,0.002,0.01,0.95,0.96094,0.03906,2.417057032703613,2.88715,577430,22570,19,736.9758064516129,12.609514999999998,"TitForTat,TidemanAndChieruzzi,Nydegger,Grofman,Shubik"
213,"QNetwork(
  (flatten): Flatten(start_dim=1, end_dim=-1)
  (layer1): Linear(in_features=8, out_features=16, bias=True)
  (layer2): Linear(in_features=16, out_features=16, bias=True)
  (layer3): Linear(in_features=16, out_features=2, bias=True)
)",4,16,0.2,0.002,0.01,0.99,0.652165,0.347835,0.6562431898126707,2.63568,527136,72864,30,436.4209677419355,14.942942999999996,"TitForTat,TidemanAndChieruzzi,Nydegger,Grofman,Shubik"
214,"QNetwork(
  (flatten): Flatten(start_dim=1, end_dim=-1)
  (layer1): Linear(in_features=8, out_features=16, bias=True)
  (layer2): Linear(in_features=16, out_features=16, bias=True)
  (layer3): Linear(in_features=16, out_features=2, bias=True)
)",4,16,0.2,0.002,0.001,0.95,0.552155,0.447845,0.5486307616332504,2.70855,541710,58290,25,696.5435483870967,11.932085999999998,"TitForTat,TidemanAndChieruzzi,Nydegger,Grofman,Shubik"
215,"QNetwork(
  (flatten): Flatten(start_dim=1, end_dim=-1)
  (layer1): Linear(in_features=8, out_features=16, bias=True)
  (layer2): Linear(in_features=16, out_features=16, bias=True)
  (layer3): Linear(in_features=16, out_features=2, bias=True)
)",4,16,0.2,0.002,0.001,0.99,0.96164,0.03836,2.3898073873353596,2.88485,576970,23030,24,724.3209677419355,12.454697000000001,"TitForTat,TidemanAndChieruzzi,Nydegger,Grofman,Shubik"
216,"QNetwork(
  (flatten): Flatten(start_dim=1, end_dim=-1)
  (layer1): Linear(in_features=8, out_features=32, bias=True)
  (layer2): Linear(in_features=32, out_features=32, bias=True)
  (layer3): Linear(in_features=32, out_features=2, bias=True)
)",4,32,0.05,0.0,0.01,0.95,0.975225,0.024775,1.3920327480341281,2.93243,586486,13514,23,713.6387096774193,11.711554,"TitForTat,TidemanAndChieruzzi,Nydegger,Grofman,Shubik"
217,"QNetwork(
  (flatten): Flatten(start_dim=1, end_dim=-1)
  (layer1): Linear(in_features=8, out_features=32, bias=True)
  (layer2): Linear(in_features=32, out_features=32, bias=True)
  (layer3): Linear(in_features=32, out_features=2, bias=True)
)",4,32,0.05,0.0,0.01,0.99,0.4876,0.5124,0.8087361936030921,2.5072,501440,98560,24,709.9370967741935,11.997113999999996,"TitForTat,TidemanAndChieruzzi,Nydegger,Grofman,Shubik"
218,"QNetwork(
  (flatten): Flatten(start_dim=1, end_dim=-1)
  (layer1): Linear(in_features=8, out_features=32, bias=True)
  (layer2): Linear(in_features=32, out_features=32, bias=True)
  (layer3): Linear(in_features=32, out_features=2, bias=True)
)",4,32,0.05,0.0,0.001,0.95,0.039025,0.960975,1.447466003043027,2.27398,454796,145204,25,492.0758064516129,13.831161999999999,"TitForTat,TidemanAndChieruzzi,Nydegger,Grofman,Shubik"
219,"QNetwork(
  (flatten): Flatten(start_dim=1, end_dim=-1)
  (layer1): Linear(in_features=8, out_features=32, bias=True)
  (layer2): Linear(in_features=32, out_features=32, bias=True)
  (layer3): Linear(in_features=32, out_features=2, bias=True)
)",4,32,0.05,0.0,0.001,0.99,0.466275,0.533725,1.5982093347230453,2.086425,417285,182715,25,547.7774193548387,16.061097,"TitForTat,TidemanAndChieruzzi,Nydegger,Grofman,Shubik"
220,"QNetwork(
  (flatten): Flatten(start_dim=1, end_dim=-1)
  (layer1): Linear(in_features=8, out_features=32, bias=True)
  (layer2): Linear(in_features=32, out_features=32, bias=True)
  (layer3): Linear(in_features=32, out_features=2, bias=True)
)",4,32,0.05,0.002,0.01,0.95,0.975655,0.024345,1.3632669084395252,2.934335,586867,13133,22,714.4258064516129,12.251972,"TitForTat,TidemanAndChieruzzi,Nydegger,Grofman,Shubik"
221,"QNetwork(
  (flatten): Flatten(start_dim=1, end_dim=-1)
  (layer1): Linear(in_features=8, out_features=32, bias=True)
  (layer2): Linear(in_features=32, out_features=32, bias=True)
  (layer3): Linear(in_features=32, out_features=2, bias=True)
)",4,32,0.05,0.002,0.01,0.99,0.58524,0.41476,0.660103604870984,2.63563,527126,72874,25,653.7677419354839,10.783302000000003,"TitForTat,TidemanAndChieruzzi,Nydegger,Grofman,Shubik"
222,"QNetwork(
  (flatten): Flatten(start_dim=1, end_dim=-1)
  (layer1): Linear(in_features=8, out_features=32, bias=True)
  (layer2): Linear(in_features=32, out_features=32, bias=True)
  (layer3): Linear(in_features=32, out_features=2, bias=True)
)",4,32,0.05,0.002,0.001,0.95,0.62337,0.37663,0.4391574019647765,2.788015,557603,42397,25,529.7290322580645,14.112804000000004,"TitForTat,TidemanAndChieruzzi,Nydegger,Grofman,Shubik"
223,"QNetwork(
  (flatten): Flatten(start_dim=1, end_dim=-1)
  (layer1): Linear(in_features=8, out_features=32, bias=True)
  (layer2): Linear(in_features=32, out_features=32, bias=True)
  (layer3): Linear(in_features=32, out_features=2, bias=True)
)",4,32,0.05,0.002,0.001,0.99,0.397755,0.602245,0.7608417671673524,2.501765,500353,99647,10,771.583870967742,13.740664000000006,"TitForTat,TidemanAndChieruzzi,Nydegger,Grofman,Shubik"
224,"QNetwork(
  (flatten): Flatten(start_dim=1, end_dim=-1)
  (layer1): Linear(in_features=8, out_features=32, bias=True)
  (layer2): Linear(in_features=32, out_features=32, bias=True)
  (layer3): Linear(in_features=32, out_features=2, bias=True)
)",4,32,0.1,0.0,0.01,0.95,0.949895,0.050105,2.377918131474955,2.85148,570296,29704,18,741.5241935483871,12.699061999999998,"TitForTat,TidemanAndChieruzzi,Nydegger,Grofman,Shubik"
225,"QNetwork(
  (flatten): Flatten(start_dim=1, end_dim=-1)
  (layer1): Linear(in_features=8, out_features=32, bias=True)
  (layer2): Linear(in_features=32, out_features=32, bias=True)
  (layer3): Linear(in_features=32, out_features=2, bias=True)
)",4,32,0.1,0.0,0.01,0.99,0.949835,0.050165,2.385943183689143,2.846405,569281,30719,24,706.4790322580645,12.17424,"TitForTat,TidemanAndChieruzzi,Nydegger,Grofman,Shubik"
226,"QNetwork(
  (flatten): Flatten(start_dim=1, end_dim=-1)
  (layer1): Linear(in_features=8, out_features=32, bias=True)
  (layer2): Linear(in_features=32, out_features=32, bias=True)
  (layer3): Linear(in_features=32, out_features=2, bias=True)
)",4,32,0.1,0.0,0.001,0.95,0.621685,0.378315,0.49808623199010543,2.712725,542545,57455,26,479.76774193548385,15.171131,"TitForTat,TidemanAndChieruzzi,Nydegger,Grofman,Shubik"
227,"QNetwork(
  (flatten): Flatten(start_dim=1, end_dim=-1)
  (layer1): Linear(in_features=8, out_features=32, bias=True)
  (layer2): Linear(in_features=32, out_features=32, bias=True)
  (layer3): Linear(in_features=32, out_features=2, bias=True)
)",4,32,0.1,0.0,0.001,0.99,0.560295,0.439705,1.7243324504937028,2.204835,440967,159033,27,489.38870967741934,13.199054999999996,"TitForTat,TidemanAndChieruzzi,Nydegger,Grofman,Shubik"
228,"QNetwork(
  (flatten): Flatten(start_dim=1, end_dim=-1)
  (layer1): Linear(in_features=8, out_features=32, bias=True)
  (layer2): Linear(in_features=32, out_features=32, bias=True)
  (layer3): Linear(in_features=32, out_features=2, bias=True)
)",4,32,0.1,0.002,0.01,0.95,0.813605,0.186395,0.27117030425903077,2.881885,576377,23623,24,723.3354838709678,12.341279,"TitForTat,TidemanAndChieruzzi,Nydegger,Grofman,Shubik"
229,"QNetwork(
  (flatten): Flatten(start_dim=1, end_dim=-1)
  (layer1): Linear(in_features=8, out_features=32, bias=True)
  (layer2): Linear(in_features=32, out_features=32, bias=True)
  (layer3): Linear(in_features=32, out_features=2, bias=True)
)",4,32,0.1,0.002,0.01,0.99,0.973475,0.026525,2.451721416921893,2.93227,586454,13546,25,714.6225806451613,12.696463000000001,"TitForTat,TidemanAndChieruzzi,Nydegger,Grofman,Shubik"
230,"QNetwork(
  (flatten): Flatten(start_dim=1, end_dim=-1)
  (layer1): Linear(in_features=8, out_features=32, bias=True)
  (layer2): Linear(in_features=32, out_features=32, bias=True)
  (layer3): Linear(in_features=32, out_features=2, bias=True)
)",4,32,0.1,0.002,0.001,0.95,0.09701,0.90299,1.4087262848431645,2.329385,465877,134123,24,699.5967741935484,12.185025,"TitForTat,TidemanAndChieruzzi,Nydegger,Grofman,Shubik"
231,"QNetwork(
  (flatten): Flatten(start_dim=1, end_dim=-1)
  (layer1): Linear(in_features=8, out_features=32, bias=True)
  (layer2): Linear(in_features=32, out_features=32, bias=True)
  (layer3): Linear(in_features=32, out_features=2, bias=True)
)",4,32,0.1,0.002,0.001,0.99,0.297095,0.702905,0.8918571034966765,2.36021,472042,127958,25,579.0403225806451,14.284027000000004,"TitForTat,TidemanAndChieruzzi,Nydegger,Grofman,Shubik"
232,"QNetwork(
  (flatten): Flatten(start_dim=1, end_dim=-1)
  (layer1): Linear(in_features=8, out_features=32, bias=True)
  (layer2): Linear(in_features=32, out_features=32, bias=True)
  (layer3): Linear(in_features=32, out_features=2, bias=True)
)",4,32,0.2,0.0,0.01,0.95,0.89882,0.10118,2.2586250836825372,2.683375,536675,63325,24,699.4193548387096,11.851352000000002,"TitForTat,TidemanAndChieruzzi,Nydegger,Grofman,Shubik"
233,"QNetwork(
  (flatten): Flatten(start_dim=1, end_dim=-1)
  (layer1): Linear(in_features=8, out_features=32, bias=True)
  (layer2): Linear(in_features=32, out_features=32, bias=True)
  (layer3): Linear(in_features=32, out_features=2, bias=True)
)",4,32,0.2,0.0,0.01,0.99,0.899025,0.100975,2.259803114632359,2.684925,536985,63015,25,646.1322580645161,11.240279,"TitForTat,TidemanAndChieruzzi,Nydegger,Grofman,Shubik"
234,"QNetwork(
  (flatten): Flatten(start_dim=1, end_dim=-1)
  (layer1): Linear(in_features=8, out_features=32, bias=True)
  (layer2): Linear(in_features=32, out_features=32, bias=True)
  (layer3): Linear(in_features=32, out_features=2, bias=True)
)",4,32,0.2,0.0,0.001,0.95,0.44151,0.55849,0.7119260351057506,2.45131,490262,109738,25,634.5370967741935,14.293255000000002,"TitForTat,TidemanAndChieruzzi,Nydegger,Grofman,Shubik"
235,"QNetwork(
  (flatten): Flatten(start_dim=1, end_dim=-1)
  (layer1): Linear(in_features=8, out_features=32, bias=True)
  (layer2): Linear(in_features=32, out_features=32, bias=True)
  (layer3): Linear(in_features=32, out_features=2, bias=True)
)",4,32,0.2,0.0,0.001,0.99,0.420345,0.579655,0.8967812901960586,2.306485,461297,138703,25,648.4209677419354,20.463887000000003,"TitForTat,TidemanAndChieruzzi,Nydegger,Grofman,Shubik"
236,"QNetwork(
  (flatten): Flatten(start_dim=1, end_dim=-1)
  (layer1): Linear(in_features=8, out_features=32, bias=True)
  (layer2): Linear(in_features=32, out_features=32, bias=True)
  (layer3): Linear(in_features=32, out_features=2, bias=True)
)",4,32,0.2,0.002,0.01,0.95,0.961245,0.038755,2.4173431743347646,2.887545,577509,22491,23,719.916129032258,12.470672,"TitForTat,TidemanAndChieruzzi,Nydegger,Grofman,Shubik"
237,"QNetwork(
  (flatten): Flatten(start_dim=1, end_dim=-1)
  (layer1): Linear(in_features=8, out_features=32, bias=True)
  (layer2): Linear(in_features=32, out_features=32, bias=True)
  (layer3): Linear(in_features=32, out_features=2, bias=True)
)",4,32,0.2,0.002,0.01,0.99,0.491845,0.508155,0.7491095396789477,2.53969,507938,92062,31,445.76774193548385,14.679457000000001,"TitForTat,TidemanAndChieruzzi,Nydegger,Grofman,Shubik"
238,"QNetwork(
  (flatten): Flatten(start_dim=1, end_dim=-1)
  (layer1): Linear(in_features=8, out_features=32, bias=True)
  (layer2): Linear(in_features=32, out_features=32, bias=True)
  (layer3): Linear(in_features=32, out_features=2, bias=True)
)",4,32,0.2,0.002,0.001,0.95,0.575945,0.424055,0.5366318191836549,2.84922,569844,30156,25,610.4774193548387,10.958129,"TitForTat,TidemanAndChieruzzi,Nydegger,Grofman,Shubik"
239,"QNetwork(
  (flatten): Flatten(start_dim=1, end_dim=-1)
  (layer1): Linear(in_features=8, out_features=32, bias=True)
  (layer2): Linear(in_features=32, out_features=32, bias=True)
  (layer3): Linear(in_features=32, out_features=2, bias=True)
)",4,32,0.2,0.002,0.001,0.99,0.40067,0.59933,0.8197839875420133,2.424865,484973,115027,25,659.5241935483871,11.792703999999997,"TitForTat,TidemanAndChieruzzi,Nydegger,Grofman,Shubik"
240,"QNetwork(
  (flatten): Flatten(start_dim=1, end_dim=-1)
  (layer1): Linear(in_features=8, out_features=64, bias=True)
  (layer2): Linear(in_features=64, out_features=64, bias=True)
  (layer3): Linear(in_features=64, out_features=2, bias=True)
)",4,64,0.05,0.0,0.01,0.95,0.975335,0.024665,2.4541343429410456,2.935825,587165,12835,24,708.1354838709677,11.986296000000003,"TitForTat,TidemanAndChieruzzi,Nydegger,Grofman,Shubik"
241,"QNetwork(
  (flatten): Flatten(start_dim=1, end_dim=-1)
  (layer1): Linear(in_features=8, out_features=64, bias=True)
  (layer2): Linear(in_features=64, out_features=64, bias=True)
  (layer3): Linear(in_features=64, out_features=2, bias=True)
)",4,64,0.05,0.0,0.01,0.99,0.97409,0.02591,2.4531588783028906,2.934285,586857,13143,25,672.2032258064517,11.301025,"TitForTat,TidemanAndChieruzzi,Nydegger,Grofman,Shubik"
242,"QNetwork(
  (flatten): Flatten(start_dim=1, end_dim=-1)
  (layer1): Linear(in_features=8, out_features=64, bias=True)
  (layer2): Linear(in_features=64, out_features=64, bias=True)
  (layer3): Linear(in_features=64, out_features=2, bias=True)
)",4,64,0.05,0.0,0.001,0.95,0.68744,0.31256,0.3734968006652147,2.902325,580465,19535,24,705.9129032258064,11.614187000000005,"TitForTat,TidemanAndChieruzzi,Nydegger,Grofman,Shubik"
243,"QNetwork(
  (flatten): Flatten(start_dim=1, end_dim=-1)
  (layer1): Linear(in_features=8, out_features=64, bias=True)
  (layer2): Linear(in_features=64, out_features=64, bias=True)
  (layer3): Linear(in_features=64, out_features=2, bias=True)
)",4,64,0.05,0.0,0.001,0.99,0.49316,0.50684,1.167182607739411,2.4372,487440,112560,23,713.3209677419355,11.768797000000005,"TitForTat,TidemanAndChieruzzi,Nydegger,Grofman,Shubik"
244,"QNetwork(
  (flatten): Flatten(start_dim=1, end_dim=-1)
  (layer1): Linear(in_features=8, out_features=64, bias=True)
  (layer2): Linear(in_features=64, out_features=64, bias=True)
  (layer3): Linear(in_features=64, out_features=2, bias=True)
)",4,64,0.05,0.002,0.01,0.95,0.724275,0.275725,0.36976336936827925,2.84377,568754,31246,25,679.108064516129,11.929419999999997,"TitForTat,TidemanAndChieruzzi,Nydegger,Grofman,Shubik"
245,"QNetwork(
  (flatten): Flatten(start_dim=1, end_dim=-1)
  (layer1): Linear(in_features=8, out_features=64, bias=True)
  (layer2): Linear(in_features=64, out_features=64, bias=True)
  (layer3): Linear(in_features=64, out_features=2, bias=True)
)",4,64,0.05,0.002,0.01,0.99,0.97523,0.02477,2.451883080231447,2.932935,586587,13413,24,691.4822580645161,11.783232000000002,"TitForTat,TidemanAndChieruzzi,Nydegger,Grofman,Shubik"
246,"QNetwork(
  (flatten): Flatten(start_dim=1, end_dim=-1)
  (layer1): Linear(in_features=8, out_features=64, bias=True)
  (layer2): Linear(in_features=64, out_features=64, bias=True)
  (layer3): Linear(in_features=64, out_features=2, bias=True)
)",4,64,0.05,0.002,0.001,0.95,0.63791,0.36209,0.42128878877499215,2.90872,581744,18256,25,621.8129032258065,11.934790000000001,"TitForTat,TidemanAndChieruzzi,Nydegger,Grofman,Shubik"
247,"QNetwork(
  (flatten): Flatten(start_dim=1, end_dim=-1)
  (layer1): Linear(in_features=8, out_features=64, bias=True)
  (layer2): Linear(in_features=64, out_features=64, bias=True)
  (layer3): Linear(in_features=64, out_features=2, bias=True)
)",4,64,0.05,0.002,0.001,0.99,0.974895,0.025105,2.4527987457142024,2.93403,586806,13194,20,749.5564516129032,12.315076000000005,"TitForTat,TidemanAndChieruzzi,Nydegger,Grofman,Shubik"
248,"QNetwork(
  (flatten): Flatten(start_dim=1, end_dim=-1)
  (layer1): Linear(in_features=8, out_features=64, bias=True)
  (layer2): Linear(in_features=64, out_features=64, bias=True)
  (layer3): Linear(in_features=64, out_features=2, bias=True)
)",4,64,0.1,0.0,0.01,0.95,0.619425,0.380575,0.48400151193145635,2.691885,538377,61623,24,681.5338709677419,11.859658,"TitForTat,TidemanAndChieruzzi,Nydegger,Grofman,Shubik"
249,"QNetwork(
  (flatten): Flatten(start_dim=1, end_dim=-1)
  (layer1): Linear(in_features=8, out_features=64, bias=True)
  (layer2): Linear(in_features=64, out_features=64, bias=True)
  (layer3): Linear(in_features=64, out_features=2, bias=True)
)",4,64,0.1,0.0,0.01,0.99,0.949815,0.050185,2.3851133970826863,2.84533,569066,30934,19,760.5548387096774,12.785265000000004,"TitForTat,TidemanAndChieruzzi,Nydegger,Grofman,Shubik"
250,"QNetwork(
  (flatten): Flatten(start_dim=1, end_dim=-1)
  (layer1): Linear(in_features=8, out_features=64, bias=True)
  (layer2): Linear(in_features=64, out_features=64, bias=True)
  (layer3): Linear(in_features=64, out_features=2, bias=True)
)",4,64,0.1,0.0,0.001,0.95,0.60695,0.39305,0.5227735107810226,2.794815,558963,41037,24,700.7677419354839,11.579715999999998,"TitForTat,TidemanAndChieruzzi,Nydegger,Grofman,Shubik"
251,"QNetwork(
  (flatten): Flatten(start_dim=1, end_dim=-1)
  (layer1): Linear(in_features=8, out_features=64, bias=True)
  (layer2): Linear(in_features=64, out_features=64, bias=True)
  (layer3): Linear(in_features=64, out_features=2, bias=True)
)",4,64,0.1,0.0,0.001,0.99,0.424995,0.575005,1.037300452246432,2.36496,472992,127008,25,680.7435483870968,11.869294,"TitForTat,TidemanAndChieruzzi,Nydegger,Grofman,Shubik"
252,"QNetwork(
  (flatten): Flatten(start_dim=1, end_dim=-1)
  (layer1): Linear(in_features=8, out_features=64, bias=True)
  (layer2): Linear(in_features=64, out_features=64, bias=True)
  (layer3): Linear(in_features=64, out_features=2, bias=True)
)",4,64,0.1,0.002,0.01,0.95,0.74101,0.25899,0.3675771563030001,2.85025,570050,29950,25,670.408064516129,11.515174000000002,"TitForTat,TidemanAndChieruzzi,Nydegger,Grofman,Shubik"
253,"QNetwork(
  (flatten): Flatten(start_dim=1, end_dim=-1)
  (layer1): Linear(in_features=8, out_features=64, bias=True)
  (layer2): Linear(in_features=64, out_features=64, bias=True)
  (layer3): Linear(in_features=64, out_features=2, bias=True)
)",4,64,0.1,0.002,0.01,0.99,0.97299,0.02701,2.4458980975155464,2.9252,585040,14960,20,744.4774193548387,12.574592000000003,"TitForTat,TidemanAndChieruzzi,Nydegger,Grofman,Shubik"
254,"QNetwork(
  (flatten): Flatten(start_dim=1, end_dim=-1)
  (layer1): Linear(in_features=8, out_features=64, bias=True)
  (layer2): Linear(in_features=64, out_features=64, bias=True)
  (layer3): Linear(in_features=64, out_features=2, bias=True)
)",4,64,0.1,0.002,0.001,0.95,0.7212,0.2788,0.36709945904529695,2.91135,582270,17730,22,726.2274193548387,12.458461999999999,"TitForTat,TidemanAndChieruzzi,Nydegger,Grofman,Shubik"
255,"QNetwork(
  (flatten): Flatten(start_dim=1, end_dim=-1)
  (layer1): Linear(in_features=8, out_features=64, bias=True)
  (layer2): Linear(in_features=64, out_features=64, bias=True)
  (layer3): Linear(in_features=64, out_features=2, bias=True)
)",4,64,0.1,0.002,0.001,0.99,0.9725,0.0275,2.4508807788562916,2.93102,586204,13796,24,707.7483870967742,11.972968,"TitForTat,TidemanAndChieruzzi,Nydegger,Grofman,Shubik"
256,"QNetwork(
  (flatten): Flatten(start_dim=1, end_dim=-1)
  (layer1): Linear(in_features=8, out_features=64, bias=True)
  (layer2): Linear(in_features=64, out_features=64, bias=True)
  (layer3): Linear(in_features=64, out_features=2, bias=True)
)",4,64,0.2,0.0,0.01,0.95,0.89983,0.10017,2.26364619063139,2.68947,537894,62106,22,740.2903225806451,12.628188999999997,"TitForTat,TidemanAndChieruzzi,Nydegger,Grofman,Shubik"
257,"QNetwork(
  (flatten): Flatten(start_dim=1, end_dim=-1)
  (layer1): Linear(in_features=8, out_features=64, bias=True)
  (layer2): Linear(in_features=64, out_features=64, bias=True)
  (layer3): Linear(in_features=64, out_features=2, bias=True)
)",4,64,0.2,0.0,0.01,0.99,0.89939,0.10061,2.2625024660396575,2.68812,537624,62376,24,714.7048387096775,12.063787,"TitForTat,TidemanAndChieruzzi,Nydegger,Grofman,Shubik"
258,"QNetwork(
  (flatten): Flatten(start_dim=1, end_dim=-1)
  (layer1): Linear(in_features=8, out_features=64, bias=True)
  (layer2): Linear(in_features=64, out_features=64, bias=True)
  (layer3): Linear(in_features=64, out_features=2, bias=True)
)",4,64,0.2,0.0,0.001,0.95,0.51753,0.48247,0.8519147888172443,2.467335,493467,106533,28,468.61451612903227,13.590692999999998,"TitForTat,TidemanAndChieruzzi,Nydegger,Grofman,Shubik"
259,"QNetwork(
  (flatten): Flatten(start_dim=1, end_dim=-1)
  (layer1): Linear(in_features=8, out_features=64, bias=True)
  (layer2): Linear(in_features=64, out_features=64, bias=True)
  (layer3): Linear(in_features=64, out_features=2, bias=True)
)",4,64,0.2,0.0,0.001,0.99,0.48298,0.51702,1.16740163652159,2.30144,460288,139712,25,586.6467741935484,14.175705999999998,"TitForTat,TidemanAndChieruzzi,Nydegger,Grofman,Shubik"
260,"QNetwork(
  (flatten): Flatten(start_dim=1, end_dim=-1)
  (layer1): Linear(in_features=8, out_features=64, bias=True)
  (layer2): Linear(in_features=64, out_features=64, bias=True)
  (layer3): Linear(in_features=64, out_features=2, bias=True)
)",4,64,0.2,0.002,0.01,0.95,0.961325,0.038675,2.416207677530535,2.886155,577231,22769,18,752.741935483871,12.666065999999994,"TitForTat,TidemanAndChieruzzi,Nydegger,Grofman,Shubik"
261,"QNetwork(
  (flatten): Flatten(start_dim=1, end_dim=-1)
  (layer1): Linear(in_features=8, out_features=64, bias=True)
  (layer2): Linear(in_features=64, out_features=64, bias=True)
  (layer3): Linear(in_features=64, out_features=2, bias=True)
)",4,64,0.2,0.002,0.01,0.99,0.960565,0.039435,2.4124634842991446,2.88154,576308,23692,25,683.9870967741936,11.733927,"TitForTat,TidemanAndChieruzzi,Nydegger,Grofman,Shubik"
262,"QNetwork(
  (flatten): Flatten(start_dim=1, end_dim=-1)
  (layer1): Linear(in_features=8, out_features=64, bias=True)
  (layer2): Linear(in_features=64, out_features=64, bias=True)
  (layer3): Linear(in_features=64, out_features=2, bias=True)
)",4,64,0.2,0.002,0.001,0.95,0.96101,0.03899,2.415983187719992,2.885735,577147,22853,24,727.741935483871,12.136660999999997,"TitForTat,TidemanAndChieruzzi,Nydegger,Grofman,Shubik"
263,"QNetwork(
  (flatten): Flatten(start_dim=1, end_dim=-1)
  (layer1): Linear(in_features=8, out_features=64, bias=True)
  (layer2): Linear(in_features=64, out_features=64, bias=True)
  (layer3): Linear(in_features=64, out_features=2, bias=True)
)",4,64,0.2,0.002,0.001,0.99,0.469715,0.530285,1.5032120093505823,2.244075,448815,151185,26,468.6338709677419,14.577972000000004,"TitForTat,TidemanAndChieruzzi,Nydegger,Grofman,Shubik"
264,"QNetwork(
  (flatten): Flatten(start_dim=1, end_dim=-1)
  (layer1): Linear(in_features=8, out_features=128, bias=True)
  (layer2): Linear(in_features=128, out_features=128, bias=True)
  (layer3): Linear(in_features=128, out_features=2, bias=True)
)",4,128,0.05,0.0,0.01,0.95,0.975105,0.024895,2.4519943145558236,2.93317,586634,13366,25,671.6709677419354,11.916526,"TitForTat,TidemanAndChieruzzi,Nydegger,Grofman,Shubik"
265,"QNetwork(
  (flatten): Flatten(start_dim=1, end_dim=-1)
  (layer1): Linear(in_features=8, out_features=128, bias=True)
  (layer2): Linear(in_features=128, out_features=128, bias=True)
  (layer3): Linear(in_features=128, out_features=2, bias=True)
)",4,128,0.05,0.0,0.01,0.99,0.97532,0.02468,2.452897504266533,2.934365,586873,13127,22,726.2758064516129,12.488464000000004,"TitForTat,TidemanAndChieruzzi,Nydegger,Grofman,Shubik"
266,"QNetwork(
  (flatten): Flatten(start_dim=1, end_dim=-1)
  (layer1): Linear(in_features=8, out_features=128, bias=True)
  (layer2): Linear(in_features=128, out_features=128, bias=True)
  (layer3): Linear(in_features=128, out_features=2, bias=True)
)",4,128,0.05,0.0,0.001,0.95,0.97559,0.02441,2.4538997830200193,2.935645,587129,12871,17,761.0467741935483,13.759701000000003,"TitForTat,TidemanAndChieruzzi,Nydegger,Grofman,Shubik"
267,"QNetwork(
  (flatten): Flatten(start_dim=1, end_dim=-1)
  (layer1): Linear(in_features=8, out_features=128, bias=True)
  (layer2): Linear(in_features=128, out_features=128, bias=True)
  (layer3): Linear(in_features=128, out_features=2, bias=True)
)",4,128,0.05,0.0,0.001,0.99,0.470205,0.529795,0.735431777113807,2.57964,515928,84072,25,622.2532258064516,13.862592999999995,"TitForTat,TidemanAndChieruzzi,Nydegger,Grofman,Shubik"
268,"QNetwork(
  (flatten): Flatten(start_dim=1, end_dim=-1)
  (layer1): Linear(in_features=8, out_features=128, bias=True)
  (layer2): Linear(in_features=128, out_features=128, bias=True)
  (layer3): Linear(in_features=128, out_features=2, bias=True)
)",4,128,0.05,0.002,0.01,0.95,0.97524,0.02476,2.4501376562456785,2.93095,586190,13810,25,697.916129032258,12.383706999999996,"TitForTat,TidemanAndChieruzzi,Nydegger,Grofman,Shubik"
269,"QNetwork(
  (flatten): Flatten(start_dim=1, end_dim=-1)
  (layer1): Linear(in_features=8, out_features=128, bias=True)
  (layer2): Linear(in_features=128, out_features=128, bias=True)
  (layer3): Linear(in_features=128, out_features=2, bias=True)
)",4,128,0.05,0.002,0.01,0.99,0.97531,0.02469,2.454453396257758,2.932865,586573,13427,23,707.9209677419354,12.353069000000001,"TitForTat,TidemanAndChieruzzi,Nydegger,Grofman,Shubik"
270,"QNetwork(
  (flatten): Flatten(start_dim=1, end_dim=-1)
  (layer1): Linear(in_features=8, out_features=128, bias=True)
  (layer2): Linear(in_features=128, out_features=128, bias=True)
  (layer3): Linear(in_features=128, out_features=2, bias=True)
)",4,128,0.05,0.002,0.001,0.95,0.673875,0.326125,0.41721783893799935,2.961115,592223,7777,24,687.8548387096774,12.925894000000001,"TitForTat,TidemanAndChieruzzi,Nydegger,Grofman,Shubik"
271,"QNetwork(
  (flatten): Flatten(start_dim=1, end_dim=-1)
  (layer1): Linear(in_features=8, out_features=128, bias=True)
  (layer2): Linear(in_features=128, out_features=128, bias=True)
  (layer3): Linear(in_features=128, out_features=2, bias=True)
)",4,128,0.05,0.002,0.001,0.99,0.97484,0.02516,2.452410328373909,2.933665,586733,13267,25,678.6241935483871,12.239519999999997,"TitForTat,TidemanAndChieruzzi,Nydegger,Grofman,Shubik"
272,"QNetwork(
  (flatten): Flatten(start_dim=1, end_dim=-1)
  (layer1): Linear(in_features=8, out_features=128, bias=True)
  (layer2): Linear(in_features=128, out_features=128, bias=True)
  (layer3): Linear(in_features=128, out_features=2, bias=True)
)",4,128,0.1,0.0,0.01,0.95,0.949245,0.050755,2.382876611504331,2.842485,568497,31503,20,732.8838709677419,12.632986,"TitForTat,TidemanAndChieruzzi,Nydegger,Grofman,Shubik"
273,"QNetwork(
  (flatten): Flatten(start_dim=1, end_dim=-1)
  (layer1): Linear(in_features=8, out_features=128, bias=True)
  (layer2): Linear(in_features=128, out_features=128, bias=True)
  (layer3): Linear(in_features=128, out_features=2, bias=True)
)",4,128,0.1,0.0,0.01,0.99,0.95046,0.04954,2.387520722797513,2.848525,569705,30295,23,709.9193548387096,12.752492999999994,"TitForTat,TidemanAndChieruzzi,Nydegger,Grofman,Shubik"
274,"QNetwork(
  (flatten): Flatten(start_dim=1, end_dim=-1)
  (layer1): Linear(in_features=8, out_features=128, bias=True)
  (layer2): Linear(in_features=128, out_features=128, bias=True)
  (layer3): Linear(in_features=128, out_features=2, bias=True)
)",4,128,0.1,0.0,0.001,0.95,0.604435,0.395565,0.541629188808878,2.813975,562795,37205,25,695.8290322580646,11.862807,"TitForTat,TidemanAndChieruzzi,Nydegger,Grofman,Shubik"
275,"QNetwork(
  (flatten): Flatten(start_dim=1, end_dim=-1)
  (layer1): Linear(in_features=8, out_features=128, bias=True)
  (layer2): Linear(in_features=128, out_features=128, bias=True)
  (layer3): Linear(in_features=128, out_features=2, bias=True)
)",4,128,0.1,0.0,0.001,0.99,0.819825,0.180175,2.20519933473922,2.72558,545116,54884,27,521.7758064516129,12.804429,"TitForTat,TidemanAndChieruzzi,Nydegger,Grofman,Shubik"
276,"QNetwork(
  (flatten): Flatten(start_dim=1, end_dim=-1)
  (layer1): Linear(in_features=8, out_features=128, bias=True)
  (layer2): Linear(in_features=128, out_features=128, bias=True)
  (layer3): Linear(in_features=128, out_features=2, bias=True)
)",4,128,0.1,0.002,0.01,0.95,0.97365,0.02635,2.4503817912375925,2.93079,586158,13842,8,785.8758064516129,13.418550000000002,"TitForTat,TidemanAndChieruzzi,Nydegger,Grofman,Shubik"
277,"QNetwork(
  (flatten): Flatten(start_dim=1, end_dim=-1)
  (layer1): Linear(in_features=8, out_features=128, bias=True)
  (layer2): Linear(in_features=128, out_features=128, bias=True)
  (layer3): Linear(in_features=128, out_features=2, bias=True)
)",4,128,0.1,0.002,0.01,0.99,0.97352,0.02648,2.449746806117901,2.929935,585987,14013,24,711.4435483870968,12.701057999999996,"TitForTat,TidemanAndChieruzzi,Nydegger,Grofman,Shubik"
278,"QNetwork(
  (flatten): Flatten(start_dim=1, end_dim=-1)
  (layer1): Linear(in_features=8, out_features=128, bias=True)
  (layer2): Linear(in_features=128, out_features=128, bias=True)
  (layer3): Linear(in_features=128, out_features=2, bias=True)
)",4,128,0.1,0.002,0.001,0.95,0.7853,0.2147,0.8808645196483306,2.96021,592042,7958,27,466.38709677419354,15.822475,"TitForTat,TidemanAndChieruzzi,Nydegger,Grofman,Shubik"
279,"QNetwork(
  (flatten): Flatten(start_dim=1, end_dim=-1)
  (layer1): Linear(in_features=8, out_features=128, bias=True)
  (layer2): Linear(in_features=128, out_features=128, bias=True)
  (layer3): Linear(in_features=128, out_features=2, bias=True)
)",4,128,0.1,0.002,0.001,0.99,0.46409,0.53591,0.7794813947270517,2.57952,515904,84096,24,708.8467741935484,12.612405,"TitForTat,TidemanAndChieruzzi,Nydegger,Grofman,Shubik"
280,"QNetwork(
  (flatten): Flatten(start_dim=1, end_dim=-1)
  (layer1): Linear(in_features=8, out_features=128, bias=True)
  (layer2): Linear(in_features=128, out_features=128, bias=True)
  (layer3): Linear(in_features=128, out_features=2, bias=True)
)",4,128,0.2,0.0,0.01,0.95,0.900805,0.099195,2.2659283219230173,2.692215,538443,61557,23,715.6725806451612,12.550209000000004,"TitForTat,TidemanAndChieruzzi,Nydegger,Grofman,Shubik"
281,"QNetwork(
  (flatten): Flatten(start_dim=1, end_dim=-1)
  (layer1): Linear(in_features=8, out_features=128, bias=True)
  (layer2): Linear(in_features=128, out_features=128, bias=True)
  (layer3): Linear(in_features=128, out_features=2, bias=True)
)",4,128,0.2,0.0,0.01,0.99,0.892865,0.107135,2.2466677644446427,2.672175,534435,65565,24,694.7951612903225,12.140507000000003,"TitForTat,TidemanAndChieruzzi,Nydegger,Grofman,Shubik"
282,"QNetwork(
  (flatten): Flatten(start_dim=1, end_dim=-1)
  (layer1): Linear(in_features=8, out_features=128, bias=True)
  (layer2): Linear(in_features=128, out_features=128, bias=True)
  (layer3): Linear(in_features=128, out_features=2, bias=True)
)",4,128,0.2,0.0,0.001,0.95,0.800475,0.199525,2.0754302173288837,2.63311,526622,73378,25,525.9629032258065,15.695795000000006,"TitForTat,TidemanAndChieruzzi,Nydegger,Grofman,Shubik"
283,"QNetwork(
  (flatten): Flatten(start_dim=1, end_dim=-1)
  (layer1): Linear(in_features=8, out_features=128, bias=True)
  (layer2): Linear(in_features=128, out_features=128, bias=True)
  (layer3): Linear(in_features=128, out_features=2, bias=True)
)",4,128,0.2,0.0,0.001,0.99,0.900225,0.099775,2.2634482968983916,2.689655,537931,62069,7,781.9129032258064,18.250218999999998,"TitForTat,TidemanAndChieruzzi,Nydegger,Grofman,Shubik"
284,"QNetwork(
  (flatten): Flatten(start_dim=1, end_dim=-1)
  (layer1): Linear(in_features=8, out_features=128, bias=True)
  (layer2): Linear(in_features=128, out_features=128, bias=True)
  (layer3): Linear(in_features=128, out_features=2, bias=True)
)",4,128,0.2,0.002,0.01,0.95,0.96106,0.03894,2.415508191789389,2.885265,577053,22947,16,747.9983870967742,12.97171,"TitForTat,TidemanAndChieruzzi,Nydegger,Grofman,Shubik"
285,"QNetwork(
  (flatten): Flatten(start_dim=1, end_dim=-1)
  (layer1): Linear(in_features=8, out_features=128, bias=True)
  (layer2): Linear(in_features=128, out_features=128, bias=True)
  (layer3): Linear(in_features=128, out_features=2, bias=True)
)",4,128,0.2,0.002,0.01,0.99,0.96116,0.03884,2.412916118357333,2.882255,576451,23549,24,712.8822580645161,12.562617000000003,"TitForTat,TidemanAndChieruzzi,Nydegger,Grofman,Shubik"
286,"QNetwork(
  (flatten): Flatten(start_dim=1, end_dim=-1)
  (layer1): Linear(in_features=8, out_features=128, bias=True)
  (layer2): Linear(in_features=128, out_features=128, bias=True)
  (layer3): Linear(in_features=128, out_features=2, bias=True)
)",4,128,0.2,0.002,0.001,0.95,0.52583,0.47417,0.6369517899676149,2.855825,571165,28835,25,665.0790322580646,12.264547999999998,"TitForTat,TidemanAndChieruzzi,Nydegger,Grofman,Shubik"
287,"QNetwork(
  (flatten): Flatten(start_dim=1, end_dim=-1)
  (layer1): Linear(in_features=8, out_features=128, bias=True)
  (layer2): Linear(in_features=128, out_features=128, bias=True)
  (layer3): Linear(in_features=128, out_features=2, bias=True)
)",4,128,0.2,0.002,0.001,0.99,0.957845,0.042155,2.3945644374117414,2.89036,578072,21928,25,659.9516129032259,11.443100999999999,"TitForTat,TidemanAndChieruzzi,Nydegger,Grofman,Shubik"
288,"QNetwork(
  (flatten): Flatten(start_dim=1, end_dim=-1)
  (layer1): Linear(in_features=12, out_features=4, bias=True)
  (layer2): Linear(in_features=4, out_features=4, bias=True)
  (layer3): Linear(in_features=4, out_features=2, bias=True)
)",6,4,0.05,0.0,0.01,0.95,0.602025,0.397975,0.4372338058308275,2.749605,549921,50079,14,764.7612903225806,12.495057999999997,"TitForTat,TidemanAndChieruzzi,Nydegger,Grofman,Shubik"
289,"QNetwork(
  (flatten): Flatten(start_dim=1, end_dim=-1)
  (layer1): Linear(in_features=12, out_features=4, bias=True)
  (layer2): Linear(in_features=4, out_features=4, bias=True)
  (layer3): Linear(in_features=4, out_features=2, bias=True)
)",6,4,0.05,0.0,0.01,0.99,0.97513,0.02487,2.4525601805043222,2.9339,586780,13220,14,767.8290322580646,12.809999000000001,"TitForTat,TidemanAndChieruzzi,Nydegger,Grofman,Shubik"
290,"QNetwork(
  (flatten): Flatten(start_dim=1, end_dim=-1)
  (layer1): Linear(in_features=12, out_features=4, bias=True)
  (layer2): Linear(in_features=4, out_features=4, bias=True)
  (layer3): Linear(in_features=4, out_features=2, bias=True)
)",6,4,0.05,0.0,0.001,0.95,0.482505,0.517495,0.6029789066185645,2.57036,514072,85928,15,764.3032258064516,12.522251999999993,"TitForTat,TidemanAndChieruzzi,Nydegger,Grofman,Shubik"
291,"QNetwork(
  (flatten): Flatten(start_dim=1, end_dim=-1)
  (layer1): Linear(in_features=12, out_features=4, bias=True)
  (layer2): Linear(in_features=4, out_features=4, bias=True)
  (layer3): Linear(in_features=4, out_features=2, bias=True)
)",6,4,0.05,0.0,0.001,0.99,0.97525,0.02475,2.4116212800005146,2.93451,586902,13098,25,681.7806451612903,11.140908000000001,"TitForTat,TidemanAndChieruzzi,Nydegger,Grofman,Shubik"
292,"QNetwork(
  (flatten): Flatten(start_dim=1, end_dim=-1)
  (layer1): Linear(in_features=12, out_features=4, bias=True)
  (layer2): Linear(in_features=4, out_features=4, bias=True)
  (layer3): Linear(in_features=4, out_features=2, bias=True)
)",6,4,0.05,0.002,0.01,0.95,0.70301,0.29699,0.3497340301511367,2.78936,557872,42128,25,681.1096774193549,11.467803000000004,"TitForTat,TidemanAndChieruzzi,Nydegger,Grofman,Shubik"
293,"QNetwork(
  (flatten): Flatten(start_dim=1, end_dim=-1)
  (layer1): Linear(in_features=12, out_features=4, bias=True)
  (layer2): Linear(in_features=4, out_features=4, bias=True)
  (layer3): Linear(in_features=4, out_features=2, bias=True)
)",6,4,0.05,0.002,0.01,0.99,0.593555,0.406445,0.6346298891308667,2.677215,535443,64557,25,660.3290322580646,11.392264,"TitForTat,TidemanAndChieruzzi,Nydegger,Grofman,Shubik"
294,"QNetwork(
  (flatten): Flatten(start_dim=1, end_dim=-1)
  (layer1): Linear(in_features=12, out_features=4, bias=True)
  (layer2): Linear(in_features=4, out_features=4, bias=True)
  (layer3): Linear(in_features=4, out_features=2, bias=True)
)",6,4,0.05,0.002,0.001,0.95,0.974945,0.025055,1.424235294514224,2.93414,586828,13172,23,723.0983870967742,11.824735999999998,"TitForTat,TidemanAndChieruzzi,Nydegger,Grofman,Shubik"
295,"QNetwork(
  (flatten): Flatten(start_dim=1, end_dim=-1)
  (layer1): Linear(in_features=12, out_features=4, bias=True)
  (layer2): Linear(in_features=4, out_features=4, bias=True)
  (layer3): Linear(in_features=4, out_features=2, bias=True)
)",6,4,0.05,0.002,0.001,0.99,0.63235,0.36765,0.6904910375771193,2.625555,525111,74889,22,741.5290322580645,12.51945,"TitForTat,TidemanAndChieruzzi,Nydegger,Grofman,Shubik"
296,"QNetwork(
  (flatten): Flatten(start_dim=1, end_dim=-1)
  (layer1): Linear(in_features=12, out_features=4, bias=True)
  (layer2): Linear(in_features=4, out_features=4, bias=True)
  (layer3): Linear(in_features=4, out_features=2, bias=True)
)",6,4,0.1,0.0,0.01,0.95,0.424785,0.575215,0.5262549904800078,2.420985,484197,115803,31,406.43870967741935,14.186116,"TitForTat,TidemanAndChieruzzi,Nydegger,Grofman,Shubik"
297,"QNetwork(
  (flatten): Flatten(start_dim=1, end_dim=-1)
  (layer1): Linear(in_features=12, out_features=4, bias=True)
  (layer2): Linear(in_features=4, out_features=4, bias=True)
  (layer3): Linear(in_features=4, out_features=2, bias=True)
)",6,4,0.1,0.0,0.01,0.99,0.477115,0.522885,0.878916408371836,2.44562,489124,110876,17,748.3709677419355,13.351277000000001,"TitForTat,TidemanAndChieruzzi,Nydegger,Grofman,Shubik"
298,"QNetwork(
  (flatten): Flatten(start_dim=1, end_dim=-1)
  (layer1): Linear(in_features=12, out_features=4, bias=True)
  (layer2): Linear(in_features=4, out_features=4, bias=True)
  (layer3): Linear(in_features=4, out_features=2, bias=True)
)",6,4,0.1,0.0,0.001,0.95,0.949595,0.050405,2.337795951083668,2.84713,569426,30574,24,739.333870967742,12.132537000000001,"TitForTat,TidemanAndChieruzzi,Nydegger,Grofman,Shubik"
299,"QNetwork(
  (flatten): Flatten(start_dim=1, end_dim=-1)
  (layer1): Linear(in_features=12, out_features=4, bias=True)
  (layer2): Linear(in_features=4, out_features=4, bias=True)
  (layer3): Linear(in_features=4, out_features=2, bias=True)
)",6,4,0.1,0.0,0.001,0.99,0.501005,0.498995,1.6917832562255948,2.17472,434944,165056,25,638.7387096774194,15.727379,"TitForTat,TidemanAndChieruzzi,Nydegger,Grofman,Shubik"
300,"QNetwork(
  (flatten): Flatten(start_dim=1, end_dim=-1)
  (layer1): Linear(in_features=12, out_features=4, bias=True)
  (layer2): Linear(in_features=4, out_features=4, bias=True)
  (layer3): Linear(in_features=4, out_features=2, bias=True)
)",6,4,0.1,0.002,0.01,0.95,0.64411,0.35589,0.38810841327946544,2.774425,554885,45115,25,719.0435483870967,12.399838000000008,"TitForTat,TidemanAndChieruzzi,Nydegger,Grofman,Shubik"
301,"QNetwork(
  (flatten): Flatten(start_dim=1, end_dim=-1)
  (layer1): Linear(in_features=12, out_features=4, bias=True)
  (layer2): Linear(in_features=4, out_features=4, bias=True)
  (layer3): Linear(in_features=4, out_features=2, bias=True)
)",6,4,0.1,0.002,0.01,0.99,0.157765,0.842235,1.4299723822236026,2.230705,446141,153859,18,760.5032258064516,12.924318000000001,"TitForTat,TidemanAndChieruzzi,Nydegger,Grofman,Shubik"
302,"QNetwork(
  (flatten): Flatten(start_dim=1, end_dim=-1)
  (layer1): Linear(in_features=12, out_features=4, bias=True)
  (layer2): Linear(in_features=4, out_features=4, bias=True)
  (layer3): Linear(in_features=4, out_features=2, bias=True)
)",6,4,0.1,0.002,0.001,0.95,0.61846,0.38154,0.4305557936445987,2.69087,538174,61826,25,695.05,11.850540000000002,"TitForTat,TidemanAndChieruzzi,Nydegger,Grofman,Shubik"
303,"QNetwork(
  (flatten): Flatten(start_dim=1, end_dim=-1)
  (layer1): Linear(in_features=12, out_features=4, bias=True)
  (layer2): Linear(in_features=4, out_features=4, bias=True)
  (layer3): Linear(in_features=4, out_features=2, bias=True)
)",6,4,0.1,0.002,0.001,0.99,0.228945,0.771055,1.6735917763001915,2.16458,432916,167084,25,540.9806451612903,13.996446,"TitForTat,TidemanAndChieruzzi,Nydegger,Grofman,Shubik"
304,"QNetwork(
  (flatten): Flatten(start_dim=1, end_dim=-1)
  (layer1): Linear(in_features=12, out_features=4, bias=True)
  (layer2): Linear(in_features=4, out_features=4, bias=True)
  (layer3): Linear(in_features=4, out_features=2, bias=True)
)",6,4,0.2,0.0,0.01,0.95,0.899845,0.100155,2.2644441700410844,2.690245,538049,61951,24,704.55,12.357359,"TitForTat,TidemanAndChieruzzi,Nydegger,Grofman,Shubik"
305,"QNetwork(
  (flatten): Flatten(start_dim=1, end_dim=-1)
  (layer1): Linear(in_features=12, out_features=4, bias=True)
  (layer2): Linear(in_features=4, out_features=4, bias=True)
  (layer3): Linear(in_features=4, out_features=2, bias=True)
)",6,4,0.2,0.0,0.01,0.99,0.89892,0.10108,2.2617691472403165,2.68666,537332,62668,10,769.0532258064516,12.648848999999997,"TitForTat,TidemanAndChieruzzi,Nydegger,Grofman,Shubik"
306,"QNetwork(
  (flatten): Flatten(start_dim=1, end_dim=-1)
  (layer1): Linear(in_features=12, out_features=4, bias=True)
  (layer2): Linear(in_features=4, out_features=4, bias=True)
  (layer3): Linear(in_features=4, out_features=2, bias=True)
)",6,4,0.2,0.0,0.001,0.95,0.450975,0.549025,1.6961983163212064,2.171985,434397,165603,25,581.6903225806452,13.323224999999997,"TitForTat,TidemanAndChieruzzi,Nydegger,Grofman,Shubik"
307,"QNetwork(
  (flatten): Flatten(start_dim=1, end_dim=-1)
  (layer1): Linear(in_features=12, out_features=4, bias=True)
  (layer2): Linear(in_features=4, out_features=4, bias=True)
  (layer3): Linear(in_features=4, out_features=2, bias=True)
)",6,4,0.2,0.0,0.001,0.99,0.50358,0.49642,1.737796947985266,2.199275,439855,160145,25,559.2645161290322,13.812029999999996,"TitForTat,TidemanAndChieruzzi,Nydegger,Grofman,Shubik"
308,"QNetwork(
  (flatten): Flatten(start_dim=1, end_dim=-1)
  (layer1): Linear(in_features=12, out_features=4, bias=True)
  (layer2): Linear(in_features=4, out_features=4, bias=True)
  (layer3): Linear(in_features=4, out_features=2, bias=True)
)",6,4,0.2,0.002,0.01,0.95,0.06217,0.93783,1.1193811429767038,2.316445,463289,136711,30,440.14193548387095,15.569617000000003,"TitForTat,TidemanAndChieruzzi,Nydegger,Grofman,Shubik"
309,"QNetwork(
  (flatten): Flatten(start_dim=1, end_dim=-1)
  (layer1): Linear(in_features=12, out_features=4, bias=True)
  (layer2): Linear(in_features=4, out_features=4, bias=True)
  (layer3): Linear(in_features=4, out_features=2, bias=True)
)",6,4,0.2,0.002,0.01,0.99,0.95717,0.04283,2.410935364496268,2.88004,576008,23992,25,702.2080645161291,11.779528999999998,"TitForTat,TidemanAndChieruzzi,Nydegger,Grofman,Shubik"
310,"QNetwork(
  (flatten): Flatten(start_dim=1, end_dim=-1)
  (layer1): Linear(in_features=12, out_features=4, bias=True)
  (layer2): Linear(in_features=4, out_features=4, bias=True)
  (layer3): Linear(in_features=4, out_features=2, bias=True)
)",6,4,0.2,0.002,0.001,0.95,0.711805,0.288195,0.37780767846750285,2.70435,540870,59130,7,807.9806451612903,12.915717999999998,"TitForTat,TidemanAndChieruzzi,Nydegger,Grofman,Shubik"
311,"QNetwork(
  (flatten): Flatten(start_dim=1, end_dim=-1)
  (layer1): Linear(in_features=12, out_features=4, bias=True)
  (layer2): Linear(in_features=4, out_features=4, bias=True)
  (layer3): Linear(in_features=4, out_features=2, bias=True)
)",6,4,0.2,0.002,0.001,0.99,0.96017,0.03983,2.412167542406331,2.881215,576243,23757,24,719.108064516129,12.136260000000004,"TitForTat,TidemanAndChieruzzi,Nydegger,Grofman,Shubik"
312,"QNetwork(
  (flatten): Flatten(start_dim=1, end_dim=-1)
  (layer1): Linear(in_features=12, out_features=8, bias=True)
  (layer2): Linear(in_features=8, out_features=8, bias=True)
  (layer3): Linear(in_features=8, out_features=2, bias=True)
)",6,8,0.05,0.0,0.01,0.95,0.651165,0.348835,0.30875516701211225,2.74143,548286,51714,30,450.41129032258067,15.460984000000005,"TitForTat,TidemanAndChieruzzi,Nydegger,Grofman,Shubik"
313,"QNetwork(
  (flatten): Flatten(start_dim=1, end_dim=-1)
  (layer1): Linear(in_features=12, out_features=8, bias=True)
  (layer2): Linear(in_features=8, out_features=8, bias=True)
  (layer3): Linear(in_features=8, out_features=2, bias=True)
)",6,8,0.05,0.0,0.01,0.99,0.96883,0.03117,2.4468330467464963,2.928465,585693,14307,25,671.6822580645161,11.093297999999999,"TitForTat,TidemanAndChieruzzi,Nydegger,Grofman,Shubik"
314,"QNetwork(
  (flatten): Flatten(start_dim=1, end_dim=-1)
  (layer1): Linear(in_features=12, out_features=8, bias=True)
  (layer2): Linear(in_features=8, out_features=8, bias=True)
  (layer3): Linear(in_features=8, out_features=2, bias=True)
)",6,8,0.05,0.0,0.001,0.95,0.02526,0.97474,1.514203922230992,2.26051,452102,147898,29,452.78709677419357,14.839262999999997,"TitForTat,TidemanAndChieruzzi,Nydegger,Grofman,Shubik"
315,"QNetwork(
  (flatten): Flatten(start_dim=1, end_dim=-1)
  (layer1): Linear(in_features=12, out_features=8, bias=True)
  (layer2): Linear(in_features=8, out_features=8, bias=True)
  (layer3): Linear(in_features=8, out_features=2, bias=True)
)",6,8,0.05,0.0,0.001,0.99,0.3583,0.6417,1.619222325790531,2.11018,422036,177964,25,555.1322580645161,14.151356,"TitForTat,TidemanAndChieruzzi,Nydegger,Grofman,Shubik"
316,"QNetwork(
  (flatten): Flatten(start_dim=1, end_dim=-1)
  (layer1): Linear(in_features=12, out_features=8, bias=True)
  (layer2): Linear(in_features=8, out_features=8, bias=True)
  (layer3): Linear(in_features=8, out_features=2, bias=True)
)",6,8,0.05,0.002,0.01,0.95,0.30183,0.69817,0.6190193472179704,2.426895,485379,114621,25,684.8725806451613,11.493568999999997,"TitForTat,TidemanAndChieruzzi,Nydegger,Grofman,Shubik"
317,"QNetwork(
  (flatten): Flatten(start_dim=1, end_dim=-1)
  (layer1): Linear(in_features=12, out_features=8, bias=True)
  (layer2): Linear(in_features=8, out_features=8, bias=True)
  (layer3): Linear(in_features=8, out_features=2, bias=True)
)",6,8,0.05,0.002,0.01,0.99,0.432915,0.567085,0.6386391518785749,2.47892,495784,104216,31,426.11290322580646,14.935631,"TitForTat,TidemanAndChieruzzi,Nydegger,Grofman,Shubik"
318,"QNetwork(
  (flatten): Flatten(start_dim=1, end_dim=-1)
  (layer1): Linear(in_features=12, out_features=8, bias=True)
  (layer2): Linear(in_features=8, out_features=8, bias=True)
  (layer3): Linear(in_features=8, out_features=2, bias=True)
)",6,8,0.05,0.002,0.001,0.95,0.975165,0.024835,1.4112779919097445,2.93361,586722,13278,25,682.5145161290322,11.409543999999999,"TitForTat,TidemanAndChieruzzi,Nydegger,Grofman,Shubik"
319,"QNetwork(
  (flatten): Flatten(start_dim=1, end_dim=-1)
  (layer1): Linear(in_features=12, out_features=8, bias=True)
  (layer2): Linear(in_features=8, out_features=8, bias=True)
  (layer3): Linear(in_features=8, out_features=2, bias=True)
)",6,8,0.05,0.002,0.001,0.99,0.974435,0.025565,2.411854684415235,2.93374,586748,13252,24,677.8935483870968,11.252541999999998,"TitForTat,TidemanAndChieruzzi,Nydegger,Grofman,Shubik"
320,"QNetwork(
  (flatten): Flatten(start_dim=1, end_dim=-1)
  (layer1): Linear(in_features=12, out_features=8, bias=True)
  (layer2): Linear(in_features=8, out_features=8, bias=True)
  (layer3): Linear(in_features=8, out_features=2, bias=True)
)",6,8,0.1,0.0,0.01,0.95,0.47381,0.52619,0.423377219662915,2.49149,498298,101702,31,420.1177419354839,14.264430999999998,"TitForTat,TidemanAndChieruzzi,Nydegger,Grofman,Shubik"
321,"QNetwork(
  (flatten): Flatten(start_dim=1, end_dim=-1)
  (layer1): Linear(in_features=12, out_features=8, bias=True)
  (layer2): Linear(in_features=8, out_features=8, bias=True)
  (layer3): Linear(in_features=8, out_features=2, bias=True)
)",6,8,0.1,0.0,0.01,0.99,0.71593,0.28407,0.6349761470918193,2.627295,525459,74541,25,668.5532258064516,13.262267999999999,"TitForTat,TidemanAndChieruzzi,Nydegger,Grofman,Shubik"
322,"QNetwork(
  (flatten): Flatten(start_dim=1, end_dim=-1)
  (layer1): Linear(in_features=12, out_features=8, bias=True)
  (layer2): Linear(in_features=8, out_features=8, bias=True)
  (layer3): Linear(in_features=8, out_features=2, bias=True)
)",6,8,0.1,0.0,0.001,0.95,0.599995,0.400005,0.5546497503337358,2.68092,536184,63816,26,502.4967741935484,15.779855,"TitForTat,TidemanAndChieruzzi,Nydegger,Grofman,Shubik"
323,"QNetwork(
  (flatten): Flatten(start_dim=1, end_dim=-1)
  (layer1): Linear(in_features=12, out_features=8, bias=True)
  (layer2): Linear(in_features=8, out_features=8, bias=True)
  (layer3): Linear(in_features=8, out_features=2, bias=True)
)",6,8,0.1,0.0,0.001,0.99,0.429765,0.570235,0.8447465062824526,2.38873,477746,122254,25,493.14516129032256,15.811440999999995,"TitForTat,TidemanAndChieruzzi,Nydegger,Grofman,Shubik"
324,"QNetwork(
  (flatten): Flatten(start_dim=1, end_dim=-1)
  (layer1): Linear(in_features=12, out_features=8, bias=True)
  (layer2): Linear(in_features=8, out_features=8, bias=True)
  (layer3): Linear(in_features=8, out_features=2, bias=True)
)",6,8,0.1,0.002,0.01,0.95,0.03365,0.96635,1.5699819865144586,2.270245,454049,145951,28,458.86290322580646,14.988410000000002,"TitForTat,TidemanAndChieruzzi,Nydegger,Grofman,Shubik"
325,"QNetwork(
  (flatten): Flatten(start_dim=1, end_dim=-1)
  (layer1): Linear(in_features=12, out_features=8, bias=True)
  (layer2): Linear(in_features=8, out_features=8, bias=True)
  (layer3): Linear(in_features=8, out_features=2, bias=True)
)",6,8,0.1,0.002,0.01,0.99,0.97426,0.02574,2.4506585830461978,2.931345,586269,13731,25,690.7064516129033,11.400351999999998,"TitForTat,TidemanAndChieruzzi,Nydegger,Grofman,Shubik"
326,"QNetwork(
  (flatten): Flatten(start_dim=1, end_dim=-1)
  (layer1): Linear(in_features=12, out_features=8, bias=True)
  (layer2): Linear(in_features=8, out_features=8, bias=True)
  (layer3): Linear(in_features=8, out_features=2, bias=True)
)",6,8,0.1,0.002,0.001,0.95,0.04757,0.95243,0.8394474344170997,2.286995,457399,142601,28,457.2564516129032,13.269793,"TitForTat,TidemanAndChieruzzi,Nydegger,Grofman,Shubik"
327,"QNetwork(
  (flatten): Flatten(start_dim=1, end_dim=-1)
  (layer1): Linear(in_features=12, out_features=8, bias=True)
  (layer2): Linear(in_features=8, out_features=8, bias=True)
  (layer3): Linear(in_features=8, out_features=2, bias=True)
)",6,8,0.1,0.002,0.001,0.99,0.186685,0.813315,1.0702048371129076,2.201855,440371,159629,25,589.1338709677419,12.004125,"TitForTat,TidemanAndChieruzzi,Nydegger,Grofman,Shubik"
328,"QNetwork(
  (flatten): Flatten(start_dim=1, end_dim=-1)
  (layer1): Linear(in_features=12, out_features=8, bias=True)
  (layer2): Linear(in_features=8, out_features=8, bias=True)
  (layer3): Linear(in_features=8, out_features=2, bias=True)
)",6,8,0.2,0.0,0.01,0.95,0.89999,0.10001,2.2570873670304428,2.681805,536361,63639,13,753.9306451612903,12.600475000000001,"TitForTat,TidemanAndChieruzzi,Nydegger,Grofman,Shubik"
329,"QNetwork(
  (flatten): Flatten(start_dim=1, end_dim=-1)
  (layer1): Linear(in_features=12, out_features=8, bias=True)
  (layer2): Linear(in_features=8, out_features=8, bias=True)
  (layer3): Linear(in_features=8, out_features=2, bias=True)
)",6,8,0.2,0.0,0.01,0.99,0.899395,0.100605,2.265705102183968,2.692045,538409,61591,24,736.6951612903226,12.202263,"TitForTat,TidemanAndChieruzzi,Nydegger,Grofman,Shubik"
330,"QNetwork(
  (flatten): Flatten(start_dim=1, end_dim=-1)
  (layer1): Linear(in_features=12, out_features=8, bias=True)
  (layer2): Linear(in_features=8, out_features=8, bias=True)
  (layer3): Linear(in_features=8, out_features=2, bias=True)
)",6,8,0.2,0.0,0.001,0.95,0.51954,0.48046,0.5922162918065758,2.40499,480998,119002,26,478.4451612903226,16.540114000000003,"TitForTat,TidemanAndChieruzzi,Nydegger,Grofman,Shubik"
331,"QNetwork(
  (flatten): Flatten(start_dim=1, end_dim=-1)
  (layer1): Linear(in_features=12, out_features=8, bias=True)
  (layer2): Linear(in_features=8, out_features=8, bias=True)
  (layer3): Linear(in_features=8, out_features=2, bias=True)
)",6,8,0.2,0.0,0.001,0.99,0.55456,0.44544,1.7270088705420983,2.19483,438966,161034,25,554.4629032258065,13.901330000000002,"TitForTat,TidemanAndChieruzzi,Nydegger,Grofman,Shubik"
332,"QNetwork(
  (flatten): Flatten(start_dim=1, end_dim=-1)
  (layer1): Linear(in_features=12, out_features=8, bias=True)
  (layer2): Linear(in_features=8, out_features=8, bias=True)
  (layer3): Linear(in_features=8, out_features=2, bias=True)
)",6,8,0.2,0.002,0.01,0.95,0.61876,0.38124,0.4586698254190909,2.74979,549958,50042,30,450.55645161290323,14.704184999999999,"TitForTat,TidemanAndChieruzzi,Nydegger,Grofman,Shubik"
333,"QNetwork(
  (flatten): Flatten(start_dim=1, end_dim=-1)
  (layer1): Linear(in_features=12, out_features=8, bias=True)
  (layer2): Linear(in_features=8, out_features=8, bias=True)
  (layer3): Linear(in_features=8, out_features=2, bias=True)
)",6,8,0.2,0.002,0.01,0.99,0.959705,0.040295,2.414135254952376,2.88366,576732,23268,19,733.308064516129,11.894007000000002,"TitForTat,TidemanAndChieruzzi,Nydegger,Grofman,Shubik"
334,"QNetwork(
  (flatten): Flatten(start_dim=1, end_dim=-1)
  (layer1): Linear(in_features=12, out_features=8, bias=True)
  (layer2): Linear(in_features=8, out_features=8, bias=True)
  (layer3): Linear(in_features=8, out_features=2, bias=True)
)",6,8,0.2,0.002,0.001,0.95,0.43664,0.56336,0.6691096862729051,2.43735,487470,112530,25,566.8177419354839,14.265155000000002,"TitForTat,TidemanAndChieruzzi,Nydegger,Grofman,Shubik"
335,"QNetwork(
  (flatten): Flatten(start_dim=1, end_dim=-1)
  (layer1): Linear(in_features=12, out_features=8, bias=True)
  (layer2): Linear(in_features=8, out_features=8, bias=True)
  (layer3): Linear(in_features=8, out_features=2, bias=True)
)",6,8,0.2,0.002,0.001,0.99,0.36817,0.63183,1.6095814591770226,2.09488,418976,181024,26,529.1354838709677,13.759667000000004,"TitForTat,TidemanAndChieruzzi,Nydegger,Grofman,Shubik"
336,"QNetwork(
  (flatten): Flatten(start_dim=1, end_dim=-1)
  (layer1): Linear(in_features=12, out_features=16, bias=True)
  (layer2): Linear(in_features=16, out_features=16, bias=True)
  (layer3): Linear(in_features=16, out_features=2, bias=True)
)",6,16,0.05,0.0,0.01,0.95,0.760665,0.239335,0.3106961774761797,2.81711,563422,36578,25,684.2193548387097,11.881909000000004,"TitForTat,TidemanAndChieruzzi,Nydegger,Grofman,Shubik"
337,"QNetwork(
  (flatten): Flatten(start_dim=1, end_dim=-1)
  (layer1): Linear(in_features=12, out_features=16, bias=True)
  (layer2): Linear(in_features=16, out_features=16, bias=True)
  (layer3): Linear(in_features=16, out_features=2, bias=True)
)",6,16,0.05,0.0,0.01,0.99,0.97492,0.02508,2.453809553212509,2.93524,587048,12952,16,763.5467741935483,12.68398,"TitForTat,TidemanAndChieruzzi,Nydegger,Grofman,Shubik"
338,"QNetwork(
  (flatten): Flatten(start_dim=1, end_dim=-1)
  (layer1): Linear(in_features=12, out_features=16, bias=True)
  (layer2): Linear(in_features=16, out_features=16, bias=True)
  (layer3): Linear(in_features=16, out_features=2, bias=True)
)",6,16,0.05,0.0,0.001,0.95,0.97474,0.02526,1.4106033911356015,2.927575,585515,14485,25,676.5419354838709,11.419362999999999,"TitForTat,TidemanAndChieruzzi,Nydegger,Grofman,Shubik"
339,"QNetwork(
  (flatten): Flatten(start_dim=1, end_dim=-1)
  (layer1): Linear(in_features=12, out_features=16, bias=True)
  (layer2): Linear(in_features=16, out_features=16, bias=True)
  (layer3): Linear(in_features=16, out_features=2, bias=True)
)",6,16,0.05,0.0,0.001,0.99,0.975195,0.024805,2.4085273120727013,2.936325,587265,12735,22,716.4677419354839,11.717969,"TitForTat,TidemanAndChieruzzi,Nydegger,Grofman,Shubik"
340,"QNetwork(
  (flatten): Flatten(start_dim=1, end_dim=-1)
  (layer1): Linear(in_features=12, out_features=16, bias=True)
  (layer2): Linear(in_features=16, out_features=16, bias=True)
  (layer3): Linear(in_features=16, out_features=2, bias=True)
)",6,16,0.05,0.002,0.01,0.95,0.485845,0.514155,0.45367493683928245,2.57714,515428,84572,26,461.18064516129033,15.086754,"TitForTat,TidemanAndChieruzzi,Nydegger,Grofman,Shubik"
341,"QNetwork(
  (flatten): Flatten(start_dim=1, end_dim=-1)
  (layer1): Linear(in_features=12, out_features=16, bias=True)
  (layer2): Linear(in_features=16, out_features=16, bias=True)
  (layer3): Linear(in_features=16, out_features=2, bias=True)
)",6,16,0.05,0.002,0.01,0.99,0.576725,0.423275,0.6388978999309687,2.6437,528740,71260,31,440.01290322580644,13.945494000000007,"TitForTat,TidemanAndChieruzzi,Nydegger,Grofman,Shubik"
342,"QNetwork(
  (flatten): Flatten(start_dim=1, end_dim=-1)
  (layer1): Linear(in_features=12, out_features=16, bias=True)
  (layer2): Linear(in_features=16, out_features=16, bias=True)
  (layer3): Linear(in_features=16, out_features=2, bias=True)
)",6,16,0.05,0.002,0.001,0.95,0.64976,0.35024,0.38856788554110666,2.782685,556537,43463,25,538.7564516129032,13.244089000000004,"TitForTat,TidemanAndChieruzzi,Nydegger,Grofman,Shubik"
343,"QNetwork(
  (flatten): Flatten(start_dim=1, end_dim=-1)
  (layer1): Linear(in_features=12, out_features=16, bias=True)
  (layer2): Linear(in_features=16, out_features=16, bias=True)
  (layer3): Linear(in_features=16, out_features=2, bias=True)
)",6,16,0.05,0.002,0.001,0.99,0.345375,0.654625,1.6309707972632699,2.121125,424225,175775,25,563.3161290322581,14.908017000000005,"TitForTat,TidemanAndChieruzzi,Nydegger,Grofman,Shubik"
344,"QNetwork(
  (flatten): Flatten(start_dim=1, end_dim=-1)
  (layer1): Linear(in_features=12, out_features=16, bias=True)
  (layer2): Linear(in_features=16, out_features=16, bias=True)
  (layer3): Linear(in_features=16, out_features=2, bias=True)
)",6,16,0.1,0.0,0.01,0.95,0.949895,0.050105,2.384605218666792,2.844685,568937,31063,23,736.8548387096774,12.05099,"TitForTat,TidemanAndChieruzzi,Nydegger,Grofman,Shubik"
345,"QNetwork(
  (flatten): Flatten(start_dim=1, end_dim=-1)
  (layer1): Linear(in_features=12, out_features=16, bias=True)
  (layer2): Linear(in_features=16, out_features=16, bias=True)
  (layer3): Linear(in_features=16, out_features=2, bias=True)
)",6,16,0.1,0.0,0.01,0.99,0.950615,0.049385,2.3884014790680848,2.84951,569902,30098,19,737.7161290322581,12.216168000000003,"TitForTat,TidemanAndChieruzzi,Nydegger,Grofman,Shubik"
346,"QNetwork(
  (flatten): Flatten(start_dim=1, end_dim=-1)
  (layer1): Linear(in_features=12, out_features=16, bias=True)
  (layer2): Linear(in_features=16, out_features=16, bias=True)
  (layer3): Linear(in_features=16, out_features=2, bias=True)
)",6,16,0.1,0.0,0.001,0.95,0.559015,0.440985,0.5069488211396281,2.709165,541833,58167,24,703.9677419354839,11.555256,"TitForTat,TidemanAndChieruzzi,Nydegger,Grofman,Shubik"
347,"QNetwork(
  (flatten): Flatten(start_dim=1, end_dim=-1)
  (layer1): Linear(in_features=12, out_features=16, bias=True)
  (layer2): Linear(in_features=16, out_features=16, bias=True)
  (layer3): Linear(in_features=16, out_features=2, bias=True)
)",6,16,0.1,0.0,0.001,0.99,0.513185,0.486815,1.6843140520374031,2.167715,433543,166457,25,559.6709677419354,14.440460999999999,"TitForTat,TidemanAndChieruzzi,Nydegger,Grofman,Shubik"
348,"QNetwork(
  (flatten): Flatten(start_dim=1, end_dim=-1)
  (layer1): Linear(in_features=12, out_features=16, bias=True)
  (layer2): Linear(in_features=16, out_features=16, bias=True)
  (layer3): Linear(in_features=16, out_features=2, bias=True)
)",6,16,0.1,0.002,0.01,0.95,0.97061,0.02939,2.4484555332850793,2.928715,585743,14257,8,780.5596774193548,12.696001000000003,"TitForTat,TidemanAndChieruzzi,Nydegger,Grofman,Shubik"
349,"QNetwork(
  (flatten): Flatten(start_dim=1, end_dim=-1)
  (layer1): Linear(in_features=12, out_features=16, bias=True)
  (layer2): Linear(in_features=16, out_features=16, bias=True)
  (layer3): Linear(in_features=16, out_features=2, bias=True)
)",6,16,0.1,0.002,0.01,0.99,0.9736,0.0264,2.4468036437785625,2.926395,585279,14721,24,691.3645161290323,11.440219999999998,"TitForTat,TidemanAndChieruzzi,Nydegger,Grofman,Shubik"
350,"QNetwork(
  (flatten): Flatten(start_dim=1, end_dim=-1)
  (layer1): Linear(in_features=12, out_features=16, bias=True)
  (layer2): Linear(in_features=16, out_features=16, bias=True)
  (layer3): Linear(in_features=16, out_features=2, bias=True)
)",6,16,0.1,0.002,0.001,0.95,0.546845,0.453155,0.47328809138406125,2.68933,537866,62134,24,693.6064516129032,12.744889999999998,"TitForTat,TidemanAndChieruzzi,Nydegger,Grofman,Shubik"
351,"QNetwork(
  (flatten): Flatten(start_dim=1, end_dim=-1)
  (layer1): Linear(in_features=12, out_features=16, bias=True)
  (layer2): Linear(in_features=16, out_features=16, bias=True)
  (layer3): Linear(in_features=16, out_features=2, bias=True)
)",6,16,0.1,0.002,0.001,0.99,0.276215,0.723785,1.1424238622711684,2.267245,453449,146551,30,444.0967741935484,14.390188999999998,"TitForTat,TidemanAndChieruzzi,Nydegger,Grofman,Shubik"
352,"QNetwork(
  (flatten): Flatten(start_dim=1, end_dim=-1)
  (layer1): Linear(in_features=12, out_features=16, bias=True)
  (layer2): Linear(in_features=16, out_features=16, bias=True)
  (layer3): Linear(in_features=16, out_features=2, bias=True)
…
  (layer1): Linear(in_features=20, out_features=8, bias=True)
  (layer2): Linear(in_features=8, out_features=8, bias=True)
  (layer3): Linear(in_features=8, out_features=2, bias=True)
)",10,8,0.05,0.0,0.001,0.99,0.532745,0.467255,0.7591553869652277,2.5024,500480,99520,25,674.1145161290323,11.153749000000003,"TitForTat,TidemanAndChieruzzi,Nydegger,Grofman,Shubik"
604,"QNetwork(
  (flatten): Flatten(start_dim=1, end_dim=-1)
  (layer1): Linear(in_features=20, out_features=8, bias=True)
  (layer2): Linear(in_features=8, out_features=8, bias=True)
  (layer3): Linear(in_features=8, out_features=2, bias=True)
)",10,8,0.05,0.002,0.01,0.95,0.958215,0.041785,2.4379293913477365,2.92316,584632,15368,25,712.6725806451612,12.303371999999996,"TitForTat,TidemanAndChieruzzi,Nydegger,Grofman,Shubik"
605,"QNetwork(
  (flatten): Flatten(start_dim=1, end_dim=-1)
  (layer1): Linear(in_features=20, out_features=8, bias=True)
  (layer2): Linear(in_features=8, out_features=8, bias=True)
  (layer3): Linear(in_features=8, out_features=2, bias=True)
)",10,8,0.05,0.002,0.01,0.99,0.5292,0.4708,0.6221514721548129,2.59444,518888,81112,28,442.44354838709677,14.993758000000003,"TitForTat,TidemanAndChieruzzi,Nydegger,Grofman,Shubik"
606,"QNetwork(
  (flatten): Flatten(start_dim=1, end_dim=-1)
  (layer1): Linear(in_features=20, out_features=8, bias=True)
  (layer2): Linear(in_features=8, out_features=8, bias=True)
  (layer3): Linear(in_features=8, out_features=2, bias=True)
)",10,8,0.05,0.002,0.001,0.95,0.523115,0.476885,0.5098838114447811,2.674745,534949,65051,23,730.6403225806451,11.937664999999999,"TitForTat,TidemanAndChieruzzi,Nydegger,Grofman,Shubik"
607,"QNetwork(
  (flatten): Flatten(start_dim=1, end_dim=-1)
  (layer1): Linear(in_features=20, out_features=8, bias=True)
  (layer2): Linear(in_features=8, out_features=8, bias=True)
  (layer3): Linear(in_features=8, out_features=2, bias=True)
)",10,8,0.05,0.002,0.001,0.99,0.69315,0.30685,0.5757774123822202,2.674205,534841,65159,27,467.0387096774194,14.844383999999996,"TitForTat,TidemanAndChieruzzi,Nydegger,Grofman,Shubik"
608,"QNetwork(
  (flatten): Flatten(start_dim=1, end_dim=-1)
  (layer1): Linear(in_features=20, out_features=8, bias=True)
  (layer2): Linear(in_features=8, out_features=8, bias=True)
  (layer3): Linear(in_features=8, out_features=2, bias=True)
)",10,8,0.1,0.0,0.01,0.95,0.949285,0.050715,2.385917295008898,2.846065,569213,30787,15,752.3870967741935,12.555205,"TitForTat,TidemanAndChieruzzi,Nydegger,Grofman,Shubik"
609,"QNetwork(
  (flatten): Flatten(start_dim=1, end_dim=-1)
  (layer1): Linear(in_features=20, out_features=8, bias=True)
  (layer2): Linear(in_features=8, out_features=8, bias=True)
  (layer3): Linear(in_features=8, out_features=2, bias=True)
)",10,8,0.1,0.0,0.01,0.99,0.488165,0.511835,0.79712837985897,2.435875,487175,112825,23,696.7387096774194,12.091688000000005,"TitForTat,TidemanAndChieruzzi,Nydegger,Grofman,Shubik"
610,"QNetwork(
  (flatten): Flatten(start_dim=1, end_dim=-1)
  (layer1): Linear(in_features=20, out_features=8, bias=True)
  (layer2): Linear(in_features=8, out_features=8, bias=True)
  (layer3): Linear(in_features=8, out_features=2, bias=True)
)",10,8,0.1,0.0,0.001,0.95,0.23799,0.76201,0.7317369007672095,2.305915,461183,138817,26,527.5709677419355,13.509217999999997,"TitForTat,TidemanAndChieruzzi,Nydegger,Grofman,Shubik"
611,"QNetwork(
  (flatten): Flatten(start_dim=1, end_dim=-1)
  (layer1): Linear(in_features=20, out_features=8, bias=True)
  (layer2): Linear(in_features=8, out_features=8, bias=True)
  (layer3): Linear(in_features=8, out_features=2, bias=True)
)",10,8,0.1,0.0,0.001,0.99,0.182005,0.817995,0.9003949559824714,2.16826,433652,166348,27,488.4516129032258,15.507786,"TitForTat,TidemanAndChieruzzi,Nydegger,Grofman,Shubik"
612,"QNetwork(
  (flatten): Flatten(start_dim=1, end_dim=-1)
  (layer1): Linear(in_features=20, out_features=8, bias=True)
  (layer2): Linear(in_features=8, out_features=8, bias=True)
  (layer3): Linear(in_features=8, out_features=2, bias=True)
)",10,8,0.1,0.002,0.01,0.95,0.899705,0.100295,2.372449519053004,2.87152,574304,25696,23,720.0290322580645,11.773641,"TitForTat,TidemanAndChieruzzi,Nydegger,Grofman,Shubik"
613,"QNetwork(
  (flatten): Flatten(start_dim=1, end_dim=-1)
  (layer1): Linear(in_features=20, out_features=8, bias=True)
  (layer2): Linear(in_features=8, out_features=8, bias=True)
  (layer3): Linear(in_features=8, out_features=2, bias=True)
)",10,8,0.1,0.002,0.01,0.99,0.494355,0.505645,0.6456407163091924,2.524865,504973,95027,23,704.1451612903226,12.338488000000005,"TitForTat,TidemanAndChieruzzi,Nydegger,Grofman,Shubik"
614,"QNetwork(
  (flatten): Flatten(start_dim=1, end_dim=-1)
  (layer1): Linear(in_features=20, out_features=8, bias=True)
  (layer2): Linear(in_features=8, out_features=8, bias=True)
  (layer3): Linear(in_features=8, out_features=2, bias=True)
)",10,8,0.1,0.002,0.001,0.95,0.973805,0.026195,2.4470175432908534,2.926815,585363,14637,25,697.6516129032258,11.632520000000001,"TitForTat,TidemanAndChieruzzi,Nydegger,Grofman,Shubik"
615,"QNetwork(
  (flatten): Flatten(start_dim=1, end_dim=-1)
  (layer1): Linear(in_features=20, out_features=8, bias=True)
  (layer2): Linear(in_features=8, out_features=8, bias=True)
  (layer3): Linear(in_features=8, out_features=2, bias=True)
)",10,8,0.1,0.002,0.001,0.99,0.97205,0.02795,2.387700247487441,2.921935,584387,15613,20,746.0112903225806,12.489865999999997,"TitForTat,TidemanAndChieruzzi,Nydegger,Grofman,Shubik"
616,"QNetwork(
  (flatten): Flatten(start_dim=1, end_dim=-1)
  (layer1): Linear(in_features=20, out_features=8, bias=True)
  (layer2): Linear(in_features=8, out_features=8, bias=True)
  (layer3): Linear(in_features=8, out_features=2, bias=True)
)",10,8,0.2,0.0,0.01,0.95,0.613245,0.386755,0.5022443161055271,2.517985,503597,96403,29,438.9193548387097,13.558064000000002,"TitForTat,TidemanAndChieruzzi,Nydegger,Grofman,Shubik"
617,"QNetwork(
  (flatten): Flatten(start_dim=1, end_dim=-1)
  (layer1): Linear(in_features=20, out_features=8, bias=True)
  (layer2): Linear(in_features=8, out_features=8, bias=True)
  (layer3): Linear(in_features=8, out_features=2, bias=True)
)",10,8,0.2,0.0,0.01,0.99,0.411345,0.588655,0.8052074838298338,2.317945,463589,136411,20,721.1225806451613,12.272424999999997,"TitForTat,TidemanAndChieruzzi,Nydegger,Grofman,Shubik"
618,"QNetwork(
  (flatten): Flatten(start_dim=1, end_dim=-1)
  (layer1): Linear(in_features=20, out_features=8, bias=True)
  (layer2): Linear(in_features=8, out_features=8, bias=True)
  (layer3): Linear(in_features=8, out_features=2, bias=True)
)",10,8,0.2,0.0,0.001,0.95,0.141905,0.858095,0.7424368804768147,2.249695,449939,150061,28,456.59193548387094,15.246812,"TitForTat,TidemanAndChieruzzi,Nydegger,Grofman,Shubik"
619,"QNetwork(
  (flatten): Flatten(start_dim=1, end_dim=-1)
  (layer1): Linear(in_features=20, out_features=8, bias=True)
  (layer2): Linear(in_features=8, out_features=8, bias=True)
  (layer3): Linear(in_features=8, out_features=2, bias=True)
)",10,8,0.2,0.0,0.001,0.99,0.271015,0.728985,0.9261323968921465,2.1804,436080,163920,27,481.8516129032258,13.49752,"TitForTat,TidemanAndChieruzzi,Nydegger,Grofman,Shubik"
620,"QNetwork(
  (flatten): Flatten(start_dim=1, end_dim=-1)
  (layer1): Linear(in_features=20, out_features=8, bias=True)
  (layer2): Linear(in_features=8, out_features=8, bias=True)
  (layer3): Linear(in_features=8, out_features=2, bias=True)
)",10,8,0.2,0.002,0.01,0.95,0.03876,0.96124,1.7696240909520193,2.30801,461602,138398,31,409.84032258064514,13.503888,"TitForTat,TidemanAndChieruzzi,Nydegger,Grofman,Shubik"
621,"QNetwork(
  (flatten): Flatten(start_dim=1, end_dim=-1)
  (layer1): Linear(in_features=20, out_features=8, bias=True)
  (layer2): Linear(in_features=8, out_features=8, bias=True)
  (layer3): Linear(in_features=8, out_features=2, bias=True)
)",10,8,0.2,0.002,0.01,0.99,0.38682,0.61318,0.6634525670033334,2.388645,477729,122271,30,426.44032258064516,13.995075999999997,"TitForTat,TidemanAndChieruzzi,Nydegger,Grofman,Shubik"
622,"QNetwork(
  (flatten): Flatten(start_dim=1, end_dim=-1)
  (layer1): Linear(in_features=20, out_features=8, bias=True)
  (layer2): Linear(in_features=8, out_features=8, bias=True)
  (layer3): Linear(in_features=8, out_features=2, bias=True)
)",10,8,0.2,0.002,0.001,0.95,0.05862,0.94138,0.6743629630772396,2.29718,459436,140564,27,473.14032258064515,14.207509999999996,"TitForTat,TidemanAndChieruzzi,Nydegger,Grofman,Shubik"
623,"QNetwork(
  (flatten): Flatten(start_dim=1, end_dim=-1)
  (layer1): Linear(in_features=20, out_features=8, bias=True)
  (layer2): Linear(in_features=8, out_features=8, bias=True)
  (layer3): Linear(in_features=8, out_features=2, bias=True)
)",10,8,0.2,0.002,0.001,0.99,0.344445,0.655555,1.3859235641821148,2.15061,430122,169878,25,696.3629032258065,11.306897999999997,"TitForTat,TidemanAndChieruzzi,Nydegger,Grofman,Shubik"
624,"QNetwork(
  (flatten): Flatten(start_dim=1, end_dim=-1)
  (layer1): Linear(in_features=20, out_features=16, bias=True)
  (layer2): Linear(in_features=16, out_features=16, bias=True)
  (layer3): Linear(in_features=16, out_features=2, bias=True)
)",10,16,0.05,0.0,0.01,0.95,0.767355,0.232645,0.3125844361269665,2.8351,567020,32980,25,651.1,10.827351999999998,"TitForTat,TidemanAndChieruzzi,Nydegger,Grofman,Shubik"
625,"QNetwork(
  (flatten): Flatten(start_dim=1, end_dim=-1)
  (layer1): Linear(in_features=20, out_features=16, bias=True)
  (layer2): Linear(in_features=16, out_features=16, bias=True)
  (layer3): Linear(in_features=16, out_features=2, bias=True)
)",10,16,0.05,0.0,0.01,0.99,0.97522,0.02478,2.451620138276752,2.932725,586545,13455,22,724.3,12.390984999999999,"TitForTat,TidemanAndChieruzzi,Nydegger,Grofman,Shubik"
626,"QNetwork(
  (flatten): Flatten(start_dim=1, end_dim=-1)
  (layer1): Linear(in_features=20, out_features=16, bias=True)
  (layer2): Linear(in_features=16, out_features=16, bias=True)
  (layer3): Linear(in_features=16, out_features=2, bias=True)
)",10,16,0.05,0.0,0.001,0.95,0.70266,0.29734,0.3152515204510394,2.838945,567789,32211,4,799.3241935483871,13.143987000000005,"TitForTat,TidemanAndChieruzzi,Nydegger,Grofman,Shubik"
627,"QNetwork(
  (flatten): Flatten(start_dim=1, end_dim=-1)
  (layer1): Linear(in_features=20, out_features=16, bias=True)
  (layer2): Linear(in_features=16, out_features=16, bias=True)
  (layer3): Linear(in_features=16, out_features=2, bias=True)
)",10,16,0.05,0.0,0.001,0.99,0.438555,0.561445,0.7657724559284687,2.508955,501791,98209,25,608.2209677419355,12.090831000000001,"TitForTat,TidemanAndChieruzzi,Nydegger,Grofman,Shubik"
628,"QNetwork(
  (flatten): Flatten(start_dim=1, end_dim=-1)
  (layer1): Linear(in_features=20, out_features=16, bias=True)
  (layer2): Linear(in_features=16, out_features=16, bias=True)
  (layer3): Linear(in_features=16, out_features=2, bias=True)
)",10,16,0.05,0.002,0.01,0.95,0.59004,0.40996,0.3618205134471255,2.70215,540430,59570,29,431.2532258064516,15.107978000000001,"TitForTat,TidemanAndChieruzzi,Nydegger,Grofman,Shubik"
629,"QNetwork(
  (flatten): Flatten(start_dim=1, end_dim=-1)
  (layer1): Linear(in_features=20, out_features=16, bias=True)
  (layer2): Linear(in_features=16, out_features=16, bias=True)
  (layer3): Linear(in_features=16, out_features=2, bias=True)
)",10,16,0.05,0.002,0.01,0.99,0.58394,0.41606,1.9376869810999258,2.425105,485021,114979,25,659.3887096774193,11.181064000000001,"TitForTat,TidemanAndChieruzzi,Nydegger,Grofman,Shubik"
630,"QNetwork(
  (flatten): Flatten(start_dim=1, end_dim=-1)
  (layer1): Linear(in_features=20, out_features=16, bias=True)
  (layer2): Linear(in_features=16, out_features=16, bias=True)
  (layer3): Linear(in_features=16, out_features=2, bias=True)
)",10,16,0.05,0.002,0.001,0.95,0.97501,0.02499,1.393149425413914,2.932595,586519,13481,14,752.0516129032258,12.602974,"TitForTat,TidemanAndChieruzzi,Nydegger,Grofman,Shubik"
631,"QNetwork(
  (flatten): Flatten(start_dim=1, end_dim=-1)
  (layer1): Linear(in_features=20, out_features=16, bias=True)
  (layer2): Linear(in_features=16, out_features=16, bias=True)
  (layer3): Linear(in_features=16, out_features=2, bias=True)
)",10,16,0.05,0.002,0.001,0.99,0.455535,0.544465,0.7681085279105905,2.49995,499990,100010,25,712.2241935483871,11.957639000000002,"TitForTat,TidemanAndChieruzzi,Nydegger,Grofman,Shubik"
632,"QNetwork(
  (flatten): Flatten(start_dim=1, end_dim=-1)
  (layer1): Linear(in_features=20, out_features=16, bias=True)
  (layer2): Linear(in_features=16, out_features=16, bias=True)
  (layer3): Linear(in_features=16, out_features=2, bias=True)
)",10,16,0.1,0.0,0.01,0.95,0.33005,0.66995,0.5351710580155227,2.34987,469974,130026,30,436.9548387096774,14.107344000000001,"TitForTat,TidemanAndChieruzzi,Nydegger,Grofman,Shubik"
633,"QNetwork(
  (flatten): Flatten(start_dim=1, end_dim=-1)
  (layer1): Linear(in_features=20, out_features=16, bias=True)
  (layer2): Linear(in_features=16, out_features=16, bias=True)
  (layer3): Linear(in_features=16, out_features=2, bias=True)
)",10,16,0.1,0.0,0.01,0.99,0.63545,0.36455,0.7310322812334044,2.54926,509852,90148,25,671.5983870967742,12.890630000000003,"TitForTat,TidemanAndChieruzzi,Nydegger,Grofman,Shubik"
634,"QNetwork(
  (flatten): Flatten(start_dim=1, end_dim=-1)
  (layer1): Linear(in_features=20, out_features=16, bias=True)
  (layer2): Linear(in_features=16, out_features=16, bias=True)
  (layer3): Linear(in_features=16, out_features=2, bias=True)
)",10,16,0.1,0.0,0.001,0.95,0.417345,0.582655,0.5421380440248917,2.68032,536064,63936,22,706.1596774193548,13.227808000000003,"TitForTat,TidemanAndChieruzzi,Nydegger,Grofman,Shubik"
635,"QNetwork(
  (flatten): Flatten(start_dim=1, end_dim=-1)
  (layer1): Linear(in_features=20, out_features=16, bias=True)
  (layer2): Linear(in_features=16, out_features=16, bias=True)
  (layer3): Linear(in_features=16, out_features=2, bias=True)
)",10,16,0.1,0.0,0.001,0.99,0.234245,0.765755,1.0925879580188427,2.188735,437747,162253,26,503.0806451612903,13.678348,"TitForTat,TidemanAndChieruzzi,Nydegger,Grofman,Shubik"
636,"QNetwork(
  (flatten): Flatten(start_dim=1, end_dim=-1)
  (layer1): Linear(in_features=20, out_features=16, bias=True)
  (layer2): Linear(in_features=16, out_features=16, bias=True)
  (layer3): Linear(in_features=16, out_features=2, bias=True)
)",10,16,0.1,0.002,0.01,0.95,0.778485,0.221515,0.2907263433354701,2.841845,568369,31631,25,573.3306451612904,12.712772,"TitForTat,TidemanAndChieruzzi,Nydegger,Grofman,Shubik"
637,"QNetwork(
  (flatten): Flatten(start_dim=1, end_dim=-1)
  (layer1): Linear(in_features=20, out_features=16, bias=True)
  (layer2): Linear(in_features=16, out_features=16, bias=True)
  (layer3): Linear(in_features=16, out_features=2, bias=True)
)",10,16,0.1,0.002,0.01,0.99,0.974005,0.025995,2.4015390487486843,2.92934,585868,14132,24,694.3822580645161,11.277998999999998,"TitForTat,TidemanAndChieruzzi,Nydegger,Grofman,Shubik"
638,"QNetwork(
  (flatten): Flatten(start_dim=1, end_dim=-1)
  (layer1): Linear(in_features=20, out_features=16, bias=True)
  (layer2): Linear(in_features=16, out_features=16, bias=True)
  (layer3): Linear(in_features=16, out_features=2, bias=True)
)",10,16,0.1,0.002,0.001,0.95,0.612315,0.387685,0.37075563403056044,2.835815,567163,32837,25,697.0516129032258,11.755806999999999,"TitForTat,TidemanAndChieruzzi,Nydegger,Grofman,Shubik"
639,"QNetwork(
  (flatten): Flatten(start_dim=1, end_dim=-1)
  (layer1): Linear(in_features=20, out_features=16, bias=True)
  (layer2): Linear(in_features=16, out_features=16, bias=True)
  (layer3): Linear(in_features=16, out_features=2, bias=True)
)",10,16,0.1,0.002,0.001,0.99,0.602915,0.397085,0.6952003960001631,2.632,526400,73600,12,772.4854838709678,12.675762999999995,"TitForTat,TidemanAndChieruzzi,Nydegger,Grofman,Shubik"
640,"QNetwork(
  (flatten): Flatten(start_dim=1, end_dim=-1)
  (layer1): Linear(in_features=20, out_features=16, bias=True)
  (layer2): Linear(in_features=16, out_features=16, bias=True)
  (layer3): Linear(in_features=16, out_features=2, bias=True)
)",10,16,0.2,0.0,0.01,0.95,0.89951,0.10049,2.2585663169419767,2.68387,536774,63226,25,638.8870967741935,11.385075,"TitForTat,TidemanAndChieruzzi,Nydegger,Grofman,Shubik"
641,"QNetwork(
  (flatten): Flatten(start_dim=1, end_dim=-1)
  (layer1): Linear(in_features=20, out_features=16, bias=True)
  (layer2): Linear(in_features=16, out_features=16, bias=True)
  (layer3): Linear(in_features=16, out_features=2, bias=True)
)",10,16,0.2,0.0,0.01,0.99,0.90067,0.09933,2.26886454763077,2.69586,539172,60828,25,678.441935483871,11.542263,"TitForTat,TidemanAndChieruzzi,Nydegger,Grofman,Shubik"
642,"QNetwork(
  (flatten): Flatten(start_dim=1, end_dim=-1)
  (layer1): Linear(in_features=20, out_features=16, bias=True)
  (layer2): Linear(in_features=16, out_features=16, bias=True)
  (layer3): Linear(in_features=16, out_features=2, bias=True)
)",10,16,0.2,0.0,0.001,0.95,0.51786,0.48214,1.686766323955992,2.1656,433120,166880,25,552.1870967741935,13.632986999999996,"TitForTat,TidemanAndChieruzzi,Nydegger,Grofman,Shubik"
643,"QNetwork(
  (flatten): Flatten(start_dim=1, end_dim=-1)
  (layer1): Linear(in_features=20, out_features=16, bias=True)
  (layer2): Linear(in_features=16, out_features=16, bias=True)
  (layer3): Linear(in_features=16, out_features=2, bias=True)
)",10,16,0.2,0.0,0.001,0.99,0.352875,0.647125,0.9679714315140922,2.231385,446277,153723,26,481.68548387096774,16.909679999999987,"TitForTat,TidemanAndChieruzzi,Nydegger,Grofman,Shubik"
644,"QNetwork(
  (flatten): Flatten(start_dim=1, end_dim=-1)
  (layer1): Linear(in_features=20, out_features=16, bias=True)
  (layer2): Linear(in_features=16, out_features=16, bias=True)
  (layer3): Linear(in_features=16, out_features=2, bias=True)
)",10,16,0.2,0.002,0.01,0.95,0.961115,0.038885,2.418250086452961,2.88871,577742,22258,23,729.2258064516129,12.228619,"TitForTat,TidemanAndChieruzzi,Nydegger,Grofman,Shubik"
645,"QNetwork(
  (flatten): Flatten(start_dim=1, end_dim=-1)
  (layer1): Linear(in_features=20, out_features=16, bias=True)
  (layer2): Linear(in_features=16, out_features=16, bias=True)
  (layer3): Linear(in_features=16, out_features=2, bias=True)
)",10,16,0.2,0.002,0.01,0.99,0.55412,0.44588,1.7342200322783188,2.2187,443740,156260,25,564.7290322580645,13.419780999999997,"TitForTat,TidemanAndChieruzzi,Nydegger,Grofman,Shubik"
646,"QNetwork(
  (flatten): Flatten(start_dim=1, end_dim=-1)
  (layer1): Linear(in_features=20, out_features=16, bias=True)
  (layer2): Linear(in_features=16, out_features=16, bias=True)
  (layer3): Linear(in_features=16, out_features=2, bias=True)
)",10,16,0.2,0.002,0.001,0.95,0.03904,0.96096,1.7315835208948667,2.306895,461379,138621,30,428.74032258064517,14.362967000000001,"TitForTat,TidemanAndChieruzzi,Nydegger,Grofman,Shubik"
647,"QNetwork(
  (flatten): Flatten(start_dim=1, end_dim=-1)
  (layer1): Linear(in_features=20, out_features=16, bias=True)
  (layer2): Linear(in_features=16, out_features=16, bias=True)
  (layer3): Linear(in_features=16, out_features=2, bias=True)
)",10,16,0.2,0.002,0.001,0.99,0.959325,0.040675,2.4100084914704554,2.878735,575747,24253,22,717.7016129032259,11.970847,"TitForTat,TidemanAndChieruzzi,Nydegger,Grofman,Shubik"
648,"QNetwork(
  (flatten): Flatten(start_dim=1, end_dim=-1)
  (layer1): Linear(in_features=20, out_features=32, bias=True)
  (layer2): Linear(in_features=32, out_features=32, bias=True)
  (layer3): Linear(in_features=32, out_features=2, bias=True)
)",10,32,0.05,0.0,0.01,0.95,0.9742,0.0258,2.452151588989496,2.93296,586592,13408,20,733.0467741935483,12.691312999999996,"TitForTat,TidemanAndChieruzzi,Nydegger,Grofman,Shubik"
649,"QNetwork(
  (flatten): Flatten(start_dim=1, end_dim=-1)
  (layer1): Linear(in_features=20, out_features=32, bias=True)
  (layer2): Linear(in_features=32, out_features=32, bias=True)
  (layer3): Linear(in_features=32, out_features=2, bias=True)
)",10,32,0.05,0.0,0.01,0.99,0.55633,0.44367,0.9344727834333406,2.63134,526268,73732,28,459.23064516129034,14.963858000000004,"TitForTat,TidemanAndChieruzzi,Nydegger,Grofman,Shubik"
650,"QNetwork(
  (flatten): Flatten(start_dim=1, end_dim=-1)
  (layer1): Linear(in_features=20, out_features=32, bias=True)
  (layer2): Linear(in_features=32, out_features=32, bias=True)
  (layer3): Linear(in_features=32, out_features=2, bias=True)
)",10,32,0.05,0.0,0.001,0.95,0.974695,0.025305,1.5208354669739874,2.93137,586274,13726,21,708.9661290322581,12.299792999999996,"TitForTat,TidemanAndChieruzzi,Nydegger,Grofman,Shubik"
651,"QNetwork(
  (flatten): Flatten(start_dim=1, end_dim=-1)
  (layer1): Linear(in_features=20, out_features=32, bias=True)
  (layer2): Linear(in_features=32, out_features=32, bias=True)
  (layer3): Linear(in_features=32, out_features=2, bias=True)
)",10,32,0.05,0.0,0.001,0.99,0.97417,0.02583,2.452830314023828,2.933905,586781,13219,25,660.5177419354839,11.378089,"TitForTat,TidemanAndChieruzzi,Nydegger,Grofman,Shubik"
652,"QNetwork(
  (flatten): Flatten(start_dim=1, end_dim=-1)
  (layer1): Linear(in_features=20, out_features=32, bias=True)
  (layer2): Linear(in_features=32, out_features=32, bias=True)
  (layer3): Linear(in_features=32, out_features=2, bias=True)
)",10,32,0.05,0.002,0.01,0.95,0.9363,0.0637,2.409251885836436,2.905115,581023,18977,19,734.6548387096774,12.581190000000001,"TitForTat,TidemanAndChieruzzi,Nydegger,Grofman,Shubik"
653,"QNetwork(
  (flatten): Flatten(start_dim=1, end_dim=-1)
  (layer1): Linear(in_features=20, out_features=32, bias=True)
  (layer2): Linear(in_features=32, out_features=32, bias=True)
  (layer3): Linear(in_features=32, out_features=2, bias=True)
)",10,32,0.05,0.002,0.01,0.99,0.97365,0.02635,2.4460162795399025,2.92604,585208,14792,24,691.3516129032258,11.762945999999998,"TitForTat,TidemanAndChieruzzi,Nydegger,Grofman,Shubik"
654,"QNetwork(
  (flatten): Flatten(start_dim=1, end_dim=-1)
  (layer1): Linear(in_features=20, out_features=32, bias=True)
  (layer2): Linear(in_features=32, out_features=32, bias=True)
  (layer3): Linear(in_features=32, out_features=2, bias=True)
)",10,32,0.05,0.002,0.001,0.95,0.3552,0.6448,0.7441015628515395,2.590695,518139,81861,24,717.5354838709677,12.413640000000001,"TitForTat,TidemanAndChieruzzi,Nydegger,Grofman,Shubik"
655,"QNetwork(
  (flatten): Flatten(start_dim=1, end_dim=-1)
  (layer1): Linear(in_features=20, out_features=32, bias=True)
  (layer2): Linear(in_features=32, out_features=32, bias=True)
  (layer3): Linear(in_features=32, out_features=2, bias=True)
)",10,32,0.05,0.002,0.001,0.99,0.269325,0.730675,1.4200523794456594,2.130085,426017,173983,30,434.0709677419355,13.052998999999998,"TitForTat,TidemanAndChieruzzi,Nydegger,Grofman,Shubik"
656,"QNetwork(
  (flatten): Flatten(start_dim=1, end_dim=-1)
  (layer1): Linear(in_features=20, out_features=32, bias=True)
  (layer2): Linear(in_features=32, out_features=32, bias=True)
  (layer3): Linear(in_features=32, out_features=2, bias=True)
)",10,32,0.1,0.0,0.01,0.95,0.656965,0.343035,0.5135177303157769,2.72862,545724,54276,24,719.6403225806451,12.562021999999999,"TitForTat,TidemanAndChieruzzi,Nydegger,Grofman,Shubik"
657,"QNetwork(
  (flatten): Flatten(start_dim=1, end_dim=-1)
  (layer1): Linear(in_features=20, out_features=32, bias=True)
  (layer2): Linear(in_features=32, out_features=32, bias=True)
  (layer3): Linear(in_features=32, out_features=2, bias=True)
)",10,32,0.1,0.0,0.01,0.99,0.94866,0.05134,2.3869692968030276,2.847035,569407,30593,14,743.1903225806452,12.832091000000002,"TitForTat,TidemanAndChieruzzi,Nydegger,Grofman,Shubik"
658,"QNetwork(
  (flatten): Flatten(start_dim=1, end_dim=-1)
  (layer1): Linear(in_features=20, out_features=32, bias=True)
  (layer2): Linear(in_features=32, out_features=32, bias=True)
  (layer3): Linear(in_features=32, out_features=2, bias=True)
)",10,32,0.1,0.0,0.001,0.95,0.524335,0.475665,0.4969129879143617,2.776765,555353,44647,25,699.2725806451613,11.959261000000001,"TitForTat,TidemanAndChieruzzi,Nydegger,Grofman,Shubik"
659,"QNetwork(
  (flatten): Flatten(start_dim=1, end_dim=-1)
  (layer1): Linear(in_features=20, out_features=32, bias=True)
  (layer2): Linear(in_features=32, out_features=32, bias=True)
  (layer3): Linear(in_features=32, out_features=2, bias=True)
)",10,32,0.1,0.0,0.001,0.99,0.41652,0.58348,1.5272117354858434,2.184945,436989,163011,25,595.758064516129,13.63892,"TitForTat,TidemanAndChieruzzi,Nydegger,Grofman,Shubik"
660,"QNetwork(
  (flatten): Flatten(start_dim=1, end_dim=-1)
  (layer1): Linear(in_features=20, out_features=32, bias=True)
  (layer2): Linear(in_features=32, out_features=32, bias=True)
  (layer3): Linear(in_features=32, out_features=2, bias=True)
)",10,32,0.1,0.002,0.01,0.95,0.973355,0.026645,2.447181054272242,2.926775,585355,14645,25,695.4693548387097,11.189773,"TitForTat,TidemanAndChieruzzi,Nydegger,Grofman,Shubik"
661,"QNetwork(
  (flatten): Flatten(start_dim=1, end_dim=-1)
  (layer1): Linear(in_features=20, out_features=32, bias=True)
  (layer2): Linear(in_features=32, out_features=32, bias=True)
  (layer3): Linear(in_features=32, out_features=2, bias=True)
)",10,32,0.1,0.002,0.01,0.99,0.972605,0.027395,2.4465945294417186,2.926275,585255,14745,25,700.008064516129,12.247164000000001,"TitForTat,TidemanAndChieruzzi,Nydegger,Grofman,Shubik"
662,"QNetwork(
  (flatten): Flatten(start_dim=1, end_dim=-1)
  (layer1): Linear(in_features=20, out_features=32, bias=True)
  (layer2): Linear(in_features=32, out_features=32, bias=True)
  (layer3): Linear(in_features=32, out_features=2, bias=True)
)",10,32,0.1,0.002,0.001,0.95,0.677545,0.322455,0.32748380535465377,2.886345,577269,22731,24,719.8870967741935,12.028114999999996,"TitForTat,TidemanAndChieruzzi,Nydegger,Grofman,Shubik"
663,"QNetwork(
  (flatten): Flatten(start_dim=1, end_dim=-1)
  (layer1): Linear(in_features=20, out_features=32, bias=True)
  (layer2): Linear(in_features=32, out_features=32, bias=True)
  (layer3): Linear(in_features=32, out_features=2, bias=True)
)",10,32,0.1,0.002,0.001,0.99,0.462035,0.537965,1.645337963518296,2.13746,427492,172508,26,501.0290322580645,14.153388999999997,"TitForTat,TidemanAndChieruzzi,Nydegger,Grofman,Shubik"
664,"QNetwork(
  (flatten): Flatten(start_dim=1, end_dim=-1)
  (layer1): Linear(in_features=20, out_features=32, bias=True)
  (layer2): Linear(in_features=32, out_features=32, bias=True)
  (layer3): Linear(in_features=32, out_features=2, bias=True)
)",10,32,0.2,0.0,0.01,0.95,0.89723,0.10277,2.259382513420601,2.68511,537022,62978,21,717.4403225806452,11.825842000000002,"TitForTat,TidemanAndChieruzzi,Nydegger,Grofman,Shubik"
665,"QNetwork(
  (flatten): Flatten(start_dim=1, end_dim=-1)
  (layer1): Linear(in_features=20, out_features=32, bias=True)
  (layer2): Linear(in_features=32, out_features=32, bias=True)
  (layer3): Linear(in_features=32, out_features=2, bias=True)
)",10,32,0.2,0.0,0.01,0.99,0.89997,0.10003,2.263626792975266,2.689285,537857,62143,25,673.075806451613,11.580153,"TitForTat,TidemanAndChieruzzi,Nydegger,Grofman,Shubik"
666,"QNetwork(
  (flatten): Flatten(start_dim=1, end_dim=-1)
  (layer1): Linear(in_features=20, out_features=32, bias=True)
  (layer2): Linear(in_features=32, out_features=32, bias=True)
  (layer3): Linear(in_features=32, out_features=2, bias=True)
)",10,32,0.2,0.0,0.001,0.95,0.52663,0.47337,1.6959788081428886,2.173805,434761,165239,25,554.0822580645162,13.97678,"TitForTat,TidemanAndChieruzzi,Nydegger,Grofman,Shubik"
667,"QNetwork(
  (flatten): Flatten(start_dim=1, end_dim=-1)
  (layer1): Linear(in_features=20, out_features=32, bias=True)
  (layer2): Linear(in_features=32, out_features=32, bias=True)
  (layer3): Linear(in_features=32, out_features=2, bias=True)
)",10,32,0.2,0.0,0.001,0.99,0.4778,0.5222,0.8284702410818622,2.413195,482639,117361,25,604.891935483871,12.410047000000004,"TitForTat,TidemanAndChieruzzi,Nydegger,Grofman,Shubik"
668,"QNetwork(
  (flatten): Flatten(start_dim=1, end_dim=-1)
  (layer1): Linear(in_features=20, out_features=32, bias=True)
  (layer2): Linear(in_features=32, out_features=32, bias=True)
  (layer3): Linear(in_features=32, out_features=2, bias=True)
)",10,32,0.2,0.002,0.01,0.95,0.96065,0.03935,2.412107933634278,2.88127,576254,23746,8,775.6596774193548,12.995154999999995,"TitForTat,TidemanAndChieruzzi,Nydegger,Grofman,Shubik"
669,"QNetwork(
  (flatten): Flatten(start_dim=1, end_dim=-1)
  (layer1): Linear(in_features=20, out_features=32, bias=True)
  (layer2): Linear(in_features=32, out_features=32, bias=True)
  (layer3): Linear(in_features=32, out_features=2, bias=True)
)",10,32,0.2,0.002,0.01,0.99,0.961335,0.038665,2.415473180296421,2.885415,577083,22917,22,716.3274193548388,12.033744999999993,"TitForTat,TidemanAndChieruzzi,Nydegger,Grofman,Shubik"
670,"QNetwork(
  (flatten): Flatten(start_dim=1, end_dim=-1)
  (layer1): Linear(in_features=20, out_features=32, bias=True)
  (layer2): Linear(in_features=32, out_features=32, bias=True)
  (layer3): Linear(in_features=32, out_features=2, bias=True)
)",10,32,0.2,0.002,0.001,0.95,0.489465,0.510535,0.44782529642878116,2.833985,566797,33203,25,708.4854838709678,12.291349,"TitForTat,TidemanAndChieruzzi,Nydegger,Grofman,Shubik"
671,"QNetwork(
  (flatten): Flatten(start_dim=1, end_dim=-1)
  (layer1): Linear(in_features=20, out_features=32, bias=True)
  (layer2): Linear(in_features=32, out_features=32, bias=True)
  (layer3): Linear(in_features=32, out_features=2, bias=True)
)",10,32,0.2,0.002,0.001,0.99,0.961395,0.038605,2.419743193438053,2.890445,578089,21911,25,664.2983870967741,11.149307000000007,"TitForTat,TidemanAndChieruzzi,Nydegger,Grofman,Shubik"
672,"QNetwork(
  (flatten): Flatten(start_dim=1, end_dim=-1)
  (layer1): Linear(in_features=20, out_features=64, bias=True)
  (layer2): Linear(in_features=64, out_features=64, bias=True)
  (layer3): Linear(in_features=64, out_features=2, bias=True)
)",10,64,0.05,0.0,0.01,0.95,0.974875,0.025125,2.451268924866915,2.932255,586451,13549,23,711.7,12.053239,"TitForTat,TidemanAndChieruzzi,Nydegger,Grofman,Shubik"
673,"QNetwork(
  (flatten): Flatten(start_dim=1, end_dim=-1)
  (layer1): Linear(in_features=20, out_features=64, bias=True)
  (layer2): Linear(in_features=64, out_features=64, bias=True)
  (layer3): Linear(in_features=64, out_features=2, bias=True)
)",10,64,0.05,0.0,0.01,0.99,0.57016,0.42984,0.6482922643497429,2.65229,530458,69542,19,741.7129032258065,12.541918999999998,"TitForTat,TidemanAndChieruzzi,Nydegger,Grofman,Shubik"
674,"QNetwork(
  (flatten): Flatten(start_dim=1, end_dim=-1)
  (layer1): Linear(in_features=20, out_features=64, bias=True)
  (layer2): Linear(in_features=64, out_features=64, bias=True)
  (layer3): Linear(in_features=64, out_features=2, bias=True)
)",10,64,0.05,0.0,0.001,0.95,0.629305,0.370695,0.3222596182140614,2.93661,587322,12678,26,479.2774193548387,14.669163000000003,"TitForTat,TidemanAndChieruzzi,Nydegger,Grofman,Shubik"
675,"QNetwork(
  (flatten): Flatten(start_dim=1, end_dim=-1)
  (layer1): Linear(in_features=20, out_features=64, bias=True)
  (layer2): Linear(in_features=64, out_features=64, bias=True)
  (layer3): Linear(in_features=64, out_features=2, bias=True)
)",10,64,0.05,0.0,0.001,0.99,0.97318,0.02682,2.379592861664703,2.92497,584994,15006,25,677.6870967741935,11.800267999999997,"TitForTat,TidemanAndChieruzzi,Nydegger,Grofman,Shubik"
676,"QNetwork(
  (flatten): Flatten(start_dim=1, end_dim=-1)
  (layer1): Linear(in_features=20, out_features=64, bias=True)
  (layer2): Linear(in_features=64, out_features=64, bias=True)
  (layer3): Linear(in_features=64, out_features=2, bias=True)
)",10,64,0.05,0.002,0.01,0.95,0.97456,0.02544,2.452404134401828,2.933545,586709,13291,25,707.05,14.006043999999997,"TitForTat,TidemanAndChieruzzi,Nydegger,Grofman,Shubik"
677,"QNetwork(
  (flatten): Flatten(start_dim=1, end_dim=-1)
  (layer1): Linear(in_features=20, out_features=64, bias=True)
  (layer2): Linear(in_features=64, out_features=64, bias=True)
  (layer3): Linear(in_features=64, out_features=2, bias=True)
)",10,64,0.05,0.002,0.01,0.99,0.974715,0.025285,2.4517238379261563,2.932675,586535,13465,24,703.8709677419355,13.252566999999999,"TitForTat,TidemanAndChieruzzi,Nydegger,Grofman,Shubik"
678,"QNetwork(
  (flatten): Flatten(start_dim=1, end_dim=-1)
  (layer1): Linear(in_features=20, out_features=64, bias=True)
  (layer2): Linear(in_features=64, out_features=64, bias=True)
  (layer3): Linear(in_features=64, out_features=2, bias=True)
)",10,64,0.05,0.002,0.001,0.95,0.73251,0.26749,0.2959337544217675,3.02065,604130,-4130,21,724.2983870967741,12.05551,"TitForTat,TidemanAndChieruzzi,Nydegger,Grofman,Shubik"
679,"QNetwork(
  (flatten): Flatten(start_dim=1, end_dim=-1)
  (layer1): Linear(in_features=20, out_features=64, bias=True)
  (layer2): Linear(in_features=64, out_features=64, bias=True)
  (layer3): Linear(in_features=64, out_features=2, bias=True)
)",10,64,0.05,0.002,0.001,0.99,0.497265,0.502735,0.7697338540645456,2.57639,515278,84722,27,477.43225806451613,15.180989000000004,"TitForTat,TidemanAndChieruzzi,Nydegger,Grofman,Shubik"
680,"QNetwork(
  (flatten): Flatten(start_dim=1, end_dim=-1)
  (layer1): Linear(in_features=20, out_features=64, bias=True)
  (layer2): Linear(in_features=64, out_features=64, bias=True)
  (layer3): Linear(in_features=64, out_features=2, bias=True)
)",10,64,0.1,0.0,0.01,0.95,0.94941,0.05059,2.3886658268628125,2.849425,569885,30115,17,717.0096774193548,12.996599,"TitForTat,TidemanAndChieruzzi,Nydegger,Grofman,Shubik"
681,"QNetwork(
  (flatten): Flatten(start_dim=1, end_dim=-1)
  (layer1): Linear(in_features=20, out_features=64, bias=True)
  (layer2): Linear(in_features=64, out_features=64, bias=True)
  (layer3): Linear(in_features=64, out_features=2, bias=True)
)",10,64,0.1,0.0,0.01,0.99,0.949965,0.050035,2.3878624827715753,2.848795,569759,30241,23,682.7709677419355,12.360372,"TitForTat,TidemanAndChieruzzi,Nydegger,Grofman,Shubik"
682,"QNetwork(
  (flatten): Flatten(start_dim=1, end_dim=-1)
  (layer1): Linear(in_features=20, out_features=64, bias=True)
  (layer2): Linear(in_features=64, out_features=64, bias=True)
  (layer3): Linear(in_features=64, out_features=2, bias=True)
)",10,64,0.1,0.0,0.001,0.95,0.51083,0.48917,0.5857514613333671,2.74095,548190,51810,23,727.1064516129032,12.070438999999999,"TitForTat,TidemanAndChieruzzi,Nydegger,Grofman,Shubik"
683,"QNetwork(
  (flatten): Flatten(start_dim=1, end_dim=-1)
  (layer1): Linear(in_features=20, out_features=64, bias=True)
  (layer2): Linear(in_features=64, out_features=64, bias=True)
  (layer3): Linear(in_features=64, out_features=2, bias=True)
)",10,64,0.1,0.0,0.001,0.99,0.48202,0.51798,0.8112614469095811,2.522235,504447,95553,25,695.1209677419355,11.561399999999999,"TitForTat,TidemanAndChieruzzi,Nydegger,Grofman,Shubik"
684,"QNetwork(
  (flatten): Flatten(start_dim=1, end_dim=-1)
  (layer1): Linear(in_features=20, out_features=64, bias=True)
  (layer2): Linear(in_features=64, out_features=64, bias=True)
  (layer3): Linear(in_features=64, out_features=2, bias=True)
)",10,64,0.1,0.002,0.01,0.95,0.963225,0.036775,2.44127065345605,2.922425,584485,15515,10,777.4322580645161,12.489941000000002,"TitForTat,TidemanAndChieruzzi,Nydegger,Grofman,Shubik"
685,"QNetwork(
  (flatten): Flatten(start_dim=1, end_dim=-1)
  (layer1): Linear(in_features=20, out_features=64, bias=True)
  (layer2): Linear(in_features=64, out_features=64, bias=True)
  (layer3): Linear(in_features=64, out_features=2, bias=True)
)",10,64,0.1,0.002,0.01,0.99,0.973235,0.026765,2.445561253741216,2.92479,584958,15042,25,676.1193548387097,11.785247000000004,"TitForTat,TidemanAndChieruzzi,Nydegger,Grofman,Shubik"
686,"QNetwork(
  (flatten): Flatten(start_dim=1, end_dim=-1)
  (layer1): Linear(in_features=20, out_features=64, bias=True)
  (layer2): Linear(in_features=64, out_features=64, bias=True)
  (layer3): Linear(in_features=64, out_features=2, bias=True)
)",10,64,0.1,0.002,0.001,0.95,0.20525,0.79475,1.1164951529581588,2.460015,492003,107997,25,693.8403225806452,12.619641999999999,"TitForTat,TidemanAndChieruzzi,Nydegger,Grofman,Shubik"
687,"QNetwork(
  (flatten): Flatten(start_dim=1, end_dim=-1)
  (layer1): Linear(in_features=20, out_features=64, bias=True)
  (layer2): Linear(in_features=64, out_features=64, bias=True)
  (layer3): Linear(in_features=64, out_features=2, bias=True)
)",10,64,0.1,0.002,0.001,0.99,0.50735,0.49265,1.1115104258612836,2.406235,481247,118753,25,627.0516129032258,10.979088000000003,"TitForTat,TidemanAndChieruzzi,Nydegger,Grofman,Shubik"
688,"QNetwork(
  (flatten): Flatten(start_dim=1, end_dim=-1)
  (layer1): Linear(in_features=20, out_features=64, bias=True)
  (layer2): Linear(in_features=64, out_features=64, bias=True)
  (layer3): Linear(in_features=64, out_features=2, bias=True)
)",10,64,0.2,0.0,0.01,0.95,0.900555,0.099445,2.2645926139223578,2.69069,538138,61862,20,750.6725806451612,12.646515999999998,"TitForTat,TidemanAndChieruzzi,Nydegger,Grofman,Shubik"
689,"QNetwork(
  (flatten): Flatten(start_dim=1, end_dim=-1)
  (layer1): Linear(in_features=20, out_features=64, bias=True)
  (layer2): Linear(in_features=64, out_features=64, bias=True)
  (layer3): Linear(in_features=64, out_features=2, bias=True)
)",10,64,0.2,0.0,0.01,0.99,0.90039,0.09961,2.263448741350468,2.68902,537804,62196,23,684.833870967742,11.339697000000003,"TitForTat,TidemanAndChieruzzi,Nydegger,Grofman,Shubik"
690,"QNetwork(
  (flatten): Flatten(start_dim=1, end_dim=-1)
  (layer1): Linear(in_features=20, out_features=64, bias=True)
  (layer2): Linear(in_features=64, out_features=64, bias=True)
  (layer3): Linear(in_features=64, out_features=2, bias=True)
)",10,64,0.2,0.0,0.001,0.95,0.501645,0.498355,0.5349871596679763,2.67614,535228,64772,25,551.35,14.447732000000004,"TitForTat,TidemanAndChieruzzi,Nydegger,Grofman,Shubik"
691,"QNetwork(
  (flatten): Flatten(start_dim=1, end_dim=-1)
  (layer1): Linear(in_features=20, out_features=64, bias=True)
  (layer2): Linear(in_features=64, out_features=64, bias=True)
  (layer3): Linear(in_features=64, out_features=2, bias=True)
)",10,64,0.2,0.0,0.001,0.99,0.644625,0.355375,1.8256498364794813,2.288285,457657,142343,25,642.9741935483871,16.884534,"TitForTat,TidemanAndChieruzzi,Nydegger,Grofman,Shubik"
692,"QNetwork(
  (flatten): Flatten(start_dim=1, end_dim=-1)
  (layer1): Linear(in_features=20, out_features=64, bias=True)
  (layer2): Linear(in_features=64, out_features=64, bias=True)
  (layer3): Linear(in_features=64, out_features=2, bias=True)
)",10,64,0.2,0.002,0.01,0.95,0.96081,0.03919,2.41282264860088,2.88217,576434,23566,25,654.0935483870968,11.598474000000001,"TitForTat,TidemanAndChieruzzi,Nydegger,Grofman,Shubik"
693,"QNetwork(
  (flatten): Flatten(start_dim=1, end_dim=-1)
  (layer1): Linear(in_features=20, out_features=64, bias=True)
  (layer2): Linear(in_features=64, out_features=64, bias=True)
  (layer3): Linear(in_features=64, out_features=2, bias=True)
)",10,64,0.2,0.002,0.01,0.99,0.961165,0.038835,2.415492617813349,2.885385,577077,22923,23,723.8661290322581,14.675627999999996,"TitForTat,TidemanAndChieruzzi,Nydegger,Grofman,Shubik"
694,"QNetwork(
  (flatten): Flatten(start_dim=1, end_dim=-1)
  (layer1): Linear(in_features=20, out_features=64, bias=True)
  (layer2): Linear(in_features=64, out_features=64, bias=True)
  (layer3): Linear(in_features=64, out_features=2, bias=True)
)",10,64,0.2,0.002,0.001,0.95,0.575155,0.424845,0.3901558496014446,2.906285,581257,18743,19,747.3129032258065,16.899821999999997,"TitForTat,TidemanAndChieruzzi,Nydegger,Grofman,Shubik"
695,"QNetwork(
  (flatten): Flatten(start_dim=1, end_dim=-1)
  (layer1): Linear(in_features=20, out_features=64, bias=True)
  (layer2): Linear(in_features=64, out_features=64, bias=True)
  (layer3): Linear(in_features=64, out_features=2, bias=True)
)",10,64,0.2,0.002,0.001,0.99,0.56463,0.43537,1.7399799888398615,2.228155,445631,154369,25,545.9967741935484,12.561060000000005,"TitForTat,TidemanAndChieruzzi,Nydegger,Grofman,Shubik"
696,"QNetwork(
  (flatten): Flatten(start_dim=1, end_dim=-1)
  (layer1): Linear(in_features=20, out_features=128, bias=True)
  (layer2): Linear(in_features=128, out_features=128, bias=True)
  (layer3): Linear(in_features=128, out_features=2, bias=True)
)",10,128,0.05,0.0,0.01,0.95,0.97489,0.02511,2.4528048288545827,2.93288,586576,13424,23,712.5467741935483,14.308217999999998,"TitForTat,TidemanAndChieruzzi,Nydegger,Grofman,Shubik"
697,"QNetwork(
  (flatten): Flatten(start_dim=1, end_dim=-1)
  (layer1): Linear(in_features=20, out_features=128, bias=True)
  (layer2): Linear(in_features=128, out_features=128, bias=True)
  (layer3): Linear(in_features=128, out_features=2, bias=True)
)",10,128,0.05,0.0,0.01,0.99,0.97533,0.02467,2.452734120160937,2.93416,586832,13168,17,734.8274193548388,13.832456999999998,"TitForTat,TidemanAndChieruzzi,Nydegger,Grofman,Shubik"
698,"QNetwork(
  (flatten): Flatten(start_dim=1, end_dim=-1)
  (layer1): Linear(in_features=20, out_features=128, bias=True)
  (layer2): Linear(in_features=128, out_features=128, bias=True)
  (layer3): Linear(in_features=128, out_features=2, bias=True)
)",10,128,0.05,0.0,0.001,0.95,0.97471,0.02529,2.4554993676292898,2.93729,587458,12542,25,707.1887096774194,12.529367999999998,"TitForTat,TidemanAndChieruzzi,Nydegger,Grofman,Shubik"
699,"QNetwork(
  (flatten): Flatten(start_dim=1, end_dim=-1)
  (layer1): Linear(in_features=20, out_features=128, bias=True)
  (layer2): Linear(in_features=128, out_features=128, bias=True)
  (layer3): Linear(in_features=128, out_features=2, bias=True)
)",10,128,0.05,0.0,0.001,0.99,0.974915,0.025085,2.4515567014420685,2.93258,586516,13484,22,737.0370967741935,13.300203999999997,"TitForTat,TidemanAndChieruzzi,Nydegger,Grofman,Shubik"
700,"QNetwork(
  (flatten): Flatten(start_dim=1, end_dim=-1)
  (layer1): Linear(in_features=20, out_features=128, bias=True)
  (layer2): Linear(in_features=128, out_features=128, bias=True)
  (layer3): Linear(in_features=128, out_features=2, bias=True)
)",10,128,0.05,0.002,0.01,0.95,0.95921,0.04079,2.439546258501897,2.92298,584596,15404,23,726.833870967742,12.876513,"TitForTat,TidemanAndChieruzzi,Nydegger,Grofman,Shubik"
701,"QNetwork(
  (flatten): Flatten(start_dim=1, end_dim=-1)
  (layer1): Linear(in_features=20, out_features=128, bias=True)
  (layer2): Linear(in_features=128, out_features=128, bias=True)
  (layer3): Linear(in_features=128, out_features=2, bias=True)
)",10,128,0.05,0.002,0.01,0.99,0.97527,0.02473,2.4549127814173697,2.936755,587351,12649,22,718.9322580645161,12.996090000000004,"TitForTat,TidemanAndChieruzzi,Nydegger,Grofman,Shubik"
702,"QNetwork(
  (flatten): Flatten(start_dim=1, end_dim=-1)
  (layer1): Linear(in_features=20, out_features=128, bias=True)
  (layer2): Linear(in_features=128, out_features=128, bias=True)
  (layer3): Linear(in_features=128, out_features=2, bias=True)
)",10,128,0.05,0.002,0.001,0.95,0.39358,0.60642,0.7986312643231958,2.680295,536059,63941,25,671.5016129032258,12.61353,"TitForTat,TidemanAndChieruzzi,Nydegger,Grofman,Shubik"
703,"QNetwork(
  (flatten): Flatten(start_dim=1, end_dim=-1)
  (layer1): Linear(in_features=20, out_features=128, bias=True)
  (layer2): Linear(in_features=128, out_features=128, bias=True)
  (layer3): Linear(in_features=128, out_features=2, bias=True)
)",10,128,0.05,0.002,0.001,0.99,0.97453,0.02547,2.450532924046394,2.93129,586258,13742,25,706.2967741935483,13.763654000000002,"TitForTat,TidemanAndChieruzzi,Nydegger,Grofman,Shubik"
704,"QNetwork(
  (flatten): Flatten(start_dim=1, end_dim=-1)
  (layer1): Linear(in_features=20, out_features=128, bias=True)
  (layer2): Linear(in_features=128, out_features=128, bias=True)
  (layer3): Linear(in_features=128, out_features=2, bias=True)
)",10,128,0.1,0.0,0.01,0.95,0.95027,0.04973,2.383503122061491,2.843545,568709,31291,25,715.9435483870968,12.766209999999997,"TitForTat,TidemanAndChieruzzi,Nydegger,Grofman,Shubik"
705,"QNetwork(
  (flatten): Flatten(start_dim=1, end_dim=-1)
  (layer1): Linear(in_features=20, out_features=128, bias=True)
  (layer2): Linear(in_features=128, out_features=128, bias=True)
  (layer3): Linear(in_features=128, out_features=2, bias=True)
)",10,128,0.1,0.0,0.01,0.99,0.950865,0.049135,2.3888469136422836,2.85001,570002,29998,25,709.516129032258,12.491993000000004,"TitForTat,TidemanAndChieruzzi,Nydegger,Grofman,Shubik"
706,"QNetwork(
  (flatten): Flatten(start_dim=1, end_dim=-1)
  (layer1): Linear(in_features=20, out_features=128, bias=True)
  (layer2): Linear(in_features=128, out_features=128, bias=True)
  (layer3): Linear(in_features=128, out_features=2, bias=True)
)",10,128,0.1,0.0,0.001,0.95,0.95032,0.04968,2.390573441215783,2.851935,570387,29613,24,714.8903225806451,13.004576,"TitForTat,TidemanAndChieruzzi,Nydegger,Grofman,Shubik"
707,"QNetwork(
  (flatten): Flatten(start_dim=1, end_dim=-1)
  (layer1): Linear(in_features=20, out_features=128, bias=True)
  (layer2): Linear(in_features=128, out_features=128, bias=True)
  (layer3): Linear(in_features=128, out_features=2, bias=True)
)",10,128,0.1,0.0,0.001,0.99,0.5881,0.4119,1.7653504446612898,2.249785,449957,150043,25,538.6870967741935,14.367487999999998,"TitForTat,TidemanAndChieruzzi,Nydegger,Grofman,Shubik"
708,"QNetwork(
  (flatten): Flatten(start_dim=1, end_dim=-1)
  (layer1): Linear(in_features=20, out_features=128, bias=True)
  (layer2): Linear(in_features=128, out_features=128, bias=True)
  (layer3): Linear(in_features=128, out_features=2, bias=True)
)",10,128,0.1,0.002,0.01,0.95,0.97373,0.02627,2.4482825143778326,2.92832,585664,14336,24,677.6467741935484,12.391791000000001,"TitForTat,TidemanAndChieruzzi,Nydegger,Grofman,Shubik"
709,"QNetwork(
  (flatten): Flatten(start_dim=1, end_dim=-1)
  (layer1): Linear(in_features=20, out_features=128, bias=True)
  (layer2): Linear(in_features=128, out_features=128, bias=True)
  (layer3): Linear(in_features=128, out_features=2, bias=True)
)",10,128,0.1,0.002,0.01,0.99,0.973605,0.026395,2.4480530360255393,2.927855,585571,14429,25,699.7983870967741,12.555591,"TitForTat,TidemanAndChieruzzi,Nydegger,Grofman,Shubik"
710,"QNetwork(
  (flatten): Flatten(start_dim=1, end_dim=-1)
  (layer1): Linear(in_features=20, out_features=128, bias=True)
  (layer2): Linear(in_features=128, out_features=128, bias=True)
  (layer3): Linear(in_features=128, out_features=2, bias=True)
)",10,128,0.1,0.002,0.001,0.95,0.71648,0.28352,0.29148718235189675,3.068125,613625,-13625,25,714.0403225806451,12.816293000000003,"TitForTat,TidemanAndChieruzzi,Nydegger,Grofman,Shubik"
711,"QNetwork(
  (flatten): Flatten(start_dim=1, end_dim=-1)
  (layer1): Linear(in_features=20, out_features=128, bias=True)
  (layer2): Linear(in_features=128, out_features=128, bias=True)
  (layer3): Linear(in_features=128, out_features=2, bias=True)
)",10,128,0.1,0.002,0.001,0.99,0.97263,0.02737,2.4478052002381205,2.927495,585499,14501,20,728.3,12.670653,"TitForTat,TidemanAndChieruzzi,Nydegger,Grofman,Shubik"
712,"QNetwork(
  (flatten): Flatten(start_dim=1, end_dim=-1)
  (layer1): Linear(in_features=20, out_features=128, bias=True)
  (layer2): Linear(in_features=128, out_features=128, bias=True)
  (layer3): Linear(in_features=128, out_features=2, bias=True)
)",10,128,0.2,0.0,0.01,0.95,0.89946,0.10054,2.2652962454368017,2.691445,538289,61711,25,680.0112903225806,11.752288,"TitForTat,TidemanAndChieruzzi,Nydegger,Grofman,Shubik"
713,"QNetwork(
  (flatten): Flatten(start_dim=1, end_dim=-1)
  (layer1): Linear(in_features=20, out_features=128, bias=True)
  (layer2): Linear(in_features=128, out_features=128, bias=True)
  (layer3): Linear(in_features=128, out_features=2, bias=True)
)",10,128,0.2,0.0,0.01,0.99,0.900065,0.099935,2.2609154170828907,2.68591,537182,62818,22,731.5387096774193,12.733241,"TitForTat,TidemanAndChieruzzi,Nydegger,Grofman,Shubik"
714,"QNetwork(
  (flatten): Flatten(start_dim=1, end_dim=-1)
  (layer1): Linear(in_features=20, out_features=128, bias=True)
  (layer2): Linear(in_features=128, out_features=128, bias=True)
  (layer3): Linear(in_features=128, out_features=2, bias=True)
)",10,128,0.2,0.0,0.001,0.95,0.55195,0.44805,1.7235928800093254,2.20233,440466,159534,26,483.4,12.849839000000001,"TitForTat,TidemanAndChieruzzi,Nydegger,Grofman,Shubik"
715,"QNetwork(
  (flatten): Flatten(start_dim=1, end_dim=-1)
  (layer1): Linear(in_features=20, out_features=128, bias=True)
  (layer2): Linear(in_features=128, out_features=128, bias=True)
  (layer3): Linear(in_features=128, out_features=2, bias=True)
)",10,128,0.2,0.0,0.001,0.99,0.899775,0.100225,2.2669939604673606,2.693235,538647,61353,23,711.1483870967742,12.773964999999997,"TitForTat,TidemanAndChieruzzi,Nydegger,Grofman,Shubik"
716,"QNetwork(
  (flatten): Flatten(start_dim=1, end_dim=-1)
  (layer1): Linear(in_features=20, out_features=128, bias=True)
  (layer2): Linear(in_features=128, out_features=128, bias=True)
  (layer3): Linear(in_features=128, out_features=2, bias=True)
)",10,128,0.2,0.002,0.01,0.95,0.96171,0.03829,2.4178461088252,2.888285,577657,22343,22,739.2225806451613,12.873614,"TitForTat,TidemanAndChieruzzi,Nydegger,Grofman,Shubik"
717,"QNetwork(
  (flatten): Flatten(start_dim=1, end_dim=-1)
  (layer1): Linear(in_features=20, out_features=128, bias=True)
  (layer2): Linear(in_features=128, out_features=128, bias=True)
  (layer3): Linear(in_features=128, out_features=2, bias=True)
)",10,128,0.2,0.002,0.01,0.99,0.960985,0.039015,2.4155748433541135,2.885265,577053,22947,23,731.6951612903226,12.941136999999994,"TitForTat,TidemanAndChieruzzi,Nydegger,Grofman,Shubik"
718,"QNetwork(
  (flatten): Flatten(start_dim=1, end_dim=-1)
  (layer1): Linear(in_features=20, out_features=128, bias=True)
  (layer2): Linear(in_features=128, out_features=128, bias=True)
  (layer3): Linear(in_features=128, out_features=2, bias=True)
)",10,128,0.2,0.002,0.001,0.95,0.038515,0.961485,1.6917037048175498,2.30898,461796,138204,27,463.0822580645161,15.973983999999998,"TitForTat,TidemanAndChieruzzi,Nydegger,Grofman,Shubik"
719,"QNetwork(
  (flatten): Flatten(start_dim=1, end_dim=-1)
  (layer1): Linear(in_features=20, out_features=128, bias=True)
  (layer2): Linear(in_features=128, out_features=128, bias=True)
  (layer3): Linear(in_features=128, out_features=2, bias=True)
)",10,128,0.2,0.002,0.001,0.99,0.960715,0.039285,2.4155614660540454,2.885305,577061,22939,24,707.2596774193548,12.629053999999996,"TitForTat,TidemanAndChieruzzi,Nydegger,Grofman,Shubik"
