,model,lookback,n1,epsilon,epsilon_decay,learning_rate,discount_rate,tr_cooperation_percentage,tr_defection_percentage,tr_final_loss,tr_mean_reward,tr_cumul_reward,tr_cumul_regret,tn_rank,tn_mean_score,tn_mean_time,agents
0,"QNetwork(
  (flatten): Flatten(start_dim=1, end_dim=-1)
  (layer1): Linear(in_features=2, out_features=4, bias=True)
  (layer2): Linear(in_features=4, out_features=4, bias=True)
  (layer3): Linear(in_features=4, out_features=2, bias=True)
)",1,4,0.05,0.0,0.001,0.95,0.6985,0.3015,0.1228677681587747,2.432275,97291,22709,25,691.941935483871,17.699745999999994,TitForTat
1,"QNetwork(
  (flatten): Flatten(start_dim=1, end_dim=-1)
  (layer1): Linear(in_features=2, out_features=4, bias=True)
  (layer2): Linear(in_features=4, out_features=4, bias=True)
  (layer3): Linear(in_features=4, out_features=2, bias=True)
)",1,4,0.05,0.0,0.01,0.95,0.89235,0.10765,0.16184397055103508,2.81945,112778,7222,24,713.5677419354839,18.715594000000007,TitForTat
2,"QNetwork(
  (flatten): Flatten(start_dim=1, end_dim=-1)
  (layer1): Linear(in_features=2, out_features=4, bias=True)
  (layer2): Linear(in_features=4, out_features=4, bias=True)
  (layer3): Linear(in_features=4, out_features=2, bias=True)
)",1,4,0.1,0.0,0.001,0.95,0.42295,0.57705,0.349972550422574,1.98675,79470,40530,25,645.6612903225806,16.599703000000005,TitForTat
3,"QNetwork(
  (flatten): Flatten(start_dim=1, end_dim=-1)
  (layer1): Linear(in_features=2, out_features=4, bias=True)
  (layer2): Linear(in_features=4, out_features=4, bias=True)
  (layer3): Linear(in_features=4, out_features=2, bias=True)
)",1,4,0.1,0.0,0.01,0.95,0.936075,0.063925,2.4644797713091138,2.934275,117371,2629,21,733.5354838709677,18.722157,TitForTat
4,"QNetwork(
  (flatten): Flatten(start_dim=1, end_dim=-1)
  (layer1): Linear(in_features=2, out_features=4, bias=True)
  (layer2): Linear(in_features=4, out_features=4, bias=True)
  (layer3): Linear(in_features=4, out_features=2, bias=True)
)",1,4,0.2,0.0,0.001,0.95,0.7035,0.2965,0.41986847505362096,2.5382,101528,18472,23,726.8822580645161,18.13951,TitForTat
5,"QNetwork(
  (flatten): Flatten(start_dim=1, end_dim=-1)
  (layer1): Linear(in_features=2, out_features=4, bias=True)
  (layer2): Linear(in_features=4, out_features=4, bias=True)
  (layer3): Linear(in_features=4, out_features=2, bias=True)
)",1,4,0.2,0.0,0.01,0.95,0.899325,0.100675,2.398369484128806,2.890525,115621,4379,25,683.0258064516129,16.957325,TitForTat
6,"QNetwork(
  (flatten): Flatten(start_dim=1, end_dim=-1)
  (layer1): Linear(in_features=2, out_features=8, bias=True)
  (layer2): Linear(in_features=8, out_features=8, bias=True)
  (layer3): Linear(in_features=8, out_features=2, bias=True)
)",1,8,0.05,0.0,0.001,0.95,0.947825,0.052175,0.202065322942062,2.924475,116979,3021,25,703.2290322580645,18.035213999999996,TitForTat
7,"QNetwork(
  (flatten): Flatten(start_dim=1, end_dim=-1)
  (layer1): Linear(in_features=2, out_features=8, bias=True)
  (layer2): Linear(in_features=8, out_features=8, bias=True)
  (layer3): Linear(in_features=8, out_features=2, bias=True)
)",1,8,0.05,0.0,0.01,0.95,0.973075,0.026925,2.4855,2.97255,118902,1098,24,715.3967741935484,19.076048999999998,TitForTat
8,"QNetwork(
  (flatten): Flatten(start_dim=1, end_dim=-1)
  (layer1): Linear(in_features=2, out_features=8, bias=True)
  (layer2): Linear(in_features=8, out_features=8, bias=True)
  (layer3): Linear(in_features=8, out_features=2, bias=True)
)",1,8,0.1,0.0,0.001,0.95,0.253675,0.746325,1.2631373352751136,1.761675,70467,49533,25,559.858064516129,18.767048000000006,TitForTat
9,"QNetwork(
  (flatten): Flatten(start_dim=1, end_dim=-1)
  (layer1): Linear(in_features=2, out_features=8, bias=True)
  (layer2): Linear(in_features=8, out_features=8, bias=True)
  (layer3): Linear(in_features=8, out_features=2, bias=True)
)",1,8,0.1,0.0,0.01,0.95,0.95155,0.04845,2.459378105165338,2.949675,117987,2013,25,695.1758064516129,17.908509000000002,TitForTat
10,"QNetwork(
  (flatten): Flatten(start_dim=1, end_dim=-1)
  (layer1): Linear(in_features=2, out_features=8, bias=True)
  (layer2): Linear(in_features=8, out_features=8, bias=True)
  (layer3): Linear(in_features=8, out_features=2, bias=True)
)",1,8,0.2,0.0,0.001,0.95,0.71515,0.28485,0.28690111893366094,2.6221,104884,15116,22,752.9225806451612,18.968875999999995,TitForTat
11,"QNetwork(
  (flatten): Flatten(start_dim=1, end_dim=-1)
  (layer1): Linear(in_features=2, out_features=8, bias=True)
  (layer2): Linear(in_features=8, out_features=8, bias=True)
  (layer3): Linear(in_features=8, out_features=2, bias=True)
)",1,8,0.2,0.0,0.01,0.95,0.89865,0.10135,2.43465,2.8893,115572,4428,14,764.3064516129032,18.790479999999995,TitForTat
12,"QNetwork(
  (flatten): Flatten(start_dim=1, end_dim=-1)
  (layer1): Linear(in_features=2, out_features=16, bias=True)
  (layer2): Linear(in_features=16, out_features=16, bias=True)
  (layer3): Linear(in_features=16, out_features=2, bias=True)
)",1,16,0.05,0.0,0.001,0.95,0.69195,0.30805,0.14383561356325164,2.527175,101087,18913,25,670.941935483871,17.101747000000003,TitForTat
13,"QNetwork(
  (flatten): Flatten(start_dim=1, end_dim=-1)
  (layer1): Linear(in_features=2, out_features=16, bias=True)
  (layer2): Linear(in_features=16, out_features=16, bias=True)
  (layer3): Linear(in_features=16, out_features=2, bias=True)
)",1,16,0.05,0.0,0.01,0.95,0.845225,0.154775,0.13908365723538005,2.7547,110188,9812,24,691.1596774193548,17.59279600000001,TitForTat
14,"QNetwork(
  (flatten): Flatten(start_dim=1, end_dim=-1)
  (layer1): Linear(in_features=2, out_features=16, bias=True)
  (layer2): Linear(in_features=16, out_features=16, bias=True)
  (layer3): Linear(in_features=16, out_features=2, bias=True)
)",1,16,0.1,0.0,0.001,0.95,0.74115,0.25885,0.1850209001279942,2.5919,103676,16324,20,742.9951612903226,19.723011,TitForTat
15,"QNetwork(
  (flatten): Flatten(start_dim=1, end_dim=-1)
  (layer1): Linear(in_features=2, out_features=16, bias=True)
  (layer2): Linear(in_features=16, out_features=16, bias=True)
  (layer3): Linear(in_features=16, out_features=2, bias=True)
)",1,16,0.1,0.0,0.01,0.95,0.8021,0.1979,0.2379561211954603,2.6768,107072,12928,24,693.2112903225807,17.690153999999996,TitForTat
16,"QNetwork(
  (flatten): Flatten(start_dim=1, end_dim=-1)
  (layer1): Linear(in_features=2, out_features=16, bias=True)
  (layer2): Linear(in_features=16, out_features=16, bias=True)
  (layer3): Linear(in_features=16, out_features=2, bias=True)
)",1,16,0.2,0.0,0.001,0.95,0.6269,0.3731,2.11472601684994,2.593925,103757,16243,25,639.1274193548387,17.910416,TitForTat
17,"QNetwork(
  (flatten): Flatten(start_dim=1, end_dim=-1)
  (layer1): Linear(in_features=2, out_features=16, bias=True)
  (layer2): Linear(in_features=16, out_features=16, bias=True)
  (layer3): Linear(in_features=16, out_features=2, bias=True)
)",1,16,0.2,0.0,0.01,0.95,0.900475,0.099525,2.436564567029476,2.892025,115681,4319,25,668.3387096774194,17.253685999999995,TitForTat
18,"QNetwork(
  (flatten): Flatten(start_dim=1, end_dim=-1)
  (layer1): Linear(in_features=2, out_features=32, bias=True)
  (layer2): Linear(in_features=32, out_features=32, bias=True)
  (layer3): Linear(in_features=32, out_features=2, bias=True)
)",1,32,0.05,0.0,0.001,0.95,0.771125,0.228875,0.06381441556011759,2.6758,107032,12968,23,728.9145161290322,18.485319000000004,TitForTat
19,"QNetwork(
  (flatten): Flatten(start_dim=1, end_dim=-1)
  (layer1): Linear(in_features=2, out_features=32, bias=True)
  (layer2): Linear(in_features=32, out_features=32, bias=True)
  (layer3): Linear(in_features=32, out_features=2, bias=True)
)",1,32,0.05,0.0,0.01,0.95,0.88165,0.11835,0.15746482287321018,2.80485,112194,7806,23,718.6564516129032,18.409170000000003,TitForTat
20,"QNetwork(
  (flatten): Flatten(start_dim=1, end_dim=-1)
  (layer1): Linear(in_features=2, out_features=32, bias=True)
  (layer2): Linear(in_features=32, out_features=32, bias=True)
  (layer3): Linear(in_features=32, out_features=2, bias=True)
)",1,32,0.1,0.0,0.001,0.95,0.624725,0.375275,2.0559518576172295,2.553275,102131,17869,25,575.8064516129032,18.686248,TitForTat
21,"QNetwork(
  (flatten): Flatten(start_dim=1, end_dim=-1)
  (layer1): Linear(in_features=2, out_features=32, bias=True)
  (layer2): Linear(in_features=32, out_features=32, bias=True)
  (layer3): Linear(in_features=32, out_features=2, bias=True)
)",1,32,0.1,0.0,0.01,0.95,0.949525,0.050475,2.4719969998679763,2.94805,117922,2078,23,727.2435483870968,18.991982999999998,TitForTat
22,"QNetwork(
  (flatten): Flatten(start_dim=1, end_dim=-1)
  (layer1): Linear(in_features=2, out_features=32, bias=True)
  (layer2): Linear(in_features=32, out_features=32, bias=True)
  (layer3): Linear(in_features=32, out_features=2, bias=True)
)",1,32,0.2,0.0,0.001,0.95,0.8196,0.1804,0.16489045965637125,2.762775,110511,9489,4,800.3516129032258,20.121457000000003,TitForTat
23,"QNetwork(
  (flatten): Flatten(start_dim=1, end_dim=-1)
  (layer1): Linear(in_features=2, out_features=32, bias=True)
  (layer2): Linear(in_features=32, out_features=32, bias=True)
  (layer3): Linear(in_features=32, out_features=2, bias=True)
)",1,32,0.2,0.0,0.01,0.95,0.79835,0.20165,1.295514458982068,2.741725,109669,10331,22,716.6629032258064,17.72488,TitForTat
24,"QNetwork(
  (flatten): Flatten(start_dim=1, end_dim=-1)
  (layer1): Linear(in_features=2, out_features=64, bias=True)
  (layer2): Linear(in_features=64, out_features=64, bias=True)
  (layer3): Linear(in_features=64, out_features=2, bias=True)
)",1,64,0.05,0.0,0.001,0.95,0.847275,0.152725,0.12142819661759222,2.798375,111935,8065,24,707.2354838709678,18.175925,TitForTat
25,"QNetwork(
  (flatten): Flatten(start_dim=1, end_dim=-1)
  (layer1): Linear(in_features=2, out_features=64, bias=True)
  (layer2): Linear(in_features=64, out_features=64, bias=True)
  (layer3): Linear(in_features=64, out_features=2, bias=True)
)",1,64,0.05,0.0,0.01,0.95,0.975775,0.024225,2.4872690020732873,2.97545,119018,982,25,693.9032258064516,17.90963399999999,TitForTat
26,"QNetwork(
  (flatten): Flatten(start_dim=1, end_dim=-1)
  (layer1): Linear(in_features=2, out_features=64, bias=True)
  (layer2): Linear(in_features=64, out_features=64, bias=True)
  (layer3): Linear(in_features=64, out_features=2, bias=True)
)",1,64,0.1,0.0,0.001,0.95,0.948575,0.051425,2.447867799189058,2.9467,117868,2132,25,612.4,16.403992,TitForTat
27,"QNetwork(
  (flatten): Flatten(start_dim=1, end_dim=-1)
  (layer1): Linear(in_features=2, out_features=64, bias=True)
  (layer2): Linear(in_features=64, out_features=64, bias=True)
  (layer3): Linear(in_features=64, out_features=2, bias=True)
)",1,64,0.1,0.0,0.01,0.95,0.862525,0.137475,1.0819656877935437,2.832525,113301,6699,24,716.3774193548387,18.109299999999998,TitForTat
28,"QNetwork(
  (flatten): Flatten(start_dim=1, end_dim=-1)
  (layer1): Linear(in_features=2, out_features=64, bias=True)
  (layer2): Linear(in_features=64, out_features=64, bias=True)
  (layer3): Linear(in_features=64, out_features=2, bias=True)
)",1,64,0.2,0.0,0.001,0.95,0.82355,0.17645,2.2965872418589135,2.807225,112289,7711,24,714.1370967741935,20.01568300000001,TitForTat
29,"QNetwork(
  (flatten): Flatten(start_dim=1, end_dim=-1)
  (layer1): Linear(in_features=2, out_features=64, bias=True)
  (layer2): Linear(in_features=64, out_features=64, bias=True)
  (layer3): Linear(in_features=64, out_features=2, bias=True)
)",1,64,0.2,0.0,0.01,0.95,0.901475,0.098525,2.43733331657052,2.8933,115732,4268,25,708.0403225806451,18.900489000000004,TitForTat
30,"QNetwork(
  (flatten): Flatten(start_dim=1, end_dim=-1)
  (layer1): Linear(in_features=2, out_features=128, bias=True)
  (layer2): Linear(in_features=128, out_features=128, bias=True)
  (layer3): Linear(in_features=128, out_features=2, bias=True)
)",1,128,0.05,0.0,0.001,0.95,0.921325,0.078675,0.14048911560866692,2.8835,115340,4660,25,683.8790322580645,18.770503000000005,TitForTat
31,"QNetwork(
  (flatten): Flatten(start_dim=1, end_dim=-1)
  (layer1): Linear(in_features=2, out_features=128, bias=True)
  (layer2): Linear(in_features=128, out_features=128, bias=True)
  (layer3): Linear(in_features=128, out_features=2, bias=True)
)",1,128,0.05,0.0,0.01,0.95,0.910025,0.089975,0.404363480325169,2.859525,114381,5619,23,723.2919354838709,19.667019999999994,TitForTat
32,"QNetwork(
  (flatten): Flatten(start_dim=1, end_dim=-1)
  (layer1): Linear(in_features=2, out_features=128, bias=True)
  (layer2): Linear(in_features=128, out_features=128, bias=True)
  (layer3): Linear(in_features=128, out_features=2, bias=True)
)",1,128,0.1,0.0,0.001,0.95,0.542575,0.457425,2.02830622974555,2.526575,101063,18937,25,568.7306451612903,19.834106999999996,TitForTat
33,"QNetwork(
  (flatten): Flatten(start_dim=1, end_dim=-1)
  (layer1): Linear(in_features=2, out_features=128, bias=True)
  (layer2): Linear(in_features=128, out_features=128, bias=True)
  (layer3): Linear(in_features=128, out_features=2, bias=True)
)",1,128,0.1,0.0,0.01,0.95,0.950375,0.049625,2.47491365942806,2.948975,117959,2041,25,683.4725806451613,18.402776000000003,TitForTat
34,"QNetwork(
  (flatten): Flatten(start_dim=1, end_dim=-1)
  (layer1): Linear(in_features=2, out_features=128, bias=True)
  (layer2): Linear(in_features=128, out_features=128, bias=True)
  (layer3): Linear(in_features=128, out_features=2, bias=True)
)",1,128,0.2,0.0,0.001,0.95,0.897725,0.102275,2.3938931723370502,2.88675,115470,4530,23,739.8854838709677,19.665389,TitForTat
35,"QNetwork(
  (flatten): Flatten(start_dim=1, end_dim=-1)
  (layer1): Linear(in_features=2, out_features=128, bias=True)
  (layer2): Linear(in_features=128, out_features=128, bias=True)
  (layer3): Linear(in_features=128, out_features=2, bias=True)
)",1,128,0.2,0.0,0.01,0.95,0.898075,0.101925,2.4345936344371175,2.888975,115559,4441,21,733.9612903225807,20.202009,TitForTat
36,"QNetwork(
  (flatten): Flatten(start_dim=1, end_dim=-1)
  (layer1): Linear(in_features=4, out_features=4, bias=True)
  (layer2): Linear(in_features=4, out_features=4, bias=True)
  (layer3): Linear(in_features=4, out_features=2, bias=True)
)",2,4,0.05,0.0,0.001,0.95,0.3095,0.6905,0.6737310475585069,1.729825,69193,50807,23,713.6548387096774,18.145948999999998,TitForTat
37,"QNetwork(
  (flatten): Flatten(start_dim=1, end_dim=-1)
  (layer1): Linear(in_features=4, out_features=4, bias=True)
  (layer2): Linear(in_features=4, out_features=4, bias=True)
  (layer3): Linear(in_features=4, out_features=2, bias=True)
)",2,4,0.05,0.0,0.01,0.95,0.714275,0.285725,0.15784740899581565,2.4786,99144,20856,10,774.8483870967742,19.257522,TitForTat
38,"QNetwork(
  (flatten): Flatten(start_dim=1, end_dim=-1)
  (layer1): Linear(in_features=4, out_features=4, bias=True)
  (layer2): Linear(in_features=4, out_features=4, bias=True)
  (layer3): Linear(in_features=4, out_features=2, bias=True)
)",2,4,0.1,0.0,0.001,0.95,0.9471,0.0529,2.4691324212739225,2.94455,117782,2218,23,692.333870967742,17.430915000000002,TitForTat
39,"QNetwork(
  (flatten): Flatten(start_dim=1, end_dim=-1)
  (layer1): Linear(in_features=4, out_features=4, bias=True)
  (layer2): Linear(in_features=4, out_features=4, bias=True)
  (layer3): Linear(in_features=4, out_features=2, bias=True)
)",2,4,0.1,0.0,0.01,0.95,0.774225,0.225775,0.2526834218959657,2.613925,104557,15443,24,698.9822580645161,17.846207000000003,TitForTat
40,"QNetwork(
  (flatten): Flatten(start_dim=1, end_dim=-1)
  (layer1): Linear(in_features=4, out_features=4, bias=True)
  (layer2): Linear(in_features=4, out_features=4, bias=True)
  (layer3): Linear(in_features=4, out_features=2, bias=True)
)",2,4,0.2,0.0,0.001,0.95,0.644225,0.355775,0.607267266704826,2.49635,99854,20146,22,717.3274193548388,17.659485,TitForTat
41,"QNetwork(
  (flatten): Flatten(start_dim=1, end_dim=-1)
  (layer1): Linear(in_features=4, out_features=4, bias=True)
  (layer2): Linear(in_features=4, out_features=4, bias=True)
  (layer3): Linear(in_features=4, out_features=2, bias=True)
)",2,4,0.2,0.0,0.01,0.95,0.68245,0.31755,0.2621366409092891,2.486275,99451,20549,24,709.8048387096774,18.637036,TitForTat
42,"QNetwork(
  (flatten): Flatten(start_dim=1, end_dim=-1)
  (layer1): Linear(in_features=4, out_features=8, bias=True)
  (layer2): Linear(in_features=8, out_features=8, bias=True)
  (layer3): Linear(in_features=8, out_features=2, bias=True)
)",2,8,0.05,0.0,0.001,0.95,0.40715,0.59285,0.09535033981291516,2.0246,80984,39016,25,682.5209677419355,17.430427,TitForTat
43,"QNetwork(
  (flatten): Flatten(start_dim=1, end_dim=-1)
  (layer1): Linear(in_features=4, out_features=8, bias=True)
  (layer2): Linear(in_features=8, out_features=8, bias=True)
  (layer3): Linear(in_features=8, out_features=2, bias=True)
)",2,8,0.05,0.0,0.01,0.95,0.786975,0.213025,0.16469720022486978,2.61655,104662,15338,25,731.6306451612903,19.012151999999997,TitForTat
44,"QNetwork(
  (flatten): Flatten(start_dim=1, end_dim=-1)
  (layer1): Linear(in_features=4, out_features=8, bias=True)
  (layer2): Linear(in_features=8, out_features=8, bias=True)
  (layer3): Linear(in_features=8, out_features=2, bias=True)
)",2,8,0.1,0.0,0.001,0.95,0.5646,0.4354,0.26375804279233817,2.3145,92580,27420,24,679.3370967741936,17.930865999999995,TitForTat
45,"QNetwork(
  (flatten): Flatten(start_dim=1, end_dim=-1)
  (layer1): Linear(in_features=4, out_features=8, bias=True)
  (layer2): Linear(in_features=8, out_features=8, bias=True)
  (layer3): Linear(in_features=8, out_features=2, bias=True)
)",2,8,0.1,0.0,0.01,0.95,0.791825,0.208175,0.32721085626664637,2.645675,105827,14173,30,445.68064516129033,21.220654000000003,TitForTat
46,"QNetwork(
  (flatten): Flatten(start_dim=1, end_dim=-1)
  (layer1): Linear(in_features=4, out_features=8, bias=True)
  (layer2): Linear(in_features=8, out_features=8, bias=True)
  (layer3): Linear(in_features=8, out_features=2, bias=True)
)",2,8,0.2,0.0,0.001,0.95,0.474825,0.525175,1.9030831816136837,2.377975,95119,24881,25,591.8451612903226,18.637858999999995,TitForTat
47,"QNetwork(
  (flatten): Flatten(start_dim=1, end_dim=-1)
  (layer1): Linear(in_features=4, out_features=8, bias=True)
  (layer2): Linear(in_features=8, out_features=8, bias=True)
  (layer3): Linear(in_features=8, out_features=2, bias=True)
)",2,8,0.2,0.0,0.01,0.95,0.6373,0.3627,2.1135553372646814,2.5967,103868,16132,25,542.1870967741935,18.537982,TitForTat
48,"QNetwork(
  (flatten): Flatten(start_dim=1, end_dim=-1)
  (layer1): Linear(in_features=4, out_features=16, bias=True)
  (layer2): Linear(in_features=16, out_features=16, bias=True)
  (layer3): Linear(in_features=16, out_features=2, bias=True)
)",2,16,0.05,0.0,0.001,0.95,0.02515,0.97485,0.4646230679319331,1.093675,43747,76253,31,399.73548387096776,18.621544,TitForTat
49,"QNetwork(
  (flatten): Flatten(start_dim=1, end_dim=-1)
  (layer1): Linear(in_features=4, out_features=16, bias=True)
  (layer2): Linear(in_features=16, out_features=16, bias=True)
  (layer3): Linear(in_features=16, out_features=2, bias=True)
)",2,16,0.05,0.0,0.01,0.95,0.8665,0.1335,0.1588408504772936,2.779125,111165,8835,24,701.8887096774193,18.077398999999996,TitForTat
50,"QNetwork(
  (flatten): Flatten(start_dim=1, end_dim=-1)
  (layer1): Linear(in_features=4, out_features=16, bias=True)
  (layer2): Linear(in_features=16, out_features=16, bias=True)
  (layer3): Linear(in_features=16, out_features=2, bias=True)
)",2,16,0.1,0.0,0.001,0.95,0.95105,0.04895,2.47349819984315,2.950225,118009,1991,24,706.8112903225806,18.104582999999998,TitForTat
51,"QNetwork(
  (flatten): Flatten(start_dim=1, end_dim=-1)
  (layer1): Linear(in_features=4, out_features=16, bias=True)
  (layer2): Linear(in_features=16, out_features=16, bias=True)
  (layer3): Linear(in_features=16, out_features=2, bias=True)
)",2,16,0.1,0.0,0.01,0.95,0.55,0.45,0.447746272638129,2.16695,86678,33322,25,686.7516129032258,18.713954999999995,TitForTat
52,"QNetwork(
  (flatten): Flatten(start_dim=1, end_dim=-1)
  (layer1): Linear(in_features=4, out_features=16, bias=True)
  (layer2): Linear(in_features=16, out_features=16, bias=True)
  (layer3): Linear(in_features=16, out_features=2, bias=True)
)",2,16,0.2,0.0,0.001,0.95,0.59315,0.40685,2.0705478165763083,2.54985,101994,18006,25,568.4951612903226,19.482449000000006,TitForTat
53,"QNetwork(
  (flatten): Flatten(start_dim=1, end_dim=-1)
  (layer1): Linear(in_features=4, out_features=16, bias=True)
  (layer2): Linear(in_features=16, out_features=16, bias=True)
  (layer3): Linear(in_features=16, out_features=2, bias=True)
)",2,16,0.2,0.0,0.01,0.95,0.71455,0.28545,0.2544000817418577,2.546325,101853,18147,11,768.1516129032258,20.281764,TitForTat
54,"QNetwork(
  (flatten): Flatten(start_dim=1, end_dim=-1)
  (layer1): Linear(in_features=4, out_features=32, bias=True)
  (layer2): Linear(in_features=32, out_features=32, bias=True)
  (layer3): Linear(in_features=32, out_features=2, bias=True)
)",2,32,0.05,0.0,0.001,0.95,0.943625,0.056375,0.1638313714046466,2.920775,116831,3169,12,754.4370967741935,19.742205000000002,TitForTat
55,"QNetwork(
  (flatten): Flatten(start_dim=1, end_dim=-1)
  (layer1): Linear(in_features=4, out_features=32, bias=True)
  (layer2): Linear(in_features=32, out_features=32, bias=True)
  (layer3): Linear(in_features=32, out_features=2, bias=True)
)",2,32,0.05,0.0,0.01,0.95,0.647375,0.352625,1.3499225667724049,2.62935,105174,14826,16,745.9306451612903,21.760233000000007,TitForTat
56,"QNetwork(
  (flatten): Flatten(start_dim=1, end_dim=-1)
  (layer1): Linear(in_features=4, out_features=32, bias=True)
  (layer2): Linear(in_features=32, out_features=32, bias=True)
  (layer3): Linear(in_features=32, out_features=2, bias=True)
)",2,32,0.1,0.0,0.001,0.95,0.690025,0.309975,0.14465213425791507,2.567625,102705,17295,18,737.5258064516129,21.560888999999992,TitForTat
57,"QNetwork(
  (flatten): Flatten(start_dim=1, end_dim=-1)
  (layer1): Linear(in_features=4, out_features=32, bias=True)
  (layer2): Linear(in_features=32, out_features=32, bias=True)
  (layer3): Linear(in_features=32, out_features=2, bias=True)
)",2,32,0.1,0.0,0.01,0.95,0.78005,0.21995,0.2316680212971029,2.632,105280,14720,28,454.69032258064516,22.495815,TitForTat
58,"QNetwork(
  (flatten): Flatten(start_dim=1, end_dim=-1)
  (layer1): Linear(in_features=4, out_features=32, bias=True)
  (layer2): Linear(in_features=32, out_features=32, bias=True)
  (layer3): Linear(in_features=32, out_features=2, bias=True)
)",2,32,0.2,0.0,0.001,0.95,0.723525,0.276475,0.19260315847985876,2.6253,105012,14988,12,760.5935483870968,20.370527999999997,TitForTat
59,"QNetwork(
  (flatten): Flatten(start_dim=1, end_dim=-1)
  (layer1): Linear(in_features=4, out_features=32, bias=True)
  (layer2): Linear(in_features=32, out_features=32, bias=True)
  (layer3): Linear(in_features=32, out_features=2, bias=True)
)",2,32,0.2,0.0,0.01,0.95,0.901525,0.098475,2.435416333518032,2.8918,115672,4328,6,801.3177419354839,20.780431,TitForTat
60,"QNetwork(
  (flatten): Flatten(start_dim=1, end_dim=-1)
  (layer1): Linear(in_features=4, out_features=64, bias=True)
  (layer2): Linear(in_features=64, out_features=64, bias=True)
  (layer3): Linear(in_features=64, out_features=2, bias=True)
)",2,64,0.05,0.0,0.001,0.95,0.125475,0.874525,0.47894480746954704,1.37875,55150,64850,25,535.2145161290323,21.428697,TitForTat
61,"QNetwork(
  (flatten): Flatten(start_dim=1, end_dim=-1)
  (layer1): Linear(in_features=4, out_features=64, bias=True)
  (layer2): Linear(in_features=64, out_features=64, bias=True)
  (layer3): Linear(in_features=64, out_features=2, bias=True)
)",2,64,0.05,0.0,0.01,0.95,0.8923,0.1077,0.2219275063091438,2.826025,113041,6959,25,671.1790322580645,17.820575,TitForTat
62,"QNetwork(
  (flatten): Flatten(start_dim=1, end_dim=-1)
  (layer1): Linear(in_features=4, out_features=64, bias=True)
  (layer2): Linear(in_features=64, out_features=64, bias=True)
  (layer3): Linear(in_features=64, out_features=2, bias=True)
)",2,64,0.1,0.0,0.001,0.95,0.949975,0.050025,2.4718548105596563,2.948175,117927,2073,25,697.4177419354838,17.966845000000006,TitForTat
63,"QNetwork(
  (flatten): Flatten(start_dim=1, end_dim=-1)
  (layer1): Linear(in_features=4, out_features=64, bias=True)
  (layer2): Linear(in_features=64, out_features=64, bias=True)
  (layer3): Linear(in_features=64, out_features=2, bias=True)
)",2,64,0.1,0.0,0.01,0.95,0.8066,0.1934,0.3006770474211784,2.697525,107901,12099,21,719.2370967741936,18.865602000000006,TitForTat
64,"QNetwork(
  (flatten): Flatten(start_dim=1, end_dim=-1)
  (layer1): Linear(in_features=4, out_features=64, bias=True)
  (layer2): Linear(in_features=64, out_features=64, bias=True)
  (layer3): Linear(in_features=64, out_features=2, bias=True)
)",2,64,0.2,0.0,0.001,0.95,0.86265,0.13735,2.3223238856203623,2.829025,113161,6839,25,534.4806451612903,24.749815,TitForTat
65,"QNetwork(
  (flatten): Flatten(start_dim=1, end_dim=-1)
  (layer1): Linear(in_features=4, out_features=64, bias=True)
  (layer2): Linear(in_features=64, out_features=64, bias=True)
  (layer3): Linear(in_features=64, out_features=2, bias=True)
)",2,64,0.2,0.0,0.01,0.95,0.855925,0.144075,2.3851751849099063,2.843225,113729,6271,6,786.5790322580646,19.962641999999995,TitForTat
66,"QNetwork(
  (flatten): Flatten(start_dim=1, end_dim=-1)
  (layer1): Linear(in_features=4, out_features=128, bias=True)
  (layer2): Linear(in_features=128, out_features=128, bias=True)
  (layer3): Linear(in_features=128, out_features=2, bias=True)
)",2,128,0.05,0.0,0.001,0.95,0.91235,0.08765,0.2153071071040029,2.853025,114121,5879,23,721.3483870967742,19.610544999999995,TitForTat
67,"QNetwork(
  (flatten): Flatten(start_dim=1, end_dim=-1)
  (layer1): Linear(in_features=4, out_features=128, bias=True)
  (layer2): Linear(in_features=128, out_features=128, bias=True)
  (layer3): Linear(in_features=128, out_features=2, bias=True)
)",2,128,0.05,0.0,0.01,0.95,0.970325,0.029675,2.4799534576764275,2.9658,118632,1368,23,710.424193548387,19.861168,TitForTat
68,"QNetwork(
  (flatten): Flatten(start_dim=1, end_dim=-1)
  (layer1): Linear(in_features=4, out_features=128, bias=True)
  (layer2): Linear(in_features=128, out_features=128, bias=True)
  (layer3): Linear(in_features=128, out_features=2, bias=True)
)",2,128,0.1,0.0,0.001,0.95,0.66425,0.33575,0.9118546745686779,2.56955,102782,17218,18,746.4112903225806,20.626759,TitForTat
69,"QNetwork(
  (flatten): Flatten(start_dim=1, end_dim=-1)
  (layer1): Linear(in_features=4, out_features=128, bias=True)
  (layer2): Linear(in_features=128, out_features=128, bias=True)
  (layer3): Linear(in_features=128, out_features=2, bias=True)
)",2,128,0.1,0.0,0.01,0.95,0.949525,0.050475,2.471628227028251,2.94775,117910,2090,11,755.1758064516129,20.837184999999995,TitForTat
70,"QNetwork(
  (flatten): Flatten(start_dim=1, end_dim=-1)
  (layer1): Linear(in_features=4, out_features=128, bias=True)
  (layer2): Linear(in_features=128, out_features=128, bias=True)
  (layer3): Linear(in_features=128, out_features=2, bias=True)
)",2,128,0.2,0.0,0.001,0.95,0.792175,0.207825,0.4674007264328449,2.738975,109559,10441,24,716.8903225806451,20.489756000000007,TitForTat
71,"QNetwork(
  (flatten): Flatten(start_dim=1, end_dim=-1)
  (layer1): Linear(in_features=4, out_features=128, bias=True)
  (layer2): Linear(in_features=128, out_features=128, bias=True)
  (layer3): Linear(in_features=128, out_features=2, bias=True)
)",2,128,0.2,0.0,0.01,0.95,0.900825,0.099175,2.437306064522266,2.89285,115714,4286,17,741.0435483870967,20.635222,TitForTat
72,"QNetwork(
  (flatten): Flatten(start_dim=1, end_dim=-1)
  (layer1): Linear(in_features=8, out_features=4, bias=True)
  (layer2): Linear(in_features=4, out_features=4, bias=True)
  (layer3): Linear(in_features=4, out_features=2, bias=True)
)",4,4,0.05,0.0,0.001,0.95,0.975675,0.024325,1.8338295505666122,2.975775,119031,969,23,708.7016129032259,18.651335000000003,TitForTat
73,"QNetwork(
  (flatten): Flatten(start_dim=1, end_dim=-1)
  (layer1): Linear(in_features=8, out_features=4, bias=True)
  (layer2): Linear(in_features=4, out_features=4, bias=True)
  (layer3): Linear(in_features=4, out_features=2, bias=True)
)",4,4,0.05,0.0,0.01,0.95,0.87725,0.12275,0.11794458148904655,2.789975,111599,8401,18,737.9774193548387,20.680336999999998,TitForTat
74,"QNetwork(
  (flatten): Flatten(start_dim=1, end_dim=-1)
  (layer1): Linear(in_features=8, out_features=4, bias=True)
  (layer2): Linear(in_features=4, out_features=4, bias=True)
  (layer3): Linear(in_features=4, out_features=2, bias=True)
)",4,4,0.1,0.0,0.001,0.95,0.949825,0.050175,2.4721875,2.948275,117931,2069,25,669.7612903225806,17.444973000000005,TitForTat
75,"QNetwork(
  (flatten): Flatten(start_dim=1, end_dim=-1)
  (layer1): Linear(in_features=8, out_features=4, bias=True)
  (layer2): Linear(in_features=4, out_features=4, bias=True)
  (layer3): Linear(in_features=4, out_features=2, bias=True)
)",4,4,0.1,0.0,0.01,0.95,0.9492,0.0508,2.471514489245415,2.947375,117895,2105,25,704.4645161290323,17.944819000000003,TitForTat
76,"QNetwork(
  (flatten): Flatten(start_dim=1, end_dim=-1)
  (layer1): Linear(in_features=8, out_features=4, bias=True)
  (layer2): Linear(in_features=4, out_features=4, bias=True)
  (layer3): Linear(in_features=4, out_features=2, bias=True)
)",4,4,0.2,0.0,0.001,0.95,0.5493,0.4507,1.4798386873265614,2.32005,92802,27198,30,429.44193548387096,20.775430999999998,TitForTat
77,"QNetwork(
  (flatten): Flatten(start_dim=1, end_dim=-1)
  (layer1): Linear(in_features=8, out_features=4, bias=True)
  (layer2): Linear(in_features=4, out_features=4, bias=True)
  (layer3): Linear(in_features=4, out_features=2, bias=True)
)",4,4,0.2,0.0,0.01,0.95,0.898975,0.101025,2.3961438297804367,2.889975,115599,4401,25,672.9806451612903,17.702498,TitForTat
78,"QNetwork(
  (flatten): Flatten(start_dim=1, end_dim=-1)
  (layer1): Linear(in_features=8, out_features=8, bias=True)
  (layer2): Linear(in_features=8, out_features=8, bias=True)
  (layer3): Linear(in_features=8, out_features=2, bias=True)
)",4,8,0.05,0.0,0.001,0.95,0.524875,0.475125,0.4794974429998161,2.178025,87121,32879,24,692.3612903225807,18.109528,TitForTat
79,"QNetwork(
  (flatten): Flatten(start_dim=1, end_dim=-1)
  (layer1): Linear(in_features=8, out_features=8, bias=True)
  (layer2): Linear(in_features=8, out_features=8, bias=True)
  (layer3): Linear(in_features=8, out_features=2, bias=True)
)",4,8,0.05,0.0,0.01,0.95,0.80075,0.19925,0.19413087225652584,2.643025,105721,14279,25,710.1838709677419,17.947378,TitForTat
80,"QNetwork(
  (flatten): Flatten(start_dim=1, end_dim=-1)
  (layer1): Linear(in_features=8, out_features=8, bias=True)
  (layer2): Linear(in_features=8, out_features=8, bias=True)
  (layer3): Linear(in_features=8, out_features=2, bias=True)
)",4,8,0.1,0.0,0.001,0.95,0.05095,0.94905,0.6724820741224976,1.168725,46749,73251,30,417.8806451612903,18.897343,TitForTat
81,"QNetwork(
  (flatten): Flatten(start_dim=1, end_dim=-1)
  (layer1): Linear(in_features=8, out_features=8, bias=True)
  (layer2): Linear(in_features=8, out_features=8, bias=True)
  (layer3): Linear(in_features=8, out_features=2, bias=True)
)",4,8,0.1,0.0,0.01,0.95,0.8485,0.1515,0.12517844528249106,2.7682,110728,9272,24,704.0096774193548,17.649727999999996,TitForTat
82,"QNetwork(
  (flatten): Flatten(start_dim=1, end_dim=-1)
  (layer1): Linear(in_features=8, out_features=8, bias=True)
  (layer2): Linear(in_features=8, out_features=8, bias=True)
  (layer3): Linear(in_features=8, out_features=2, bias=True)
)",4,8,0.2,0.0,0.001,0.95,0.55755,0.44245,2.0271082499666377,2.505875,100235,19765,25,609.5822580645162,20.220162,TitForTat
83,"QNetwork(
  (flatten): Flatten(start_dim=1, end_dim=-1)
  (layer1): Linear(in_features=8, out_features=8, bias=True)
  (layer2): Linear(in_features=8, out_features=8, bias=True)
  (layer3): Linear(in_features=8, out_features=2, bias=True)
)",4,8,0.2,0.0,0.01,0.95,0.89905,0.10095,2.397678960105155,2.8904,115616,4384,21,724.9048387096774,17.745243000000002,TitForTat
84,"QNetwork(
  (flatten): Flatten(start_dim=1, end_dim=-1)
  (layer1): Linear(in_features=8, out_features=16, bias=True)
  (layer2): Linear(in_features=16, out_features=16, bias=True)
  (layer3): Linear(in_features=16, out_features=2, bias=True)
)",4,16,0.05,0.0,0.001,0.95,0.382475,0.617525,0.16401989946030393,2.0217,80868,39132,19,751.9725806451613,18.932501,TitForTat
85,"QNetwork(
  (flatten): Flatten(start_dim=1, end_dim=-1)
  (layer1): Linear(in_features=8, out_features=16, bias=True)
  (layer2): Linear(in_features=16, out_features=16, bias=True)
  (layer3): Linear(in_features=16, out_features=2, bias=True)
)",4,16,0.05,0.0,0.01,0.95,0.817925,0.182075,0.2000726376568433,2.680375,107215,12785,22,741.2467741935484,18.240096000000005,TitForTat
86,"QNetwork(
  (flatten): Flatten(start_dim=1, end_dim=-1)
  (layer1): Linear(in_features=8, out_features=16, bias=True)
  (layer2): Linear(in_features=16, out_features=16, bias=True)
  (layer3): Linear(in_features=16, out_features=2, bias=True)
)",4,16,0.1,0.0,0.001,0.95,0.45175,0.54825,0.2842969445493279,2.13915,85566,34434,18,753.1758064516129,19.321324999999995,TitForTat
87,"QNetwork(
  (flatten): Flatten(start_dim=1, end_dim=-1)
  (layer1): Linear(in_features=8, out_features=16, bias=True)
  (layer2): Linear(in_features=16, out_features=16, bias=True)
  (layer3): Linear(in_features=16, out_features=2, bias=True)
)",4,16,0.1,0.0,0.01,0.95,0.94905,0.05095,2.470967165952921,2.946975,117879,2121,19,736.4048387096774,18.592268000000004,TitForTat
88,"QNetwork(
  (flatten): Flatten(start_dim=1, end_dim=-1)
  (layer1): Linear(in_features=8, out_features=16, bias=True)
  (layer2): Linear(in_features=16, out_features=16, bias=True)
  (layer3): Linear(in_features=16, out_features=2, bias=True)
)",4,16,0.2,0.0,0.001,0.95,0.53515,0.46485,0.46532327442164534,2.317875,92715,27285,21,725.7725806451613,18.914849999999998,TitForTat
89,"QNetwork(
  (flatten): Flatten(start_dim=1, end_dim=-1)
  (layer1): Linear(in_features=8, out_features=16, bias=True)
  (layer2): Linear(in_features=16, out_features=16, bias=True)
  (layer3): Linear(in_features=16, out_features=2, bias=True)
)",4,16,0.2,0.0,0.01,0.95,0.7561,0.2439,0.22287542138061886,2.63015,105206,14794,30,426.5048387096774,21.332225000000005,TitForTat
90,"QNetwork(
  (flatten): Flatten(start_dim=1, end_dim=-1)
  (layer1): Linear(in_features=8, out_features=32, bias=True)
  (layer2): Linear(in_features=32, out_features=32, bias=True)
  (layer3): Linear(in_features=32, out_features=2, bias=True)
)",4,32,0.05,0.0,0.001,0.95,0.460275,0.539725,0.09116691653155044,2.190425,87617,32383,15,757.9774193548387,19.398515,TitForTat
91,"QNetwork(
  (flatten): Flatten(start_dim=1, end_dim=-1)
  (layer1): Linear(in_features=8, out_features=32, bias=True)
  (layer2): Linear(in_features=32, out_features=32, bias=True)
  (layer3): Linear(in_features=32, out_features=2, bias=True)
)",4,32,0.05,0.0,0.01,0.95,0.027,0.973,0.4843136551261337,1.099,43960,76040,27,478.80645161290323,22.52010800000001,TitForTat
92,"QNetwork(
  (flatten): Flatten(start_dim=1, end_dim=-1)
  (layer1): Linear(in_features=8, out_features=32, bias=True)
  (layer2): Linear(in_features=32, out_features=32, bias=True)
  (layer3): Linear(in_features=32, out_features=2, bias=True)
)",4,32,0.1,0.0,0.001,0.95,0.6134,0.3866,0.3624240196874971,2.394275,95771,24229,19,730.4935483870968,18.17421,TitForTat
93,"QNetwork(
  (flatten): Flatten(start_dim=1, end_dim=-1)
  (layer1): Linear(in_features=8, out_features=32, bias=True)
  (layer2): Linear(in_features=32, out_features=32, bias=True)
  (layer3): Linear(in_features=32, out_features=2, bias=True)
)",4,32,0.1,0.0,0.01,0.95,0.812325,0.187675,0.2509799144325969,2.694775,107791,12209,25,660.2306451612903,16.755887,TitForTat
94,"QNetwork(
  (flatten): Flatten(start_dim=1, end_dim=-1)
  (layer1): Linear(in_features=8, out_features=32, bias=True)
  (layer2): Linear(in_features=32, out_features=32, bias=True)
  (layer3): Linear(in_features=32, out_features=2, bias=True)
)",4,32,0.2,0.0,0.001,0.95,0.584275,0.415725,2.056215834855847,2.536175,101447,18553,25,549.4129032258064,19.04869400000001,TitForTat
95,"QNetwork(
  (flatten): Flatten(start_dim=1, end_dim=-1)
  (layer1): Linear(in_features=8, out_features=32, bias=True)
  (layer2): Linear(in_features=32, out_features=32, bias=True)
  (layer3): Linear(in_features=32, out_features=2, bias=True)
)",4,32,0.2,0.0,0.01,0.95,0.9004,0.0996,2.436195156411957,2.891325,115653,4347,14,763.0225806451613,19.085614,TitForTat
96,"QNetwork(
  (flatten): Flatten(start_dim=1, end_dim=-1)
  (layer1): Linear(in_features=8, out_features=64, bias=True)
  (layer2): Linear(in_features=64, out_features=64, bias=True)
  (layer3): Linear(in_features=64, out_features=2, bias=True)
)",4,64,0.05,0.0,0.001,0.95,0.867075,0.132925,0.20015094718232362,2.8058,112232,7768,23,725.9548387096775,19.319753999999993,TitForTat
97,"QNetwork(
  (flatten): Flatten(start_dim=1, end_dim=-1)
  (layer1): Linear(in_features=8, out_features=64, bias=True)
  (layer2): Linear(in_features=64, out_features=64, bias=True)
  (layer3): Linear(in_features=64, out_features=2, bias=True)
)",4,64,0.05,0.0,0.01,0.95,0.9753,0.0247,2.486897800117731,2.975025,119001,999,22,735.7435483870968,19.216955000000006,TitForTat
98,"QNetwork(
  (flatten): Flatten(start_dim=1, end_dim=-1)
  (layer1): Linear(in_features=8, out_features=64, bias=True)
  (layer2): Linear(in_features=64, out_features=64, bias=True)
  (layer3): Linear(in_features=64, out_features=2, bias=True)
)",4,64,0.1,0.0,0.001,0.95,0.949425,0.050575,2.4713860879272223,2.9476,117904,2096,18,733.8161290322581,19.050407,TitForTat
99,"QNetwork(
  (flatten): Flatten(start_dim=1, end_dim=-1)
  (layer1): Linear(in_features=8, out_features=64, bias=True)
  (layer2): Linear(in_features=64, out_features=64, bias=True)
  (layer3): Linear(in_features=64, out_features=2, bias=True)
)",4,64,0.1,0.0,0.01,0.95,0.7796,0.2204,0.2835660719809195,2.632975,105319,14681,23,721.5725806451613,17.943134999999998,TitForTat
100,"QNetwork(
  (flatten): Flatten(start_dim=1, end_dim=-1)
  (layer1): Linear(in_features=8, out_features=64, bias=True)
  (layer2): Linear(in_features=64, out_features=64, bias=True)
  (layer3): Linear(in_features=64, out_features=2, bias=True)
)",4,64,0.2,0.0,0.001,0.95,0.558525,0.441475,1.8360627649867522,2.439,97560,22440,27,475.6774193548387,22.366179000000002,TitForTat
101,"QNetwork(
  (flatten): Flatten(start_dim=1, end_dim=-1)
  (layer1): Linear(in_features=8, out_features=64, bias=True)
  (layer2): Linear(in_features=64, out_features=64, bias=True)
  (layer3): Linear(in_features=64, out_features=2, bias=True)
)",4,64,0.2,0.0,0.01,0.95,0.90325,0.09675,2.4377257780790327,2.894475,115779,4221,22,731.3887096774193,19.046807,TitForTat
102,"QNetwork(
  (flatten): Flatten(start_dim=1, end_dim=-1)
  (layer1): Linear(in_features=8, out_features=128, bias=True)
  (layer2): Linear(in_features=128, out_features=128, bias=True)
  (layer3): Linear(in_features=128, out_features=2, bias=True)
)",4,128,0.05,0.0,0.001,0.95,0.728575,0.271425,0.13186554527634425,2.56495,102598,17402,25,681.9338709677419,18.559296,TitForTat
103,"QNetwork(
  (flatten): Flatten(start_dim=1, end_dim=-1)
  (layer1): Linear(in_features=8, out_features=128, bias=True)
  (layer2): Linear(in_features=128, out_features=128, bias=True)
  (layer3): Linear(in_features=128, out_features=2, bias=True)
)",4,128,0.05,0.0,0.01,0.95,0.97465,0.02535,2.486738949010242,2.974325,118973,1027,25,698.516129032258,19.161455000000004,TitForTat
104,"QNetwork(
  (flatten): Flatten(start_dim=1, end_dim=-1)
  (layer1): Linear(in_features=8, out_features=128, bias=True)
  (layer2): Linear(in_features=128, out_features=128, bias=True)
  (layer3): Linear(in_features=128, out_features=2, bias=True)
)",4,128,0.1,0.0,0.001,0.95,0.95125,0.04875,2.4361872227998096,2.94945,117978,2022,14,751.3048387096774,19.198338999999997,TitForTat
105,"QNetwork(
  (flatten): Flatten(start_dim=1, end_dim=-1)
  (layer1): Linear(in_features=8, out_features=128, bias=True)
  (layer2): Linear(in_features=128, out_features=128, bias=True)
  (layer3): Linear(in_features=128, out_features=2, bias=True)
)",4,128,0.1,0.0,0.01,0.95,0.87235,0.12765,0.2622530043410345,2.8141,112564,7436,21,724.2677419354839,20.160262,TitForTat
106,"QNetwork(
  (flatten): Flatten(start_dim=1, end_dim=-1)
  (layer1): Linear(in_features=8, out_features=128, bias=True)
  (layer2): Linear(in_features=128, out_features=128, bias=True)
  (layer3): Linear(in_features=128, out_features=2, bias=True)
)",4,128,0.2,0.0,0.001,0.95,0.899325,0.100675,2.435834849369526,2.8907,115628,4372,23,727.6483870967742,19.211228,TitForTat
107,"QNetwork(
  (flatten): Flatten(start_dim=1, end_dim=-1)
  (layer1): Linear(in_features=8, out_features=128, bias=True)
  (layer2): Linear(in_features=128, out_features=128, bias=True)
  (layer3): Linear(in_features=128, out_features=2, bias=True)
)",4,128,0.2,0.0,0.01,0.95,0.901275,0.098725,2.437222304266691,2.892825,115713,4287,23,722.4532258064517,19.412229,TitForTat
108,"QNetwork(
  (flatten): Flatten(start_dim=1, end_dim=-1)
  (layer1): Linear(in_features=16, out_features=4, bias=True)
  (layer2): Linear(in_features=4, out_features=4, bias=True)
  (layer3): Linear(in_features=4, out_features=2, bias=True)
)",8,4,0.05,0.0,0.001,0.95,0.974525,0.025475,2.3968799323497616,2.97415,118966,1034,15,761.7548387096774,19.533000000000005,TitForTat
109,"QNetwork(
  (flatten): Flatten(start_dim=1, end_dim=-1)
  (layer1): Linear(in_features=16, out_features=4, bias=True)
  (layer2): Linear(in_features=4, out_features=4, bias=True)
  (layer3): Linear(in_features=4, out_features=2, bias=True)
)",8,4,0.05,0.0,0.01,0.95,0.975875,0.024125,2.487404331588745,2.97565,119026,974,25,697.491935483871,17.13916699999999,TitForTat
110,"QNetwork(
  (flatten): Flatten(start_dim=1, end_dim=-1)
  (layer1): Linear(in_features=16, out_features=4, bias=True)
  (layer2): Linear(in_features=4, out_features=4, bias=True)
  (layer3): Linear(in_features=4, out_features=2, bias=True)
)",8,4,0.1,0.0,0.001,0.95,0.320675,0.679325,0.4744996382821993,1.8132,72528,47472,24,683.0903225806452,18.956618999999996,TitForTat
111,"QNetwork(
  (flatten): Flatten(start_dim=1, end_dim=-1)
  (layer1): Linear(in_features=16, out_features=4, bias=True)
  (layer2): Linear(in_features=4, out_features=4, bias=True)
  (layer3): Linear(in_features=4, out_features=2, bias=True)
)",8,4,0.1,0.0,0.01,0.95,0.78815,0.21185,0.21015634266730862,2.648325,105933,14067,23,716.6129032258065,17.90222199999999,TitForTat
112,"QNetwork(
  (flatten): Flatten(start_dim=1, end_dim=-1)
  (layer1): Linear(in_features=16, out_features=4, bias=True)
  (layer2): Linear(in_features=4, out_features=4, bias=True)
  (layer3): Linear(in_features=4, out_features=2, bias=True)
)",8,4,0.2,0.0,0.001,0.95,0.428575,0.571425,1.7741248702010184,2.239925,89597,30403,25,560.1306451612903,18.040918000000005,TitForTat
113,"QNetwork(
  (flatten): Flatten(start_dim=1, end_dim=-1)
  (layer1): Linear(in_features=16, out_features=4, bias=True)
  (layer2): Linear(in_features=4, out_features=4, bias=True)
  (layer3): Linear(in_features=4, out_features=2, bias=True)
)",8,4,0.2,0.0,0.01,0.95,0.56725,0.43275,0.38073310606502214,2.239825,89593,30407,23,720.4596774193549,17.483041999999994,TitForTat
114,"QNetwork(
  (flatten): Flatten(start_dim=1, end_dim=-1)
  (layer1): Linear(in_features=16, out_features=8, bias=True)
  (layer2): Linear(in_features=8, out_features=8, bias=True)
  (layer3): Linear(in_features=8, out_features=2, bias=True)
)",8,8,0.05,0.0,0.001,0.95,0.02585,0.97415,0.48256107590403974,1.096475,43859,76141,29,442.26774193548385,20.916437000000002,TitForTat
115,"QNetwork(
  (flatten): Flatten(start_dim=1, end_dim=-1)
  (layer1): Linear(in_features=16, out_features=8, bias=True)
  (layer2): Linear(in_features=8, out_features=8, bias=True)
  (layer3): Linear(in_features=8, out_features=2, bias=True)
)",8,8,0.05,0.0,0.01,0.95,0.035225,0.964775,0.5000170782123198,1.1188,44752,75248,27,464.6161290322581,20.953826,TitForTat
116,"QNetwork(
  (flatten): Flatten(start_dim=1, end_dim=-1)
  (layer1): Linear(in_features=16, out_features=8, bias=True)
  (layer2): Linear(in_features=8, out_features=8, bias=True)
  (layer3): Linear(in_features=8, out_features=2, bias=True)
)",8,8,0.1,0.0,0.001,0.95,0.95095,0.04905,2.4728386346158926,2.949525,117981,2019,25,652.2967741935483,16.620450000000005,TitForTat
117,"QNetwork(
  (flatten): Flatten(start_dim=1, end_dim=-1)
  (layer1): Linear(in_features=16, out_features=8, bias=True)
  (layer2): Linear(in_features=8, out_features=8, bias=True)
  (layer3): Linear(in_features=8, out_features=2, bias=True)
)",8,8,0.1,0.0,0.01,0.95,0.85875,0.14125,0.13814763486750145,2.78825,111530,8470,30,435.791935483871,21.854528000000002,TitForTat
118,"QNetwork(
  (flatten): Flatten(start_dim=1, end_dim=-1)
  (layer1): Linear(in_features=16, out_features=8, bias=True)
  (layer2): Linear(in_features=8, out_features=8, bias=True)
  (layer3): Linear(in_features=8, out_features=2, bias=True)
)",8,8,0.2,0.0,0.001,0.95,0.5947,0.4053,0.5635931971480717,2.3461,93844,26156,25,642.4387096774194,16.371413,TitForTat
119,"QNetwork(
  (flatten): Flatten(start_dim=1, end_dim=-1)
  (layer1): Linear(in_features=16, out_features=8, bias=True)
  (layer2): Linear(in_features=8, out_features=8, bias=True)
  (layer3): Linear(in_features=8, out_features=2, bias=True)
)",8,8,0.2,0.0,0.01,0.95,0.899,0.101,2.412314335485865,2.889325,115573,4427,20,736.233870967742,18.836713999999997,TitForTat
120,"QNetwork(
  (flatten): Flatten(start_dim=1, end_dim=-1)
  (layer1): Linear(in_features=16, out_features=16, bias=True)
  (layer2): Linear(in_features=16, out_features=16, bias=True)
  (layer3): Linear(in_features=16, out_features=2, bias=True)
)",8,16,0.05,0.0,0.001,0.95,0.4055,0.5945,0.2698460280247858,2.13505,85402,34598,24,708.3322580645162,18.414277000000002,TitForTat
121,"QNetwork(
  (flatten): Flatten(start_dim=1, end_dim=-1)
  (layer1): Linear(in_features=16, out_features=16, bias=True)
  (layer2): Linear(in_features=16, out_features=16, bias=True)
  (layer3): Linear(in_features=16, out_features=2, bias=True)
)",8,16,0.05,0.0,0.01,0.95,0.97635,0.02365,1.3663281920531287,2.975725,119029,971,22,712.5709677419355,18.726634,TitForTat
122,"QNetwork(
  (flatten): Flatten(start_dim=1, end_dim=-1)
  (layer1): Linear(in_features=16, out_features=16, bias=True)
  (layer2): Linear(in_features=16, out_features=16, bias=True)
  (layer3): Linear(in_features=16, out_features=2, bias=True)
)",8,16,0.1,0.0,0.001,0.95,0.2324,0.7676,0.21455534605540794,1.67575,67030,52970,26,508.9967741935484,18.970102,TitForTat
123,"QNetwork(
  (flatten): Flatten(start_dim=1, end_dim=-1)
  (layer1): Linear(in_features=16, out_features=16, bias=True)
  (layer2): Linear(in_features=16, out_features=16, bias=True)
  (layer3): Linear(in_features=16, out_features=2, bias=True)
)",8,16,0.1,0.0,0.01,0.95,0.948325,0.051675,2.470671750943328,2.9462,117848,2152,20,734.95,18.453706,TitForTat
124,"QNetwork(
  (flatten): Flatten(start_dim=1, end_dim=-1)
  (layer1): Linear(in_features=16, out_features=16, bias=True)
  (layer2): Linear(in_features=16, out_features=16, bias=True)
  (layer3): Linear(in_features=16, out_features=2, bias=True)
)",8,16,0.2,0.0,0.001,0.95,0.897425,0.102575,2.4348018699655793,2.888875,115555,4445,24,705.7290322580645,17.981196999999995,TitForTat
125,"QNetwork(
  (flatten): Flatten(start_dim=1, end_dim=-1)
  (layer1): Linear(in_features=16, out_features=16, bias=True)
  (layer2): Linear(in_features=16, out_features=16, bias=True)
  (layer3): Linear(in_features=16, out_features=2, bias=True)
)",8,16,0.2,0.0,0.01,0.95,0.900125,0.099875,2.4365313483607722,2.8919,115676,4324,24,697.5451612903225,17.937315,TitForTat
126,"QNetwork(
  (flatten): Flatten(start_dim=1, end_dim=-1)
  (layer1): Linear(in_features=16, out_features=32, bias=True)
  (layer2): Linear(in_features=32, out_features=32, bias=True)
  (layer3): Linear(in_features=32, out_features=2, bias=True)
)",8,32,0.05,0.0,0.001,0.95,0.974225,0.025775,1.5616462205269999,2.973725,118949,1051,25,725.8241935483871,18.59443599999999,TitForTat
127,"QNetwork(
  (flatten): Flatten(start_dim=1, end_dim=-1)
  (layer1): Linear(in_features=16, out_features=32, bias=True)
  (layer2): Linear(in_features=32, out_features=32, bias=True)
  (layer3): Linear(in_features=32, out_features=2, bias=True)
)",8,32,0.05,0.0,0.01,0.95,0.8604,0.1396,0.20140067242467558,2.759775,110391,9609,24,692.1064516129032,17.483581,TitForTat
128,"QNetwork(
  (flatten): Flatten(start_dim=1, end_dim=-1)
  (layer1): Linear(in_features=16, out_features=32, bias=True)
  (layer2): Linear(in_features=32, out_features=32, bias=True)
  (layer3): Linear(in_features=32, out_features=2, bias=True)
)",8,32,0.1,0.0,0.001,0.95,0.95015,0.04985,2.471963792584161,2.9483,117932,2068,24,700.8709677419355,18.376376,TitForTat
129,"QNetwork(
  (flatten): Flatten(start_dim=1, end_dim=-1)
  (layer1): Linear(in_features=16, out_features=32, bias=True)
  (layer2): Linear(in_features=32, out_features=32, bias=True)
  (layer3): Linear(in_features=32, out_features=2, bias=True)
)",8,32,0.1,0.0,0.01,0.95,0.950875,0.049125,2.472186785393953,2.9489,117956,2044,25,708.8758064516129,17.498357,TitForTat
130,"QNetwork(
  (flatten): Flatten(start_dim=1, end_dim=-1)
  (layer1): Linear(in_features=16, out_features=32, bias=True)
  (layer2): Linear(in_features=32, out_features=32, bias=True)
  (layer3): Linear(in_features=32, out_features=2, bias=True)
)",8,32,0.2,0.0,0.001,0.95,0.8976,0.1024,2.4353332208893264,2.889425,115577,4423,15,747.7903225806451,18.440468000000003,TitForTat
131,"QNetwork(
  (flatten): Flatten(start_dim=1, end_dim=-1)
  (layer1): Linear(in_features=16, out_features=32, bias=True)
  (layer2): Linear(in_features=32, out_features=32, bias=True)
  (layer3): Linear(in_features=32, out_features=2, bias=True)
)",8,32,0.2,0.0,0.01,0.95,0.8996,0.1004,2.4358021053534817,2.89115,115646,4354,22,719.1854838709677,18.456919999999993,TitForTat
132,"QNetwork(
  (flatten): Flatten(start_dim=1, end_dim=-1)
  (layer1): Linear(in_features=16, out_features=64, bias=True)
  (layer2): Linear(in_features=64, out_features=64, bias=True)
  (layer3): Linear(in_features=64, out_features=2, bias=True)
)",8,64,0.05,0.0,0.001,0.95,0.9578,0.0422,0.22812959573891076,2.952775,118111,1889,25,658.4822580645161,16.711706999999997,TitForTat
133,"QNetwork(
  (flatten): Flatten(start_dim=1, end_dim=-1)
  (layer1): Linear(in_features=16, out_features=64, bias=True)
  (layer2): Linear(in_features=64, out_features=64, bias=True)
  (layer3): Linear(in_features=64, out_features=2, bias=True)
)",8,64,0.05,0.0,0.01,0.95,0.975775,0.024225,2.486872237251699,2.975125,119005,995,25,682.1854838709677,17.951909000000004,TitForTat
134,"QNetwork(
  (flatten): Flatten(start_dim=1, end_dim=-1)
  (layer1): Linear(in_features=16, out_features=64, bias=True)
  (layer2): Linear(in_features=64, out_features=64, bias=True)
  (layer3): Linear(in_features=64, out_features=2, bias=True)
)",8,64,0.1,0.0,0.001,0.95,0.580175,0.419825,0.19113821364414044,2.30825,92330,27670,12,764.9016129032258,19.533030000000004,TitForTat
135,"QNetwork(
  (flatten): Flatten(start_dim=1, end_dim=-1)
  (layer1): Linear(in_features=16, out_features=64, bias=True)
  (layer2): Linear(in_features=64, out_features=64, bias=True)
  (layer3): Linear(in_features=64, out_features=2, bias=True)
)",8,64,0.1,0.0,0.01,0.95,0.95135,0.04865,2.4730854736983776,2.94985,117994,2006,25,714.9193548387096,19.027129,TitForTat
136,"QNetwork(
  (flatten): Flatten(start_dim=1, end_dim=-1)
  (layer1): Linear(in_features=16, out_features=64, bias=True)
  (layer2): Linear(in_features=64, out_features=64, bias=True)
  (layer3): Linear(in_features=64, out_features=2, bias=True)
)",8,64,0.2,0.0,0.001,0.95,0.5934,0.4066,2.076997290921316,2.549725,101989,18011,25,620.9903225806452,21.528554000000007,TitForTat
137,"QNetwork(
  (flatten): Flatten(start_dim=1, end_dim=-1)
  (layer1): Linear(in_features=16, out_features=64, bias=True)
  (layer2): Linear(in_features=64, out_features=64, bias=True)
  (layer3): Linear(in_features=64, out_features=2, bias=True)
)",8,64,0.2,0.0,0.01,0.95,0.89755,0.10245,2.4343775510282604,2.8885,115540,4460,23,713.5112903225806,18.524897999999997,TitForTat
138,"QNetwork(
  (flatten): Flatten(start_dim=1, end_dim=-1)
  (layer1): Linear(in_features=16, out_features=128, bias=True)
  (layer2): Linear(in_features=128, out_features=128, bias=True)
  (layer3): Linear(in_features=128, out_features=2, bias=True)
)",8,128,0.05,0.0,0.001,0.95,0.926875,0.073125,0.18261755097790097,2.891675,115667,4333,24,707.9274193548387,19.046954000000007,TitForTat
139,"QNetwork(
  (flatten): Flatten(start_dim=1, end_dim=-1)
  (layer1): Linear(in_features=16, out_features=128, bias=True)
  (layer2): Linear(in_features=128, out_features=128, bias=True)
  (layer3): Linear(in_features=128, out_features=2, bias=True)
)",8,128,0.05,0.0,0.01,0.95,0.9753,0.0247,2.486751194369793,2.974825,118993,1007,23,722.0,19.217905999999992,TitForTat
140,"QNetwork(
  (flatten): Flatten(start_dim=1, end_dim=-1)
  (layer1): Linear(in_features=16, out_features=128, bias=True)
  (layer2): Linear(in_features=128, out_features=128, bias=True)
  (layer3): Linear(in_features=128, out_features=2, bias=True)
)",8,128,0.1,0.0,0.001,0.95,0.674675,0.325325,0.2434866900576505,2.467325,98693,21307,20,726.1790322580645,19.303324999999997,TitForTat
141,"QNetwork(
  (flatten): Flatten(start_dim=1, end_dim=-1)
  (layer1): Linear(in_features=16, out_features=128, bias=True)
  (layer2): Linear(in_features=128, out_features=128, bias=True)
  (layer3): Linear(in_features=128, out_features=2, bias=True)
)",8,128,0.1,0.0,0.01,0.95,0.950125,0.049875,2.4723138965308666,2.948725,117949,2051,20,741.3016129032258,20.434804,TitForTat
142,"QNetwork(
  (flatten): Flatten(start_dim=1, end_dim=-1)
  (layer1): Linear(in_features=16, out_features=128, bias=True)
  (layer2): Linear(in_features=128, out_features=128, bias=True)
  (layer3): Linear(in_features=128, out_features=2, bias=True)
)",8,128,0.2,0.0,0.001,0.95,0.898625,0.101375,2.3978233452028475,2.889425,115577,4423,25,705.6032258064516,19.210414999999998,TitForTat
143,"QNetwork(
  (flatten): Flatten(start_dim=1, end_dim=-1)
  (layer1): Linear(in_features=16, out_features=128, bias=True)
  (layer2): Linear(in_features=128, out_features=128, bias=True)
  (layer3): Linear(in_features=128, out_features=2, bias=True)
)",8,128,0.2,0.0,0.01,0.95,0.899925,0.100075,2.4367349913485348,2.891725,115669,4331,25,693.0467741935483,19.104934000000007,TitForTat
144,"QNetwork(
  (flatten): Flatten(start_dim=1, end_dim=-1)
  (layer1): Linear(in_features=20, out_features=4, bias=True)
  (layer2): Linear(in_features=4, out_features=4, bias=True)
  (layer3): Linear(in_features=4, out_features=2, bias=True)
)",10,4,0.05,0.0,0.001,0.95,0.73645,0.26355,0.565458291940042,2.626025,105041,14959,25,666.8532258064516,16.726447999999994,TitForTat
145,"QNetwork(
  (flatten): Flatten(start_dim=1, end_dim=-1)
  (layer1): Linear(in_features=20, out_features=4, bias=True)
  (layer2): Linear(in_features=4, out_features=4, bias=True)
  (layer3): Linear(in_features=4, out_features=2, bias=True)
)",10,4,0.05,0.0,0.01,0.95,0.97505,0.02495,1.4460751711039832,2.9749,118996,1004,22,716.0112903225806,17.933472000000002,TitForTat
146,"QNetwork(
  (flatten): Flatten(start_dim=1, end_dim=-1)
  (layer1): Linear(in_features=20, out_features=4, bias=True)
  (layer2): Linear(in_features=4, out_features=4, bias=True)
  (layer3): Linear(in_features=4, out_features=2, bias=True)
)",10,4,0.1,0.0,0.001,0.95,0.593275,0.406725,0.4488557107405083,2.2559,90236,29764,22,719.7306451612903,18.614771000000005,TitForTat
147,"QNetwork(
  (flatten): Flatten(start_dim=1, end_dim=-1)
  (layer1): Linear(in_features=20, out_features=4, bias=True)
  (layer2): Linear(in_features=4, out_features=4, bias=True)
  (layer3): Linear(in_features=4, out_features=2, bias=True)
)",10,4,0.1,0.0,0.01,0.95,0.050625,0.949375,0.2518845064238816,1.16735,46694,73306,26,479.9596774193548,21.015244000000003,TitForTat
148,"QNetwork(
  (flatten): Flatten(start_dim=1, end_dim=-1)
  (layer1): Linear(in_features=20, out_features=4, bias=True)
  (layer2): Linear(in_features=4, out_features=4, bias=True)
  (layer3): Linear(in_features=4, out_features=2, bias=True)
)",10,4,0.2,0.0,0.001,0.95,0.8996,0.1004,2.3980092021104387,2.891525,115661,4339,16,741.9370967741935,18.573482,TitForTat
149,"QNetwork(
  (flatten): Flatten(start_dim=1, end_dim=-1)
  (layer1): Linear(in_features=20, out_features=4, bias=True)
  (layer2): Linear(in_features=4, out_features=4, bias=True)
  (layer3): Linear(in_features=4, out_features=2, bias=True)
)",10,4,0.2,0.0,0.01,0.95,0.897775,0.102225,2.3961872731139344,2.888075,115523,4477,18,734.9612903225807,17.975866999999997,TitForTat
150,"QNetwork(
  (flatten): Flatten(start_dim=1, end_dim=-1)
  (layer1): Linear(in_features=20, out_features=8, bias=True)
  (layer2): Linear(in_features=8, out_features=8, bias=True)
  (layer3): Linear(in_features=8, out_features=2, bias=True)
)",10,8,0.05,0.0,0.001,0.95,0.02575,0.97425,0.47578472645949516,1.0955,43820,76180,31,434.0548387096774,20.075992,TitForTat
151,"QNetwork(
  (flatten): Flatten(start_dim=1, end_dim=-1)
  (layer1): Linear(in_features=20, out_features=8, bias=True)
  (layer2): Linear(in_features=8, out_features=8, bias=True)
  (layer3): Linear(in_features=8, out_features=2, bias=True)
)",10,8,0.05,0.0,0.01,0.95,0.801325,0.198675,0.2126229819666328,2.65205,106082,13918,19,733.8274193548388,18.743201000000006,TitForTat
152,"QNetwork(
  (flatten): Flatten(start_dim=1, end_dim=-1)
  (layer1): Linear(in_features=20, out_features=8, bias=True)
  (layer2): Linear(in_features=8, out_features=8, bias=True)
  (layer3): Linear(in_features=8, out_features=2, bias=True)
)",10,8,0.1,0.0,0.001,0.95,0.3677,0.6323,0.5423773590730411,1.9798,79192,40808,26,472.7193548387097,18.341758,TitForTat
153,"QNetwork(
  (flatten): Flatten(start_dim=1, end_dim=-1)
  (layer1): Linear(in_features=20, out_features=8, bias=True)
  (layer2): Linear(in_features=8, out_features=8, bias=True)
  (layer3): Linear(in_features=8, out_features=2, bias=True)
)",10,8,0.1,0.0,0.01,0.95,0.949375,0.050625,2.4723895982682706,2.948175,117927,2073,25,690.0016129032258,17.49243299999999,TitForTat
154,"QNetwork(
  (flatten): Flatten(start_dim=1, end_dim=-1)
  (layer1): Linear(in_features=20, out_features=8, bias=True)
  (layer2): Linear(in_features=8, out_features=8, bias=True)
  (layer3): Linear(in_features=8, out_features=2, bias=True)
)",10,8,0.2,0.0,0.001,0.95,0.46495,0.53505,1.849432133679874,2.32105,92842,27158,25,565.6774193548387,18.910757000000004,TitForTat
155,"QNetwork(
  (flatten): Flatten(start_dim=1, end_dim=-1)
  (layer1): Linear(in_features=20, out_features=8, bias=True)
  (layer2): Linear(in_features=8, out_features=8, bias=True)
  (layer3): Linear(in_features=8, out_features=2, bias=True)
)",10,8,0.2,0.0,0.01,0.95,0.901275,0.098725,2.437926344303842,2.893225,115729,4271,18,739.7564516129032,17.922287999999998,TitForTat
156,"QNetwork(
  (flatten): Flatten(start_dim=1, end_dim=-1)
  (layer1): Linear(in_features=20, out_features=16, bias=True)
  (layer2): Linear(in_features=16, out_features=16, bias=True)
  (layer3): Linear(in_features=16, out_features=2, bias=True)
)",10,16,0.05,0.0,0.001,0.95,0.86615,0.13385,0.34997371281865014,2.78305,111322,8678,25,687.9354838709677,17.67365500000001,TitForTat
157,"QNetwork(
  (flatten): Flatten(start_dim=1, end_dim=-1)
  (layer1): Linear(in_features=20, out_features=16, bias=True)
  (layer2): Linear(in_features=16, out_features=16, bias=True)
  (layer3): Linear(in_features=16, out_features=2, bias=True)
)",10,16,0.05,0.0,0.01,0.95,0.974325,0.025675,1.4627314960411975,2.97415,118966,1034,8,783.9048387096774,19.902163,TitForTat
158,"QNetwork(
  (flatten): Flatten(start_dim=1, end_dim=-1)
  (layer1): Linear(in_features=20, out_features=16, bias=True)
  (layer2): Linear(in_features=16, out_features=16, bias=True)
  (layer3): Linear(in_features=16, out_features=2, bias=True)
)",10,16,0.1,0.0,0.001,0.95,0.4561,0.5439,0.5228083043295155,2.148425,85937,34063,24,712.1370967741935,17.320284,TitForTat
159,"QNetwork(
  (flatten): Flatten(start_dim=1, end_dim=-1)
  (layer1): Linear(in_features=20, out_features=16, bias=True)
  (layer2): Linear(in_features=16, out_features=16, bias=True)
  (layer3): Linear(in_features=16, out_features=2, bias=True)
)",10,16,0.1,0.0,0.01,0.95,0.7763,0.2237,0.21622669181100426,2.622325,104893,15107,25,628.4596774193549,17.253382000000013,TitForTat
160,"QNetwork(
  (flatten): Flatten(start_dim=1, end_dim=-1)
  (layer1): Linear(in_features=20, out_features=16, bias=True)
  (layer2): Linear(in_features=16, out_features=16, bias=True)
  (layer3): Linear(in_features=16, out_features=2, bias=True)
)",10,16,0.2,0.0,0.001,0.95,0.4486,0.5514,0.37502285898198895,2.1182,84728,35272,23,710.1241935483871,17.695903999999995,TitForTat
161,"QNetwork(
  (flatten): Flatten(start_dim=1, end_dim=-1)
  (layer1): Linear(in_features=20, out_features=16, bias=True)
  (layer2): Linear(in_features=16, out_features=16, bias=True)
  (layer3): Linear(in_features=16, out_features=2, bias=True)
)",10,16,0.2,0.0,0.01,0.95,0.897475,0.102525,2.4342000191931263,2.888575,115543,4457,25,701.1596774193548,17.93679,TitForTat
162,"QNetwork(
  (flatten): Flatten(start_dim=1, end_dim=-1)
  (layer1): Linear(in_features=20, out_features=32, bias=True)
  (layer2): Linear(in_features=32, out_features=32, bias=True)
  (layer3): Linear(in_features=32, out_features=2, bias=True)
)",10,32,0.05,0.0,0.001,0.95,0.7749,0.2251,0.40462651546535205,2.688125,107525,12475,24,689.8935483870968,16.744473000000003,TitForTat
163,"QNetwork(
  (flatten): Flatten(start_dim=1, end_dim=-1)
  (layer1): Linear(in_features=20, out_features=32, bias=True)
  (layer2): Linear(in_features=32, out_features=32, bias=True)
  (layer3): Linear(in_features=32, out_features=2, bias=True)
)",10,32,0.05,0.0,0.01,0.95,0.928775,0.071225,0.17667056264370276,2.897725,115909,4091,17,733.4209677419354,29.922060000000002,TitForTat
164,"QNetwork(
  (flatten): Flatten(start_dim=1, end_dim=-1)
  (layer1): Linear(in_features=20, out_features=32, bias=True)
  (layer2): Linear(in_features=32, out_features=32, bias=True)
  (layer3): Linear(in_features=32, out_features=2, bias=True)
)",10,32,0.1,0.0,0.001,0.95,0.482,0.518,0.8735245235538059,2.143175,85727,34273,21,743.1193548387097,19.498493999999997,TitForTat
165,"QNetwork(
  (flatten): Flatten(start_dim=1, end_dim=-1)
  (layer1): Linear(in_features=20, out_features=32, bias=True)
  (layer2): Linear(in_features=32, out_features=32, bias=True)
  (layer3): Linear(in_features=32, out_features=2, bias=True)
)",10,32,0.1,0.0,0.01,0.95,0.8738,0.1262,0.24195048142778278,2.81875,112750,7250,25,686.5806451612904,18.008493999999995,TitForTat
166,"QNetwork(
  (flatten): Flatten(start_dim=1, end_dim=-1)
  (layer1): Linear(in_features=20, out_features=32, bias=True)
  (layer2): Linear(in_features=32, out_features=32, bias=True)
  (layer3): Linear(in_features=32, out_features=2, bias=True)
)",10,32,0.2,0.0,0.001,0.95,0.568125,0.431875,2.029559568454119,2.503175,100127,19873,25,586.5983870967742,18.951622000000004,TitForTat
167,"QNetwork(
  (flatten): Flatten(start_dim=1, end_dim=-1)
  (layer1): Linear(in_features=20, out_features=32, bias=True)
  (layer2): Linear(in_features=32, out_features=32, bias=True)
  (layer3): Linear(in_features=32, out_features=2, bias=True)
)",10,32,0.2,0.0,0.01,0.95,0.90185,0.09815,2.404817352527276,2.893725,115749,4251,24,700.5096774193548,20.990191000000006,TitForTat
168,"QNetwork(
  (flatten): Flatten(start_dim=1, end_dim=-1)
  (layer1): Linear(in_features=20, out_features=64, bias=True)
  (layer2): Linear(in_features=64, out_features=64, bias=True)
  (layer3): Linear(in_features=64, out_features=2, bias=True)
)",10,64,0.05,0.0,0.001,0.95,0.975175,0.024825,2.486639887091273,2.974625,118985,1015,23,708.3532258064516,19.646170000000012,TitForTat
169,"QNetwork(
  (flatten): Flatten(start_dim=1, end_dim=-1)
  (layer1): Linear(in_features=20, out_features=64, bias=True)
  (layer2): Linear(in_features=64, out_features=64, bias=True)
  (layer3): Linear(in_features=64, out_features=2, bias=True)
)",10,64,0.05,0.0,0.01,0.95,0.970725,0.029275,2.474835867290914,2.965075,118603,1397,24,715.0241935483871,19.546485999999994,TitForTat
170,"QNetwork(
  (flatten): Flatten(start_dim=1, end_dim=-1)
  (layer1): Linear(in_features=20, out_features=64, bias=True)
  (layer2): Linear(in_features=64, out_features=64, bias=True)
  (layer3): Linear(in_features=64, out_features=2, bias=True)
)",10,64,0.1,0.0,0.001,0.95,0.710025,0.289975,0.25905771907241076,2.53445,101378,18622,25,690.2370967741936,18.558328000000003,TitForTat
171,"QNetwork(
  (flatten): Flatten(start_dim=1, end_dim=-1)
  (layer1): Linear(in_features=20, out_features=64, bias=True)
  (layer2): Linear(in_features=64, out_features=64, bias=True)
  (layer3): Linear(in_features=64, out_features=2, bias=True)
)",10,64,0.1,0.0,0.01,0.95,0.868725,0.131275,0.4163148624897709,2.818675,112747,7253,20,732.5451612903225,19.781320999999995,TitForTat
172,"QNetwork(
  (flatten): Flatten(start_dim=1, end_dim=-1)
  (layer1): Linear(in_features=20, out_features=64, bias=True)
  (layer2): Linear(in_features=64, out_features=64, bias=True)
  (layer3): Linear(in_features=64, out_features=2, bias=True)
)",10,64,0.2,0.0,0.001,0.95,0.89925,0.10075,2.436346008186048,2.8911,115644,4356,24,712.9129032258064,22.422040000000003,TitForTat
173,"QNetwork(
  (flatten): Flatten(start_dim=1, end_dim=-1)
  (layer1): Linear(in_features=20, out_features=64, bias=True)
  (layer2): Linear(in_features=64, out_features=64, bias=True)
  (layer3): Linear(in_features=64, out_features=2, bias=True)
)",10,64,0.2,0.0,0.01,0.95,0.898325,0.101675,2.433934871777403,2.888625,115545,4455,22,717.7112903225807,19.765143,TitForTat
174,"QNetwork(
  (flatten): Flatten(start_dim=1, end_dim=-1)
  (layer1): Linear(in_features=20, out_features=128, bias=True)
  (layer2): Linear(in_features=128, out_features=128, bias=True)
  (layer3): Linear(in_features=128, out_features=2, bias=True)
)",10,128,0.05,0.0,0.001,0.95,0.973425,0.026575,2.4861456214678475,2.973175,118927,1073,24,707.7838709677419,19.673389000000004,TitForTat
175,"QNetwork(
  (flatten): Flatten(start_dim=1, end_dim=-1)
  (layer1): Linear(in_features=20, out_features=128, bias=True)
  (layer2): Linear(in_features=128, out_features=128, bias=True)
  (layer3): Linear(in_features=128, out_features=2, bias=True)
)",10,128,0.05,0.0,0.01,0.95,0.974825,0.025175,2.487117733499408,2.974875,118995,1005,19,728.5145161290322,20.066339000000003,TitForTat
176,"QNetwork(
  (flatten): Flatten(start_dim=1, end_dim=-1)
  (layer1): Linear(in_features=20, out_features=128, bias=True)
  (layer2): Linear(in_features=128, out_features=128, bias=True)
  (layer3): Linear(in_features=128, out_features=2, bias=True)
)",10,128,0.1,0.0,0.001,0.95,0.484825,0.515175,1.9233862615108148,2.413325,96533,23467,26,513.6225806451613,20.604898,TitForTat
177,"QNetwork(
  (flatten): Flatten(start_dim=1, end_dim=-1)
  (layer1): Linear(in_features=20, out_features=128, bias=True)
  (layer2): Linear(in_features=128, out_features=128, bias=True)
  (layer3): Linear(in_features=128, out_features=2, bias=True)
)",10,128,0.1,0.0,0.01,0.95,0.950725,0.049275,2.4724733688593608,2.949,117960,2040,24,703.7822580645161,19.447994,TitForTat
178,"QNetwork(
  (flatten): Flatten(start_dim=1, end_dim=-1)
  (layer1): Linear(in_features=20, out_features=128, bias=True)
  (layer2): Linear(in_features=128, out_features=128, bias=True)
  (layer3): Linear(in_features=128, out_features=2, bias=True)
)",10,128,0.2,0.0,0.001,0.95,0.9019,0.0981,2.4374445235824687,2.893575,115743,4257,25,641.5112903225806,21.152753,TitForTat
179,"QNetwork(
  (flatten): Flatten(start_dim=1, end_dim=-1)
  (layer1): Linear(in_features=20, out_features=128, bias=True)
  (layer2): Linear(in_features=128, out_features=128, bias=True)
  (layer3): Linear(in_features=128, out_features=2, bias=True)
)",10,128,0.2,0.0,0.01,0.95,0.900925,0.099075,2.4369809576595203,2.8926,115704,4296,25,680.9274193548387,19.78158399999999,TitForTat
