,model,lookback,n1,epsilon,epsilon_decay,learning_rate,discount_rate,tr_cooperation_percentage,tr_defection_percentage,tr_final_loss,tr_mean_reward,tr_cumul_reward,tr_cumul_regret,tn_rank,tn_mean_score,tn_mean_time,agents
0,"QNetwork(
  (flatten): Flatten(start_dim=1, end_dim=-1)
  (layer1): Linear(in_features=16, out_features=8, bias=True)
  (layer2): Linear(in_features=8, out_features=8, bias=True)
  (layer3): Linear(in_features=8, out_features=2, bias=True)
)",8,8,0.1,0.0,0.005,0.99,0.412525,0.587475,1.027200691375824,1.970075,157606,82394,25,698.7161290322581,18.70541,"TitForTat,OmegaTFT,AllC,AllD"
1,"QNetwork(
  (flatten): Flatten(start_dim=1, end_dim=-1)
  (layer1): Linear(in_features=16, out_features=12, bias=True)
  (layer2): Linear(in_features=12, out_features=12, bias=True)
  (layer3): Linear(in_features=12, out_features=2, bias=True)
)",8,12,0.1,0.0,0.005,0.99,0.9470375,0.0529625,1.8941328445835228,2.2640875,181127,58873,23,752.1,18.623649000000007,"TitForTat,OmegaTFT,AllC,AllD"
2,"QNetwork(
  (flatten): Flatten(start_dim=1, end_dim=-1)
  (layer1): Linear(in_features=16, out_features=16, bias=True)
  (layer2): Linear(in_features=16, out_features=16, bias=True)
  (layer3): Linear(in_features=16, out_features=2, bias=True)
)",8,16,0.1,0.0,0.005,0.99,0.5486,0.4514,1.1305290397203036,2.043325,163466,76534,24,694.4903225806452,17.888964,"TitForTat,OmegaTFT,AllC,AllD"
3,"QNetwork(
  (flatten): Flatten(start_dim=1, end_dim=-1)
  (layer1): Linear(in_features=16, out_features=20, bias=True)
  (layer2): Linear(in_features=20, out_features=20, bias=True)
  (layer3): Linear(in_features=20, out_features=2, bias=True)
)",8,20,0.1,0.0,0.005,0.99,0.9494375,0.0505625,1.891229422089085,2.2607375,180859,59141,21,717.8129032258065,20.133909999999993,"TitForTat,OmegaTFT,AllC,AllD"
4,"QNetwork(
  (flatten): Flatten(start_dim=1, end_dim=-1)
  (layer1): Linear(in_features=16, out_features=24, bias=True)
  (layer2): Linear(in_features=24, out_features=24, bias=True)
  (layer3): Linear(in_features=24, out_features=2, bias=True)
)",8,24,0.1,0.0,0.005,0.99,0.9504,0.0496,1.8791798105359077,2.24655,179724,60276,25,689.9467741935484,16.285159,"TitForTat,OmegaTFT,AllC,AllD"
