,model,lookback,n1,epsilon,epsilon_decay,learning_rate,discount_rate,tr_cooperation_percentage,tr_defection_percentage,tr_final_loss,tr_mean_reward,tr_cumul_reward,tr_cumul_regret,tn_rank,tn_mean_score,tn_mean_time,agents
0,"QNetwork(
  (flatten): Flatten(start_dim=1, end_dim=-1)
  (layer1): Linear(in_features=16, out_features=8, bias=True)
  (layer2): Linear(in_features=8, out_features=8, bias=True)
  (layer3): Linear(in_features=8, out_features=2, bias=True)
)",8,8,0.2,0.0,0.001,0.95,0.211025,0.788975,0.7657885662181039,1.971275,157702,82298,24,706.9177419354838,15.882652999999994,"TitForTat,OmegaTFT,AllC,AllD"
1,"QNetwork(
  (flatten): Flatten(start_dim=1, end_dim=-1)
  (layer1): Linear(in_features=16, out_features=12, bias=True)
  (layer2): Linear(in_features=12, out_features=12, bias=True)
  (layer3): Linear(in_features=12, out_features=2, bias=True)
)",8,12,0.2,0.0,0.001,0.95,0.3147,0.6853,0.7152884831334779,1.9478125,155825,84175,25,614.0387096774193,15.662621999999999,"TitForTat,OmegaTFT,AllC,AllD"
2,"QNetwork(
  (flatten): Flatten(start_dim=1, end_dim=-1)
  (layer1): Linear(in_features=16, out_features=16, bias=True)
  (layer2): Linear(in_features=16, out_features=16, bias=True)
  (layer3): Linear(in_features=16, out_features=2, bias=True)
)",8,16,0.2,0.0,0.001,0.95,0.35715,0.64285,0.6557939101497636,2.1676125,173409,66591,25,694.7322580645161,15.806754,"TitForTat,OmegaTFT,AllC,AllD"
3,"QNetwork(
  (flatten): Flatten(start_dim=1, end_dim=-1)
  (layer1): Linear(in_features=16, out_features=20, bias=True)
  (layer2): Linear(in_features=20, out_features=20, bias=True)
  (layer3): Linear(in_features=20, out_features=2, bias=True)
)",8,20,0.2,0.0,0.001,0.95,0.8992,0.1008,1.885338806250475,2.24645,179716,60284,25,691.7822580645161,17.219663000000004,"TitForTat,OmegaTFT,AllC,AllD"
